Backend/SavedModels/3in_mlp.pth (torch, 17928 bytes, 5 tensors)

weight f4 [56, 3]
00000000: 12b9 b5be c353 183e 97da 8abe 3a28 f0be
00000010: 5000 dd3e 6414 40be 4b5c 193e b7c9 7cbe
00000020: 887d 883d a4d2 bd3e e8d3 83bc c62c d6be
00000030: a53d 0a3f ce2a 673d bd94 163f 238e 1d3e
00000040: 60d7 a13b 1913 a6be f926 9e3e 5b7f 2c3e
00000050: 5bdd 043f 3fa7 efbe 5336 6cbe 12a6 253e
00000060: e179 bebc 06b5 14bf 8684 debe 6c8a a4be
00000070: 62c8 93be 45fa 743d 3627 f9be 6dd2 ec3e
00000080: 757c 213e 752f 3cbe 1fec 0bbe 1464 9f3e
00000090: 0608 0d3d 2215 07be ee01 8d3e a48e e7be
000000a0: de63 543e fc2a 98be f511 87bd f33c e7bd
000000b0: 4ccf 2f3d 47c8 b33d 2240 13bf 1215 ba3e
000000c0: 7660 6ebe 60a3 453e b059 203d db44 363e
000000d0: 7710 62be 7efd 9a3c 44ec e9be a55c 1f3f
000000e0: e5ca cabb a3e0 32be b2b4 ee3d 1340 013e
000000f0: c1a3 0f3e 601e 12bf 31a3 5fbe a597 ce3e
00000100: f507 efbe b7e8 cc3e 2014 7bbf fbf5 493d
00000110: 25e6 a9bd 1236 a03d 23be a63e b920 1a3e
00000120: 689e c43e ff82 fbbe 8242 cf3e da13 b53e
00000130: 4041 98bc 17df 04bf 5902 5cbe 36e3 0cbe
00000140: 9128 4bbe e765 083f 53ad 8e3d 14b3 5e3c
00000150: 4df5 b73e 8e51 a0be 1755 23be 49a4 eabe
00000160: 8717 3cbe bef9 debe e6b6 c53d 13a9 a23d
00000170: 694c cbbc 802b 933d 4e80 51bd 1a96 923e
00000180: 56bb 06bf 1bf2 e03e 4d3c 3dbe 5dd3 173e
00000190: 3a96 8c3d e4bb 4b3d 4918 4cbf 6703 76bd
000001a0: 58be 20bc 5725 94bd 54c7 99be 1935 7fbe
000001b0: 1459 b8be 5bd7 59be 096c 92be 372f f13d
000001c0: be9c 3ebd 56d9 0a3e 10ef 03bf 807c 9c3e
000001d0: 80eb a83c 3c1c f7bd 5fda 82be 3902 f8bd
000001e0: 5616 a73e 9e42 10be 9456 743e abd0 0d3d
000001f0: 34c8 963e 00cf 833d bc41 3cbe 7662 923e
00000200: f736 89be b2d0 c9be 9e26 eb3e a799 c93e
00000210: 2c11 cbbc d2b3 48bf 9234 e93e 4b13 a73e
00000220: 16c1 54be 97fe a93e d7d7 a13e a624 063e
00000230: 61a6 df3e 02a0 863e fc8a 523d 8069 8fbe
00000240: bff7 a03e e2f6 cc3e 6f46 5cbd 1d73 0cbe
00000250: 2d4c c9bd dfb0 173e 21bf 03bf e814 103d
00000260: 7548 213f f672 f13e 6951 35be b3a8 843e
00000270: acda 7fbd 4240 69be 041d b33e 85c8 e03e
00000280: 41ab 2bbe 2a36 803e 2a1b 963d 371d bcbe
00000290: d1cb 113f 7452 e0be 1af1 3abe f3df 01bf
-0.3549276 0.14875703 -0.27119896 -0.4690569 0.431643 -0.18757778 0.14976613 -0.24686323
0.06664568 0.3707477 -0.016092256 -0.41831034 0.5400031 0.056437306 0.58820707 0.15386252
0.004939005 -0.32436445 0.3088911 0.16845457 0.5190026 -0.46807286 -0.23067598 0.16176632
-0.023251476 -0.5808872 -0.43460482 -0.32136858 -0.28863817 0.059808988 -0.48662728 0.46254292
0.15770133 -0.18377478 -0.13664292 0.3113104 0.03443148 -0.13191655 0.27540535 -0.45226014
0.20741221 -0.29720294 -0.06595222 -0.11290922 0.042922303 0.08778434 -0.57519734 0.363442
-0.23278984 0.19300604 0.039148033 0.17799704 -0.22076593 0.018919703 -0.4568807 0.6225074
-0.0061887377 -0.17468505 0.11655559 0.12622099 0.14027311 -0.570776 -0.21839596 0.4035007
-0.46685758 0.40021297 -0.98077583 0.04930685 -0.0829585 0.07822813 0.32566938 0.15051545
0.38402104 -0.4912338 0.4048043 0.35366708 -0.018585801 -0.5190291 -0.2148527 -0.13758549
-0.19839694 0.5328049 0.06966653 0.0135925 0.35929337 -0.3131222 -0.15950428 -0.45828465
-0.1836835 -0.43549913 0.09654026 0.079424046 -0.024816709 0.07186031 -0.05114775 0.28630143
-0.526296 0.43934712 -0.18480034 0.14826722 0.06864591 0.049739733 -0.79724556 -0.06006184
-0.0098110065 -0.072336845 -0.30034888 -0.24922599 -0.3600546 -0.21273558 -0.2859805 0.11776584
-0.0465362 0.1355947 -0.51536655 0.30563736 0.020620108 -0.12065932 -0.2555723 -0.12109799
0.32634228 -0.14087912 0.23861152 0.03462283 0.29449618 0.064359665 -0.1838445 0.28590745
-0.26799747 -0.39417034 0.459279 0.3937504 -0.024788462 -0.78399384 0.4554792 0.32631907
-0.20776781 0.3320205 0.31609985 0.13099918 0.43681625 0.2629395 0.051402077 -0.28010178
0.31439015 0.40032107 -0.05377811 -0.13715787 -0.098289825 0.14813565 -0.51463515 0.035176188
0.63001186 0.4715802 -0.17706837 0.25909957 -0.0624644 -0.22778419 0.34983075 0.43902984
-0.16764547 0.25041324 0.073294 -0.3674104 0.56951624 -0.43812907 -0.18256035 -0.50732344

bias f4 [56]
00000000: db97 dd3c bd96 df3e 6f40 bdbe a9d4 3a3d
00000010: 5494 c6be 77e9 953d d927 fc3e b2d3 733e
00000020: 0f8c 0cbf 4abc 733e ff7c ad3e 9283 06be
00000030: bd30 12bf 7c4b 93be 1a21 9dbe e9a5 86be
00000040: 7c99 efbe 9926 ad3e f5be d83e e6b4 593e
00000050: cafa 6bbf 8acd b1be 1f3e 3abf a9e0 19bf
00000060: 8757 953e 46a1 fabe 200e 973e 8ecf 933e
00000070: 245b 043f ebe3 f13d 2ab6 21be d902 38bd
00000080: 0bd9 5f3d e4b9 ef3d 4b66 25bf c961 c93e
00000090: 061d 2e3e 152a b6be a147 cdbe 0069 5a3d
000000a0: 28e2 37bf 73d4 debe cf75 d9be 488d 0bbf
000000b0: c092 25bd d33a 7abe 17c1 85be 77f3 1d3f
000000c0: 0674 25bf 9e52 fd3e 9171 0c3f 95e8 cb3e
000000d0: 53e0 583e 6c61 5bbf 7c19 4cbd 7e38 91be
0.02704995 0.43669692 -0.3696322 0.045612965 -0.3878504 0.073199205 0.4924915 0.23811224
-0.5490121 0.23802295 0.33884427 -0.13136128 -0.5710562 -0.28768528 -0.30689317 -0.26298454
-0.46796787 0.3381851 0.4233319 0.21260414 -0.9217955 -0.34727126 -0.7275104 -0.6010843
0.2916834 -0.48951167 0.29502964 0.2886929 0.5170157 0.1181105 -0.15792146 -0.04492459
0.054650348 0.11705378 -0.6460921 0.39332417 0.17003259 -0.3557898 -0.4009371 0.053322792
-0.7182946 -0.4352146 -0.42472693 -0.54512453 -0.040423155 -0.24436502 -0.26123878 0.6169962
-0.6463016 0.49477094 0.5486079 0.39825884 0.21179323 -0.8569553 -0.04982899 -0.28363413

weight f4 [56, 56]
00000000: 1cb0 52be e73c 1a3e fac6 13be 6307 173e
00000010: 4083 3c3e f7ba 993e f893 57be d8e2 0dbe
00000020: f1e1 383f 408a 96bc 8338 ffbd afaf a0bd
00000030: eb89 793d 84d7 c6be 0905 2b3d 6bd1 98be
00000040: fe29 f8bd d76e 953e 93be a9bc b354 b43d
00000050: 5332 babe 59d4 403e 26dd 58c0 b80b 3bbe
00000060: 1f9d bb3e 6262 3bbd 9305 bb3d 7d39 febd
00000070: 4fad 8c3e 6a42 ff3d b084 27be de04 87be
00000080: 517e 21be 0f6f febc 3a40 45c0 7092 fd3d
00000090: 3b28 343e 9603 47bd 58c7 d43c afcb 643e
000000a0: dcee 20be 39ac c3bd c034 dd3c 745f 183d
000000b0: 8f69 603f 4e97 583e 88ba b23b df4d 883e
000000c0: d9ab 8ebb 18f1 ff3d 158d 50bd 4b4c 03bf
000000d0: c94a bcbb bb43 a3bc afcc debe 45d0 37be
000000e0: f263 0ebe 3f35 f7bd 0092 0bbc c133 64bd
000000f0: fa3b a4bd 8f57 dcbc ef97 c5bd aec1 303d
00000100: 2d27 303d 1440 273d 7dd3 06be a2eb dbbd
00000110: 287c 2abc d60d 99bb bbf5 3bbd 0008 13be
00000120: c8e1 a03c 8e6b 1dbe 1039 b5bd dc75 ec3d
00000130: 0e06 9b3c b04f db3d d943 9abc ac62 bfbd
00000140: bbfa 46bd 670f e2bd 026e aabd 5335 d4bd
00000150: ebdd 02be ae35 c03c 0056 d03b 7aac 1abd
00000160: 1023 01be 4468 683d 3907 a5bd 1380 23be
00000170: 18b7 acbd 877d 013e 24bc 96bd fd32 48bc
00000180: 721f 81bd 4c97 ddbc 510f e9bd 4894 9e3c
00000190: 7a39 803c 2abf 72bd c60b 943d 8253 d9bd
000001a0: 946f 7abd dfb1 883d dc89 2f3d d4c9 27bd
000001b0: 6c30 e4bc 5a3d 8fbd d7c4 963d 89cb 443d
000001c0: 9246 743d 3ed8 3e3e b98d 1b3e 760b c5bc
000001d0: 3a7a 5f3c 838f 10bd b7b9 4d3e 10e2 d73d
000001e0: e9f3 cabe 4383 eb3d d734 b73e 636e aebd
000001f0: e1e8 99bd 4c6a 9abd 7bcf 96be e8dd cebd
00000200: 4a3c 01be eb6d 603e 8528 a53e 5857 053e
00000210: 8767 8dbf f645 8abd 5e5a d43d 4115 80bc
00000220: d0ba 9d3d 387f d53c 7b09 0f3e 7cfa 973d
00000230: f2bb 79bc b58b ff3d 2613 c7bd ff1a 9abd
00000240: 2254 743e b6a4 a33d bf2e 613e a9c3 013d
00000250: 2be8 bbbd 7ea3 b1bd 6a5e 3cbd 36ea f2bc
00000260: 717d 86bd e87b 3a3d fc3e 553d 815e 993d
00000270: 8293 a5be e209 11bd 53be 073e a025 283e
00000280: 9c8f d83d dd04 aa3d 0be1 123e e0e2 353e
00000290: 97fd 263d df14 08bc 8104 2b3e b40a 10be
000002a0: 7179 d8bd 4f7d ac3c 9428 aebd 460c a33d
000002b0: 00b1 08bd 6d0d 27bd 5a83 c8bd 8069 b73c
000002c0: fed6 5b3d b84e 4bbc e2de 1fbd ddb0 003e
000002d0: c378 b0bd 1fdf 913a a334 c4bc 5ca6 dc3c
000002e0: 1b15 81bd e590 53bd e1db 903c 0e64 51bd
000002f0: d1e4 28ba 3055 043c a6eb a0bd c889 2fbc
00000300: 2534 28be 34c3 c6bc 560a 72bd ef4d f9bd
00000310: b134 22be 8512 adbd acbc 033d 10fd f4bc
00000320: 5aae 723d 8808 ea3c 4545 5d3d 7a70 25be
00000330: 2548 eabd 74eb 8cbc 90cb 7ebc ddc8 85bd
00000340: 04e1 4dbd f448 02be 5c92 70bd 6c72 583d
00000350: a863 a5bd c35f 03be 1675 f5bd 8160 393d
00000360: 2c25 00be 9a82 6f3d 07ab 04be 40f4 163b
00000370: 7638 f93d 2b73 87bd 54d8 533d 92ec fe3c
00000380: e0aa 633b f92e 913e e125 073d 206d 8bbd
00000390: 76dd b7be e9a2 eebb f364 1f3e d2c1 803d
000003a0: df8e f6be 14f5 c23d 8696 a93e 453a 4f3d
000003b0: 4ae0 09be 58d3 193e b273 1abf 9b9b b9be
000003c0: 68d9 b7bd 932f 0c3e c793 8d3e 051a 5c3e
000003d0: 678c 0bc0 068f 26be a1fd 913e edf1 a9be
000003e0: 47af 3fbd 921b 9ebd 1297 463e 5b77 89bc
000003f0: 4ba5 fc3d 3252 bc3d 9536 1bbe bfee bebd
-0.20574993 0.15062295 -0.14431372 0.14748912 0.18409443 0.30025455 -0.2105254 -0.13856065
0.7221976 -0.01837647 -0.12461951 -0.07846009 0.060922544 -0.388363 0.04175285 -0.29847273
-0.121173844 0.29186127 -0.020720756 0.088052176 -0.3636652 0.18831004 -3.3884978 -0.18266189
0.3664331 -0.045748122 0.091319226 -0.12413309 0.27475974 0.12463839 -0.1635921 -0.263709
-0.15770842 -0.031058816 -3.082045 0.12381446 0.17593472 -0.048587404 0.02597396 0.22343324
-0.15716118 -0.09554333 0.027002692 0.037200406 0.8766107 0.21151468 0.005454365 0.2662191
-0.004353982 0.12497157 -0.050915796 -0.5128829 -0.00574622 -0.019929757 -0.43515536 -0.17950542
-0.13905314 -0.12070703 -0.008518696 -0.05571342 -0.08019252 -0.02689722 -0.0964812 0.043153457
0.04300611 0.040832594 -0.13166614 -0.10738303 -0.010405578 -0.004670839 -0.045888644 -0.1435852
0.01963891 -0.1537306 -0.088487744 0.115459174 0.018923786 0.107085586 -0.01883118 -0.09344992
-0.04857896 -0.11038094 -0.083217636 -0.10361733 -0.12779967 0.023463096 0.0063579082 -0.037762143
-0.12611032 0.05674006 -0.08058018 -0.15966825 -0.0843336 0.12645541 -0.07360104 -0.012219188
-0.06304826 -0.027049683 -0.113798745 0.019357815 0.015652407 -0.05926434 0.07228808 -0.10611631
-0.061141565 0.06674551 0.042856082 -0.040963963 -0.02785512 -0.06994124 0.07361763 0.04804567
0.059637614 0.18637177 0.15190782 -0.024053317 0.013639981 -0.035293113 0.20090376 0.10541165
-0.39639214 0.114996456 0.357825 -0.08517148 -0.07515121 -0.07539806 -0.2945517 -0.10100919
-0.12620655 0.2191693 0.32257476 0.130216 -1.1047219 -0.06751625 0.10368799 -0.015635135
0.07701647 0.02606164 0.1396846 0.07420823 -0.015242564 0.12477819 -0.09720449 -0.0752468
0.23860219 0.079904005 0.21990488 0.031680737 -0.09175142 -0.08673762 -0.045988478 -0.029652696
-0.06566895 0.045528322 0.05206202 0.07488728 -0.32339102 -0.035409816 0.13256197 0.16420603
0.10574266 0.08301709 0.1434366 0.17762327 0.040769186 -0.008305757 0.16700937 -0.14066583
-0.10570038 0.021055846 -0.085038334 0.07961325 -0.033371925 -0.04078429 -0.09790678 0.022389174
0.05367183 -0.012408905 -0.039030917 0.12567468 -0.086167835 0.0011129117 -0.02395088 0.026934795
-0.06302854 -0.051651854 0.017682971 -0.05112081 -0.00064427877 0.008076951 -0.07857446 -0.010714002
-0.16426142 -0.024263002 -0.05909189 -0.12173068 -0.15840413 -0.08450798 0.032162353 -0.029905826
0.059248306 0.028568521 0.05402114 -0.16156188 -0.11439542 -0.017202117 -0.015551463 -0.06532452
-0.05026342 -0.12723142 -0.05873333 0.052843496 -0.080756485 -0.12829499 -0.11985223 0.04525805
-0.1251418 0.05847416 -0.12955867 0.0023033768 0.12168972 -0.066137634 0.05171998 0.031118665
0.00347393 0.2835615 0.03299511 -0.06807923 -0.3591115 -0.007282604 0.15565853 0.06286968
-0.48155877 0.09519401 0.33122653 0.05059268 -0.13464466 0.15022027 -0.6033279 -0.3625153
-0.08977014 0.13690023 0.27651808 0.214943 -2.1804445 -0.16265497 0.28513816 -0.33192387
-0.046798017 -0.07720102 0.19393566 -0.016780546 0.12336215 0.09195365 -0.1515754 -0.09322881

bias f4 [56]
00000000: 1d05 803e a8eb abbd 566d 0d3e eb70 07be
00000010: 5efe 843e 3341 203e 08bc 1b3d 067a debd
00000020: 9299 883e 2e75 b43d d141 0bbd 71a8 b4bd
00000030: 17e3 a03d 41ae bcbd cc1f 8b3e d78c 9dba
00000040: 4dbe 3f3d aa5a d6bd 492d cbbd 6175 613e
00000050: 3bdd 89bd 46d1 62bd f314 943d 1c50 27be
00000060: f1ed b63d 7687 9e3d 55f5 49be 815e 4a3e
00000070: a66b 803e 0a10 103d 42ec a13c 9dcf afbd
00000080: 1c04 9fbc 41cc 05bd 6661 c0bd da04 78bd
00000090: 2f9b fdbd eb90 373e 9892 193c 8442 373e
000000a0: 8446 cb3d da15 44bc c1ca 643d de6f c4bd
000000b0: 2043 3dbd 8add 07be 9158 0cbe b3a8 08be
000000c0: d5bf 4e3d 1bcb 08be d107 23be b58c a63d
000000d0: 3ec3 813e 60ec 0c3e 2301 5b3e 7e62 693e
0.250039 -0.08394557 0.1381124 -0.13226669 0.25975317 0.15649872 0.038021117 -0.10863118
0.26679665 0.08811413 -0.033998314 -0.0882119 0.07855814 -0.09212924 0.27172697 -0.0012020123
0.046812344 -0.104665115 -0.09920747 0.22017433 -0.067316495 -0.05537536 0.07230558 -0.16339153
0.089321025 0.07740681 -0.19722493 0.19762613 0.2508213 0.035171546 0.019765977 -0.08584521
-0.01941114 -0.032665495 -0.09393577 -0.0605515 -0.123831145 0.17926376 0.00937333 0.17896467
0.09925559 -0.0119681 0.055857424 -0.095916495 -0.046206594 -0.13268104 -0.1370566 -0.13345604
0.050475914 -0.13358729 -0.1592095 0.081323065 0.2534427 0.13762045 0.21387152 0.22791478

weight f4 [1, 56]
00000000: be18 18bf d523 a3bd 6c41 2f3e 4ddd bbba
00000010: b49b 6e3e 0b85 bb3c 0c16 a8bd 3f71 db3c
00000020: c484 033e 95ab 1e3d 4211 97bd b0d2 62bd
00000030: dad3 053e 781b 37bd 975b 923d b59c a13c
00000040: 5aa2 59bd 706e 193d 3e2a c2bc 7cfb 043d
00000050: 8b6f 993c 0427 3a3c 2e42 fa3d 14bd 1f3e
00000060: 4ba0 da3b 1168 0d3d 5bd7 a0bb 22f1 b03d
00000070: e55d ff3d dbdc 76bd b4dd 5e3d 3f5e 55bc
00000080: 29a3 9c3c 2e36 93bc 43d5 203d aa94 ff3d
00000090: f24c bb3d 3715 4a3e 385b 0a3c 475d a83d
000000a0: 3c14 b93c 3019 963c 270c 103d 1382 903c
000000b0: 2eaa 353d 2173 8b3c ac4e e7bc ec15 32bd
000000c0: 3431 be3b 7157 033e 1b37 9cbd ae92 f73d
000000d0: aaef 2f3e 11b3 2f3d c76a 033e 1d95 033e
-0.59412754 -0.07965819 0.171148 -0.001433292 0.23301584 0.022890588 -0.0820733 0.026787398
0.12843615 0.038737852 -0.073763385 -0.05537671 0.13069096 -0.04470393 0.071463756 0.019728044
-0.053133346 0.037458837 -0.023701783 0.032466397 0.018729946 0.011361841 0.12219654 0.15599471
0.0066719404 0.034523074 -0.004908485 0.086397424 0.12469081 -0.060269218 0.05441065 -0.013022958
0.01912077 -0.01797017 0.039265882 0.12479527 0.091455355 0.19734655 0.0084446 0.08220916
0.022592656 0.018322557 0.03516784 0.01764015 0.04435175 0.017022671 -0.028235756 -0.043477938
0.0058042053 0.12826325 -0.07627698 0.12088524 0.17181268 0.04289538 0.12833701 0.12849851
