Backend/SavedModels/3inmodel.pth (torch, 16476 bytes, 5 tensors)

network.0.weight f4 [56, 3]
000000 15 84 10 3e 82 cb 71 be 0d 80 ff 3e 7e 47 41 bd
       0.14112885 -0.23612788 0.49902382 -0.04718732
000010 47 c6 00 3f 37 42 b0 3e 35 fc f0 bd be 97 a6 bc
       0.5030255 0.34425518 -0.11766855 -0.020336028
000020 f9 31 3b 3e a5 f6 3a 3b 1b ce db 3e 94 d3 96 be
       0.18280782 0.002852836 0.42930683 -0.29458296
000030 10 df 8f 3e bd 34 dd 3e 69 fe de 3d ee 2a 2c bf
       0.2809987 0.432043 0.10888369 -0.67253006
000040 ec 65 42 be 66 9c a5 bc 50 5c 32 3e 69 fb 95 bd
       -0.18984193 -0.020216178 0.17418027 -0.07323343
000050 4e 13 12 3d 2d ec 8c be 16 c0 cc be fb 12 13 3d
       0.03566294 -0.27523938 -0.399903 0.035906773
000060 b6 a7 97 be 2a ae a6 be 26 4a 0d 3f ad e8 fa 3e
       -0.2962014 -0.32554752 0.55191267 0.49005643
000070 88 b6 2a bf 1d d3 e0 3e 67 dd a5 bd f8 89 81 3e
       -0.6668477 0.43911067 -0.0809887 0.25300574
000080 f6 65 21 be b8 36 e3 3e 1c 5f be 3e 50 ab a0 be
       -0.15761551 0.44377685 0.37181938 -0.313807
000090 42 23 41 bf c9 2e 03 3e 8d a0 45 3e 65 48 21 be
       -0.75444424 0.12810816 0.19299527 -0.15750273
0000a0 d2 94 1c 3f 9d a2 f8 be ea 0d 43 be bd cf f8 3e
       0.6116458 -0.48561564 -0.19048277 0.48595992
0000b0 8c c6 18 bf d3 e2 b0 be 6c 34 e1 3e c0 78 89 3e
       -0.5967796 -0.34548053 0.43985307 0.26849937
0000c0 4f 61 30 be 56 47 92 bd c4 6f 92 3e 58 01 04 bf
       -0.1722462 -0.071425125 0.28600895 -0.5156455
0000d0 7e 5d 95 3e 49 d9 c5 bb 13 36 93 be e0 e3 07 3f
       0.2917289 -0.0060378653 -0.28752193 0.53082085
0000e0 5f 91 8e 3e 07 a9 20 bf 23 33 40 3f 33 b3 01 bf
       0.27845284 -0.62757915 0.7507803 -0.5066406
0000f0 ad 79 1e be 10 db 59 3e dc eb ee bd f0 4c 3b bd
       -0.15476103 0.21274972 -0.1166608 -0.04572767
000100 08 57 8a bd 28 e0 63 3e b2 62 b3 3e f6 66 cb 3e
       -0.06754881 0.22253478 0.35036236 0.3972699
000110 58 e9 30 be 62 95 bc 3e 0b e7 fc 3d 3e 46 fd 3d
       -0.17276514 0.3683272 0.123487554 0.12366913
000120 1f cf ee 3e 06 0f e7 bd 10 06 51 3d 2b 3c 0c bf
       0.46642396 -0.11282162 0.051031172 -0.5477931
000130 6a 5a c4 3e 2a 29 8b 3e cd 87 8c 3c 5e 01 48 3e
       0.3835023 0.27179843 0.017154599 0.19531772
000140 34 a6 ca be 3d 42 fa be fe ae 09 3e a5 92 aa be
       -0.39579928 -0.4887866 0.1344566 -0.33315006
000150 54 97 29 3f fd c3 86 bc 39 d7 fc be 92 a0 3e bb
       0.66246533 -0.016450876 -0.49382952 -0.0029087407
000160 4a 5c ec bb 94 26 d2 3e 98 9b 92 bd 0c b3 3e 3e
       -0.00721315 0.41045058 -0.071585834 0.18622988
000170 10 3c f3 bd 16 87 ae 39 2b 36 d0 3e 9f 0d d4 3e
       -0.118766904 0.00033288513 0.40666327 0.41416642
000180 20 c9 b8 3d 80 5e aa 3c 54 1d f0 bd 8f 98 dc be
       0.090227365 0.020797014 -0.11724344 -0.43085143
000190 8e ff 97 3d 6f 67 cf 3e 27 70 43 bc 66 41 2a 3e
       0.0742179 0.405086 -0.011928595 0.1662651
0001a0 00 14 9a 3e ea cf 37 3f db 33 de bc 89 7b 06 bf
       0.30093384 0.71801627 -0.027124336 -0.5253225
0001b0 1e 57 06 bf cd 58 9c bd 87 7c 11 3f 53 44 5e 3c
       -0.5247668 -0.07634125 0.5683064 0.013566094
0001c0 34 ca a3 bd 8a 6e e0 be 4c 99 ef 3c de 72 46 bf
       -0.079975516 -0.43834335 0.029247902 -0.77519023
0001d0 7f 6f d7 3e 95 1b eb 3d 1a a1 0c 3e 06 b7 52 be
       0.42077252 0.1147987 0.1373333 -0.2057763
0001e0 58 13 cf be 76 7b 8b 3e bb 4c 93 be 77 6a 03 bf
       -0.40444446 0.2724263 -0.28769478 -0.5133433
0001f0 7e f9 fc 3d fa d7 99 3e 6b 46 3b 3e ac ad 5f 3d
       0.12352274 0.3004759 0.18288581 0.054608986
000200 dc 65 08 be 66 b2 88 bd c6 7c 5b 3e 64 08 f4 3e
       -0.13320106 -0.06674652 0.21434316 0.47662652
000210 e8 3f 64 be fb e7 a2 3e f0 db b0 3c 88 64 a1 3e
       -0.22290003 0.31817612 0.02158925 0.31522012
000220 90 9d 61 3e 21 de 0c bf 24 07 f8 be 5f 5b 87 3e
       0.22032762 -0.5502644 -0.48442948 0.26436898
000230 62 5c c5 3e 1a a4 07 3f 5a e4 15 bf f6 f0 04 3f
       0.38547045 0.52984774 -0.5855156 0.5193018
000240 6b 55 8b 3e 77 8b a7 be 5c 33 c2 bd cc 1b 0d bf
       0.27213606 -0.3272359 -0.09482452 -0.5512054
000250 7f ad 8e 3e 3c 49 70 3d 9d 78 1c bb 51 31 60 3d
       0.27866742 0.05866359 -0.0023875602 0.05473453
000260 64 21 8e bd 6b 64 e2 be bf e7 9d be 2b e6 d6 3d
       -0.069399625 -0.44217238 -0.3084087 0.1049312
000270 b5 c1 05 3f 40 a8 ae 3e c9 61 86 3e d4 f9 fa 3e
       0.522487 0.3411274 0.2624648 0.4901873
000280 1b dc 9f be 3f ed c0 bd 5a 51 a1 be 7f f1 d1 bd
       -0.31222615 -0.09420251 -0.3150738 -0.1025114
000290 36 17 20 3e cc 0b 8e bd bd 07 c1 bd 6e 8f 2d 3e
       0.15633854 -0.06935844 -0.09425304 0.16949245

network.0.bias f4 [56]
000000 5c f7 2f bd ad e7 b8 bd 64 1a f1 3c ac e3 b2 3e
       -0.04296051 -0.09028564 0.02943153 0.34939325
000010 8b a8 dc bd 05 85 f9 be c0 63 0e 3e c6 76 5a bf
       -0.107743345 -0.48734298 0.13905239 -0.85337484
000020 0e 0a 10 bf f1 51 be 3e 01 61 90 be cd bf c9 3d
       -0.5626534 0.3717189 -0.28199008 0.09851036
000030 70 23 91 be 7f f6 26 3d c8 bf a7 be 20 c5 d6 3d
       -0.2834735 0.04076242 -0.32763505 0.10486817
000040 f1 de a1 3d 52 94 07 3f 6a d8 e8 be a0 e3 ad bd
       0.07903851 0.52960694 -0.4547761 -0.08490682
000050 92 8c 2a 3e ae ae f3 be b6 42 f3 be 0b 11 2b bf
       0.16655186 -0.47594208 -0.47511834 -0.6682288
000060 ca 33 98 3e 1e 08 c7 3e 4f 7e 27 be 8f de dd 3c
       0.29727012 0.3887338 -0.16356777 0.027083663
000070 27 cc 47 3e 52 eb 3f 3f ec 93 d2 be ee 5a 1b 3f
       0.19511472 0.74968445 -0.4112848 0.6068562
000080 ce 94 5d be 23 44 aa 3e 30 03 ae 3e 3c 99 59 3e
       -0.21638796 0.3325511 0.33986807 0.2124986
000090 ab 27 16 3f 22 8b 30 bf 12 86 c3 bc a5 39 7b 3d
       0.5865428 -0.689623 -0.02386764 0.06133427
0000a0 a9 d1 15 bd 32 7f 95 be cc 32 b2 3e 29 8d 92 3e
       -0.0365769 -0.29198605 0.3480438 0.28623322
0000b0 a0 1e 2d 3e 90 7c e6 be 6b 43 e3 3e 78 25 db be
       0.16906214 -0.4501691 0.44387373 -0.42802024
0000c0 8d 29 1b bf c1 24 c9 bd 47 9b bb 3e c7 6b 5d bf
       -0.60610276 -0.098214634 0.36641905 -0.8649258
0000d0 39 24 fa 3e fe 7d 9b 3e c9 78 fb be 31 43 9c be
       0.4885576 0.30369562 -0.4911559 -0.30520013

network.2.weight f4 [56, 56]
000000 14 8b 87 3d 08 64 b1 3c 30 04 04 bc 4c 5d cc bd
       0.06618324 0.021654144 -0.008057639 -0.099787325
000010 3c 24 08 be 50 8a 67 3d 30 79 11 bc e2 f9 4f bd
       -0.13295072 0.05652839 -0.008878991 -0.050775416
000020 a7 b9 fb bd 21 5d b1 bd 58 b3 a5 3d 28 72 af bc
       -0.1229127 -0.08660341 0.08090848 -0.021416739
000030 4a 6f 37 bd 1c e0 68 3d fc 35 c5 bc e8 27 01 bd
       -0.044783868 0.056854352 -0.024073593 -0.0315322
000040 5c b5 02 bd da 33 85 3d 16 74 32 bd 60 21 a8 bb
       -0.03191124 0.065040305 -0.04356774 -0.0051309317
000050 6c 57 23 3d 28 02 2b bd ba ee 01 be a2 a2 47 bd
       0.039878294 -0.041750103 -0.12688723 -0.048739083
000060 cc d9 b9 bd fe 21 92 bd c4 8b 7e bd d9 fc a4 bd
       -0.090747446 -0.0713539 -0.06214501 -0.08056039
000070 d0 64 61 3c 53 e2 ee bd 80 01 6a 3c d4 66 3e 3d
       0.013756946 -0.11664262 0.014282584 0.046484783
000080 98 bc e5 3d 00 b4 a9 3a 84 f4 71 bd b8 ad 2d 3d
       0.11217612 0.0012947321 -0.05907108 0.042402
000090 6a a2 97 bd 18 25 93 bd dc 40 74 bd ee d4 b4 bd
       -0.07404025 -0.071848094 -0.059632167 -0.088296756
0000a0 40 ef d6 bc 58 58 23 3d 58 b0 03 be 7c 60 13 3d
       -0.02623713 0.039879173 -0.12860239 0.035980687
0000b0 f0 50 82 3c 56 2f c2 3d bc 3f d6 3d 20 ce ae bc
       0.015907735 0.09481685 0.10461375 -0.021338522
0000c0 f8 a1 42 bc e3 67 c6 bd e4 db 54 3d 2c 6d 04 3d
       -0.011879437 -0.096877836 0.051967517 0.032330677
0000d0 74 ad e1 bd 3e 32 bb bd 40 06 4a 3d 38 b0 72 3d
       -0.11019412 -0.09140442 0.049322367 0.059250087
0000e0 5f fb 7d bd d1 fb 5c 3d c8 88 37 bd a3 6b ba 3c
       -0.062007304 0.05395109 -0.04480818 0.022756403
0000f0 7b c4 ef bd 42 0b 18 be d6 d0 f5 bd 2d fe bd bd
       -0.117073976 -0.14848045 -0.12002723 -0.09276996
000100 0a 26 f9 3d f1 86 d4 bd 88 bf 1a bd d1 55 08 be
       0.121654585 -0.103773005 -0.037780315 -0.13313986
000110 72 a9 86 bd d4 c0 cf bd bc 54 7c 3b 5e cc 53 be
       -0.06575288 -0.10144201 0.0038502654 -0.20683429
000120 eb 78 01 3d 58 d2 10 be b9 3b 18 be 15 57 b7 3b
       0.031609457 -0.1414274 -0.14866532 0.005595098
000130 6a 55 8d 3c 30 41 16 bc f8 67 05 be 95 63 16 bd
       0.017252643 -0.009170815 -0.13027942 -0.036716063
000140 40 76 31 3d 61 93 6b bc ba cf 31 3c ea 0c 11 be
       0.043325663 -0.0143784 0.0108527485 -0.14165083
000150 d9 13 10 be 05 fe 06 be ab 2e 04 be c1 87 f6 bb
       -0.14070071 -0.13182838 -0.12908427 -0.0075235073
000160 aa 1c 0d bd 89 00 8c bd 8c 87 4c 3b 8c 3a 60 bc
       -0.034451164 -0.068360396 0.0031208722 -0.013685834
000170 86 87 b4 bd 86 6a 37 be 4b 42 21 be a0 58 d3 3c
       -0.088149115 -0.17911729 -0.15747945 0.025799096
000180 75 61 4e be 52 d0 5e bc ed d0 db bd 05 0c 19 be
       -0.20154364 -0.013599472 -0.10733209 -0.14945991
000190 a3 f7 85 bd 08 b9 5e bc f6 58 48 3d 48 9a 3f bb
       -0.065413736 -0.01359392 0.048912965 -0.0029236246
0001a0 35 07 83 bd b7 07 00 be 09 6f 6e bd 99 ef ac bd
       -0.06397859 -0.12502943 -0.05821136 -0.08444137
0001b0 88 d4 77 3a 1e 39 9b bd 18 6b bd bd e8 9e 87 bd
       0.0009453972 -0.075792536 -0.09248942 -0.06622106
0001c0 f8 d8 19 be 6f 0f 81 bd c4 9d f5 3c c3 9c 28 3d
       -0.15024173 -0.06301772 0.029982455 0.041165125
0001d0 bd 42 24 be 87 f2 03 be b1 43 05 bd 06 11 ba bc
       -0.16041084 -0.12885486 -0.03253526 -0.022713196
0001e0 83 4a f4 bd d9 d3 83 bd 84 56 86 bd 03 86 31 be
       -0.119282745 -0.06436891 -0.0655947 -0.17336278
0001f0 f5 fe 52 39 97 98 91 bd bb 36 e0 bd c2 cb 60 bc
       0.0002012214 -0.07109182 -0.10947939 -0.013720455
000200 6c 7b df bd 1c 35 1f be 83 cf f6 bd 96 92 1b 3d
       -0.10912213 -0.15547603 -0.120512985 0.037981592
000210 4e 5c 97 bd 00 04 fc 3c c4 80 97 bc 18 6f 2b 3c
       -0.073906526 0.030763626 -0.018494017 0.0104634985
000220 35 1c a1 bd f2 b3 a0 bb 9d f4 df bd d0 30 fe bd
       -0.07866708 -0.0049042637 -0.10935328 -0.12411654
000230 bb b4 02 bd 7d 97 bc bd 0a 68 b7 3d 90 11 88 bd
       -0.03191064 -0.092085816 0.08955391 -0.06643975
000240 54 46 20 bd 02 5e 11 3d 9b eb 74 bd d8 5b 4d 3d
       -0.03912957 0.035490043 -0.059795003 0.050136417
000250 4b e5 e5 3b 5e a2 38 3d 15 9f 15 3c 38 4a 17 bd
       0.0070158592 0.04507672 0.009132166 -0.036936015
000260 d1 39 9f 3c 04 72 3c be 87 61 34 bd 9a 95 2b bc
       0.019436749 -0.18402869 -0.04403832 -0.0104726795
000270 d6 93 50 bd b0 b5 ac bc 55 31 62 bd ac 74 1c bd
       -0.050922237 -0.02108273 -0.055222828 -0.038197204
000280 04 f5 c3 3d 56 1e 8d 3d 5a 4b 1a be 02 1d 03 bd
       0.095682174 0.06890552 -0.15067807 -0.032010086
000290 a7 33 09 3d 8e 8e cf bd 28 9e d4 bc 76 85 c0 bd
       0.033496525 -0.10134612 -0.025954321 -0.09400456
0002a0 c0 e9 20 bb f6 db f8 3d 42 ee c8 bd 52 25 4d bd
       -0.0024553388 0.12151329 -0.09811069 -0.05008442
0002b0 30 a6 12 bc ba 6d b7 bd 4c 2a 37 bd 06 c2 84 3d
       -0.008950755 -0.089564756 -0.04471807 0.064823195
0002c0 80 37 35 bb be 5b ab bd 90 d1 c8 bc 18 8d 3b 3d
       -0.0027651489 -0.08367108 -0.02451399 0.045788854
0002d0 b0 82 cb 3d be f6 8b 3d 0c e7 d6 bd b4 aa 06 be
       0.09937036 0.06834172 -0.104932874 -0.13151056
0002e0 50 00 35 3d c8 08 e8 bd 5d 48 d0 bd 98 09 e0 bc
       0.04418975 -0.113298 -0.10170052 -0.027348325
0002f0 72 54 cd bd 86 70 c4 3d 42 8e ed bd 86 f0 d5 bd
       -0.10025872 0.09591775 -0.11599399 -0.10446267
000300 50 31 ce bd 10 f4 02 be 18 40 b7 3d 80 15 74 3c
       -0.10067999 -0.12788415 0.08947772 0.014897704
000310 24 0b 11 3d d2 30 9c bd 2a 0a 86 bd 60 a1 30 3d
       0.035411015 -0.07626499 -0.065449074 0.04312265
000320 54 63 9b bc 2a e1 c5 3d 5c 19 a8 3d 04 f0 e6 bd
       -0.018968262 0.09662087 0.08207962 -0.11276248
000330 7c de b1 3d 64 d2 ad bc 94 65 bf bc 49 95 9c bd
       0.08685014 -0.021218486 -0.023363866 -0.076456614
000340 bc 11 f2 bc 90 56 37 3d b8 10 2e bc 0a 1b 04 be
       -0.029549472 0.044760287 -0.010624103 -0.1290094
000350 14 03 99 bc f2 9d d3 bd 30 09 be 3c 2e 12 f8 3d
       -0.018678226 -0.1033286 0.02319774 0.121128425
000360 80 e4 32 3d 39 7a ed bd b8 eb 12 3d 38 34 b0 3c
       0.043674946 -0.11595578 0.03586933 0.021509275
000370 0c 61 12 3d aa 7b bb 3d c0 68 a6 bd 37 18 01 be
       0.035737082 0.091544464 -0.08125448 -0.12606893
000380 65 ae bb 3d 8e 2d fe bd f1 d9 65 bd c0 c9 6f 3d
       0.091641225 -0.124110326 -0.05611605 0.058542013
000390 e1 b3 9a be 2b 02 d4 3d 0e 4f 10 be 41 d9 86 be
       -0.30215362 0.10351976 -0.14092657 -0.26337627
0003a0 90 6b a1 3c 95 4a 84 be e7 68 f7 bc 53 dc c3 3c
       0.01970461 -0.25838152 -0.030201389 0.02390877
0003b0 cb 31 35 3f f9 1d 2f 3e 9c 80 17 bf 6c dc 2e bd
       0.70779103 0.17101277 -0.5918062 -0.04269068
0003c0 6c c1 bf 3d 91 89 69 3e 82 d6 60 be 48 b8 3d 3e
       0.09363064 0.22806384 -0.21956828 0.18527329
0003d0 7c 67 ca bb 00 78 b8 39 5c 7c 6e be ae 7c eb be
       -0.006176887 0.00035184622 -0.23289627 -0.4599356
0003e0 4e 82 a5 3e a8 dc 6c 3e 2b f2 f8 bc 4b 45 b1 3d
       0.32325977 0.23131049 -0.030388912 0.08655795
0003f0 dd 1c f9 be 77 60 c8 3d e4 af 00 3d c6 b5 10 3e
       -0.48654833 0.09784024 0.031417742 0.14131841

network.2.bias f4 [56]
000000 5c 4b 9e bd 81 17 f4 bd 28 43 26 3b 84 f7 e3 bd
       -0.077292174 -0.119185455 0.0025369618 -0.11131194
000010 1e 53 d7 3c 20 87 df 3d 3e 0d 72 3d 34 4b f0 bd
       0.02628475 0.10914445 0.05909466 -0.11733094
000020 a3 48 cd 3d 17 ae 99 bd 32 20 11 3c 38 d1 1e 3e
       0.1002362 -0.07503908 0.008857774 0.15509498
000030 d4 fb 4f bd a4 80 b3 3d 8d 81 17 3d 1f 3d 80 3d
       -0.05077727 0.087647706 0.036988784 0.06261658
000040 8a 1c b1 bc 8a d3 92 bd 77 64 db be f3 59 35 be
       -0.021620054 -0.07169254 -0.42850086 -0.17710094
000050 00 c4 19 bc 3c 60 34 3e a1 8c 33 3e d6 fc a4 3e
       -0.009385109 0.17614836 0.17534114 0.3222415
000060 bd df 62 3e 87 a4 41 be 74 0f 0e 3d 68 bd 46 bc
       0.22155662 -0.18910418 0.034682706 -0.012130119
000070 d4 8e a6 bd 72 37 f2 3d af 00 04 be 29 71 4c bd
       -0.08132711 0.118269816 -0.12890886 -0.049912605
000080 96 a7 6d 3e 32 52 59 bc b4 64 35 3e d3 77 f0 3c
       0.2320846 -0.013264226 0.17714196 0.029354012
000090 44 d1 56 3c 2e 42 bb bd 8e a6 a1 bc cf c7 bf 3d
       0.013111416 -0.09143482 -0.01973274 0.09364282
0000a0 c9 b8 fc bd 23 25 2b bd 0c c4 79 3c e0 fc 14 3e
       -0.123399325 -0.041783463 0.015244495 0.14549589
0000b0 c7 13 13 be 66 78 4c bd c0 82 77 3d 52 05 bf bd
       -0.14363013 -0.04991951 0.060427427 -0.09327187
0000c0 19 a3 ae bd 9b 3e 9c 3d 8a eb 35 3e 77 a5 3e 3e
       -0.08527202 0.076291285 0.17765632 0.18617807
0000d0 4b 3c 8f 3d 6f e6 d7 bd 5f 39 87 bd 89 07 09 3d
       0.06993922 -0.105419986 -0.066027395 0.03345445

network.4.weight f4 [1, 56]
000000 96 4b c7 bd e3 f2 7c bd 1e 81 9d 3b 80 51 78 3d
       -0.09731214 -0.061755072 0.0048066517 0.0606246
000010 56 75 ee 3d 91 57 b6 3d 27 60 31 3e b4 b7 63 bd
       0.11643474 0.08903421 0.17321835 -0.055595115
000020 6c 7a 75 3d 11 86 00 3e 90 0c 1e bc 8e 09 95 3d
       0.059931204 0.12551142 -0.00964655 0.07277213
000030 ea 94 ef 3c ab 6a e8 3d 68 b9 02 bd 44 cf 14 3e
       0.029245812 0.1134847 -0.0319151 0.1453219
000040 97 a5 f9 3c 9c 92 01 bd d8 cc 56 bf 00 37 eb bb
       0.030474467 -0.03163396 -0.83906317 -0.0071781874
000050 7f e1 b9 bd ac a8 aa 3d ad fd 88 3d 5e bd ba 3e
       -0.09076213 0.08332953 0.0668901 0.364726
000060 53 ee 24 3e 68 d3 25 3d 89 07 14 3e 79 62 8d 3d
       0.16106538 0.040484816 0.14456 0.06903548
000070 dd 29 08 3d 97 1b 72 3e f9 f3 75 bd ee ee da 3c
       0.03324305 0.23643337 -0.060047124 0.026725259
000080 4c 27 29 3e 61 a5 bb 3d 70 99 33 3e 57 03 65 bd
       0.16518897 0.09162403 0.17539 -0.05591139
000090 52 75 85 3d 41 02 11 3e e3 4d f7 bd d2 f2 b4 3d
       0.06516518 0.14161016 -0.120754026 0.08835377
0000a0 0e f8 5b bd d8 5d f1 bc 5c c1 84 bc 6c d1 04 3e
       -0.05370336 -0.029463693 -0.016205482 0.12970513
0000b0 01 b8 b1 bd 24 26 84 bd 52 53 be 3d 44 a2 f8 bc
       -0.08677674 -0.06452587 0.09293236 -0.030350812
0000c0 37 27 df 3c c3 bf b2 3d bd 6c df 3d ec 7c 8e 3d
       0.027240379 0.08727982 0.10909412 0.06957421
0000d0 f2 16 10 3d cf aa 67 bd fd ba a8 bc 89 18 4c bc
       0.035178132 -0.05655938 -0.020596975 -0.0124570215
