Backend/SavedModels/9in_mlp.pth (torch, 85120 bytes, 7 tensors)

network.0.weight f4 [98, 9]
000000 e9 74 82 be 8c 78 8f 3e b9 9f 50 3e 45 94 b3 3d
       -0.2547982 0.28021657 0.2037343 0.087685145
000010 cd a6 6c 3c f5 f5 83 bd fd 76 80 be e0 5c 6a 3d
       0.014444065 -0.06443397 -0.2509078 0.05721748
000020 6e 30 1a be c5 84 2f 3e 16 82 88 3d 89 bd aa 3c
       -0.15057537 0.17140491 0.06665437 0.02084233
000030 e7 68 76 be d5 33 32 3e 9a 7b 78 3d 7d 37 e7 bd
       -0.24063455 0.17402585 0.06066475 -0.112898804
000040 f7 d7 81 be 11 bc 97 bd 26 6f fc 3d 83 de 95 3e
       -0.2536008 -0.07408918 0.123258874 0.29271325
000050 cd 76 16 3e f2 3e cf bd ec 3c bb bd 5e cf 16 be
       0.14693756 -0.10119428 -0.09142479 -0.14727542
000060 b9 47 63 be ad 94 84 3e 55 32 93 be af f7 b8 bd
       -0.22195329 0.2589468 -0.28749338 -0.09031617
000070 3f c0 8b 3e 8e 8a 95 be bf 15 34 be 45 39 f3 3d
       0.2729511 -0.2920727 -0.1758642 0.11876158
000080 8e 14 9f be e2 9c 94 3d 05 8c 1e 3e f6 1d a9 bd
       -0.3107037 0.072564855 0.154831 -0.08257668
000090 bf 0e 79 be e4 b0 c0 bd 6c 81 58 bd 9d 2a 8c 3e
       -0.24322031 -0.09408739 -0.0528578 0.2737626
0000a0 df 1a 88 be 02 03 b4 3e c5 53 86 be 97 61 bc 3d
       -0.26583 0.35158545 -0.26235786 0.09198301
0000b0 47 31 f9 bc 11 b3 63 be 18 46 16 3e 9c 5e 9e 3b
       -0.030419005 -0.22236277 0.14675176 0.0048330557
0000c0 bf 83 2d 3e 8f da 41 3e 71 e0 76 bd 03 bd bc be
       0.16944788 0.1893103 -0.060272638 -0.36862954
0000d0 b9 f0 25 be 46 20 d9 bd 3d 59 90 be fb 42 94 be
       -0.1620511 -0.10601859 -0.28193083 -0.28957352
0000e0 f9 dc b5 3e da a8 a8 3e 9d a5 6e bd 4b 71 b9 3e
       0.3552015 0.32941324 -0.05826341 0.36219248
0000f0 60 b4 96 be 90 1d f9 3e 88 a6 f2 3d 17 df 16 3e
       -0.2943449 0.48655367 0.118481696 0.1473354
000100 2b a4 63 be 5a 99 74 be c9 1c 9c bd 56 bc d4 3d
       -0.22230594 -0.23886624 -0.07622678 0.10387485
000110 68 7e 64 be b7 f7 eb 3d 8a fb a6 3e b8 57 a7 3e
       -0.22313845 0.11521857 0.32613784 0.32684112
000120 ec 36 8d be 4d 3e 3e 3e c6 39 9f be ce c3 11 3e
       -0.27580965 0.18578453 -0.31098765 0.1423485
000130 79 b7 ab bc f1 e4 bb bd 39 41 aa 3e 74 a3 a3 3d
       -0.02096151 -0.091745265 0.33252886 0.079901606
000140 72 ab 85 3d 6c 4e ad 3e 0f 93 1b 3e 7f 22 8f bd
       0.06526841 0.33848894 0.15192817 -0.069890015
000150 73 e9 b8 bd ca e4 a1 3e 14 b2 9e 3e 9a c6 b7 bd
       -0.09028902 0.31619865 0.30995238 -0.08973427
000160 4e b3 87 3e f4 70 d6 bd c8 68 dc 3d 74 b4 98 be
       0.26503986 -0.10470763 0.10762173 -0.29825175
000170 73 21 af be b0 31 27 be a3 4f a5 3b e4 9a a7 be
       -0.34205207 -0.16327548 0.005044894 -0.3273536
000180 40 32 ab bd c0 7c de bd 21 38 1f bc 0b 77 56 bd
       -0.08359194 -0.10863638 -0.009717972 -0.052359622
000190 4d 84 e2 bd 7a 1b 8d be 62 cf 94 3e 1b 9f 50 be
       -0.110603906 -0.27560025 0.2906447 -0.20373194
0001a0 51 6e a3 be 9a d1 93 3e 67 8f 41 be 2e db 1d 3e
       -0.31920102 0.2887085 -0.1890236 0.15415642
0001b0 08 43 89 be 06 7a d7 3d 4a ac 1f bd 18 5f 6a be
       -0.26808953 0.10521321 -0.038982667 -0.22887838
0001c0 be 81 95 3e 25 4f 7a 3e 76 54 8e bd dc 07 92 3e
       0.29200548 0.24444254 -0.069497034 0.2852162
0001d0 6d df 7f bd 0c d8 90 3d 64 f3 1a 3e df 4e 17 3e
       -0.062468935 0.07072458 0.15131909 0.1477618
0001e0 67 67 85 bd 36 a9 00 3e 22 22 4a be ae d2 1d bd
       -0.06513863 0.12564549 -0.19739583 -0.038530998
0001f0 e0 8a 9f bd 08 1b 36 3d 1d 1a ba 3e 4f 38 66 3e
       -0.0779016 0.044459373 0.36348048 0.22482418
000200 ab 82 5f 3e f2 c8 92 3e 09 f9 d1 be 43 05 14 3d
       0.2182719 0.28668934 -0.4101031 0.03613783
000210 22 63 a3 be 9f af 97 bd 9f 80 7b bc 54 20 ed bd
       -0.3191157 -0.07406544 -0.01535049 -0.11578432
000220 d2 f1 98 3d 77 a3 11 3e cb 08 69 3e c0 f6 b5 3d
       0.074679986 0.14222513 0.2275726 0.088849545
000230 9d 62 ab bd 0c 30 93 be 8c 85 9a 3e 50 f0 d7 bd
       -0.08368418 -0.28747594 0.30180013 -0.10543883
000240 e3 58 94 be fc 8b 88 3e d4 96 51 be 25 87 37 be
       -0.28974065 0.266693 -0.20467693 -0.17922647
000250 90 ec 97 3d 6c f2 d7 bd 2b e1 5b 3b 71 59 ec bd
       0.074181676 -0.10544285 0.0033550959 -0.11540497
000260 e0 76 90 be 8b 74 88 be 69 96 09 3e e0 23 6c 3e
       -0.28215694 -0.26651415 0.13436283 0.2306056
000270 3f 01 bf bd a6 3a ff 3c c7 2d 76 be 6f b1 6e 3e
       -0.093264095 0.031155895 -0.240409 0.23309873
000280 fb e8 a4 be f8 6b 89 bd 72 87 12 be dc 5c a9 be
       -0.32209 -0.067100465 -0.14309481 -0.3307866
000290 9e 49 0b be b7 ed e6 bd 6b 9e ae 3e 6b 81 75 3d
       -0.13602301 -0.11275809 0.34105238 0.059937876
0002a0 ae f8 31 be 4a ef 8c 3b 0d 17 b0 be c9 87 3e 3e
       -0.1738002 0.0043009864 -0.34392586 0.18606485
0002b0 2d 4c 85 be d8 5f b8 bd 9c 88 c3 bd a0 db b8 be
       -0.2603468 -0.09002656 -0.095475405 -0.3610506
0002c0 f7 82 8d 3d 4d 26 31 be 25 01 b9 3e 1e 0d 6f be
       0.06909745 -0.17299767 0.36133686 -0.23344848
0002d0 f3 23 3d 3d 58 b8 ef bd 08 fc 80 be 21 dd 58 3e
       0.046176862 -0.11705083 -0.25192285 0.21178104
0002e0 e5 f5 71 3e 09 44 86 be 5a 6a 61 bd 94 97 24 be
       0.23628958 -0.26223782 -0.055033065 -0.16073447
0002f0 e2 b5 ac bd 16 ff 0f 3e 1f 48 be 3e ea c6 98 be
       -0.08433129 0.14062151 0.371644 -0.2983926
000300 cc 97 8e 3e 56 05 8a bd 5f 3f 8c 3e 6f 5d d7 3c
       0.27850187 -0.06739299 0.27392098 0.02628967
000310 a8 a6 71 3d dd ca 3a be 11 c0 8e bc 1b 13 97 3e
       0.058996826 -0.18241449 -0.017425569 0.29506764
000320 c2 92 b8 3d 15 2f a2 3e d5 3a 80 3e db b2 98 be
       0.09012367 0.31676546 0.25044885 -0.29823956
000330 fa e3 9e 3e a1 22 aa ba 3b c9 a2 bc 5f 17 83 3e
       0.31033307 -0.0012980291 -0.019871345 0.25603768
000340 da 82 43 3c 08 e1 c2 bd ea e0 2c 3e 0e 0e 54 be
       0.011933053 -0.095155776 0.16882673 -0.20708486
000350 3f 0f 6f 3e 83 e4 dd be 65 68 74 3e de 2b 84 bb
       0.2334566 -0.43338403 0.23867948 -0.0040335497
000360 53 b0 28 3e ec 3f 08 3e 87 ff ae be 91 6d 03 be
       0.16473512 0.13305634 -0.34179327 -0.12834765
000370 2a fb ff bc ab cc 0f be 66 f9 2a 3e e7 23 f9 bd
       -0.031247694 -0.14042918 0.166967 -0.12165051
000380 d8 7c 42 be 14 c8 78 3b 33 39 b4 be 0c 2a df 3d
       -0.18992937 0.0037961053 -0.3519989 0.10896692
000390 3b da 45 be af b8 5a 3e 93 a6 17 3d 5e 37 31 bd
       -0.1932153 0.21359514 0.037024092 -0.043265693
0003a0 77 12 1a be 1c 37 87 bd 42 a4 46 3e 34 d4 48 3c
       -0.15046106 -0.06602308 0.19398597 0.012257624
0003b0 c3 b1 d0 3d 0e d0 32 3e 6e de 67 be f9 da 59 be
       0.10190155 0.17462179 -0.22643444 -0.21274938
0003c0 cc 6d 5e 3e c2 dc 65 3d 88 15 57 be d3 cf 82 3d
       0.21721572 0.056118734 -0.21004307 0.063872956
0003d0 23 99 60 be 30 b2 4e 3e ac 8d a2 3e 27 94 ac 3e
       -0.21933417 0.2018516 0.31748712 0.3370678
0003e0 6a 7e c4 bd a2 96 94 3e dd 17 4a 3e d6 4d 96 3e
       -0.09594424 0.29021174 0.19735666 0.2935626
0003f0 bd 6d 10 3e 90 2c 31 bd 13 a6 99 bd af a4 94 be
       0.14104362 -0.04325539 -0.07502379 -0.29031894

network.0.bias f4 [98]
000000 34 80 91 3e 10 87 6d be a3 a5 92 3e a8 18 63 3e
       0.28418124 -0.23196054 0.28641996 0.22177374
000010 21 96 71 be d2 f9 b2 3b dc 8f 88 3d 70 e7 3f 3e
       -0.23592426 0.00546191 0.06668064 0.1874063
000020 29 5f 70 be b7 6e 8b 3e 89 19 55 be f4 05 80 be
       -0.234738 0.27232906 -0.20810522 -0.25004542
000030 97 a3 0f be 57 8c c9 3d 90 e8 68 bd f7 0b f1 3c
       -0.14027248 0.09841221 -0.056862414 0.02942465
000040 ef e0 14 bc 80 4a d6 bd 59 b4 a4 be 06 de 9c be
       -0.0090868315 -0.104634285 -0.32168844 -0.3063814
000050 35 bc 7f 3e 61 af b2 3d 79 3b 2f 3e df 61 8e 3d
       0.24974139 0.08724857 0.17112531 0.06952261
000060 d9 4e 27 3e 6f 49 a1 bd 74 6d 66 3d 59 8c 67 3d
       0.16338672 -0.078753345 0.056256726 0.05653033
000070 c5 66 9a be 34 8f 8e be 54 85 36 3e b3 80 a1 be
       -0.30156532 -0.2784363 0.17824298 -0.31543502
000080 87 79 a4 3d 25 68 59 3e 80 3b 45 be 60 75 8b bc
       0.08030992 0.21231134 -0.19260979 -0.017023742
000090 28 cd 3d 3d bd 03 17 3e 91 5f 92 3d 03 e0 bd bd
       0.04633823 0.1474752 0.07147134 -0.092712425
0000a0 7c 07 28 be d9 c9 57 be 1c 80 9f 3e c1 cb 44 3e
       -0.16409105 -0.21073093 0.31152427 0.19218351
0000b0 ce 0f 89 3e 16 a9 8f 3e af 38 23 3e 02 f9 8b 3e
       0.2676987 0.2805869 0.15939592 0.27338415
0000c0 dd c7 96 be 61 7a 92 3d 93 76 1b 3e 55 3d 43 be
       -0.2944936 0.07152248 0.15181951 -0.19066365
0000d0 dc 65 a1 be e7 c3 11 bd 94 e5 98 3e 9c cc 95 3d
       -0.31523025 -0.035587218 0.29862654 0.07314417
0000e0 e5 fb 6c b9 a9 89 aa 3a 0a 3a f6 bd 15 44 a6 3e
       -0.00022600552 0.0013010997 -0.12022789 0.32473817
0000f0 cb 9e 48 3e a1 ea d0 3d 2d 76 80 3e 9c 04 23 be
       0.19591825 0.10201002 0.2509016 -0.15919727
000100 a4 56 ad be 67 9f 2e be 12 2c b8 3d 3d ff 63 3e
       -0.33855164 -0.17052995 0.08992781 0.22265334
000110 99 2f 2f bd 4f ef 8d 3e 44 f3 23 3e 1c 46 95 be
       -0.042770002 0.2772164 0.16010767 -0.29155052
000120 fd 1c 81 3d a9 69 62 bd 29 10 63 3e ba 76 93 3d
       0.06304357 -0.055276547 0.22174133 0.0720038
000130 30 d8 b2 be 2b a6 17 be 4c cd 83 3e 16 72 5d be
       -0.34930563 -0.14809482 0.25742567 -0.21625552
000140 fc ce 37 bd a0 b5 3a 3e 02 0c 7c be 1c 1e 3d be
       -0.04487513 0.18233347 -0.24613956 -0.18468517
000150 7b c9 8c be 3b 32 b5 be 97 d8 a7 be 1a bc 3b be
       -0.27497467 -0.35389885 -0.32782432 -0.18333474
000160 ff 5f 67 3c df 6e ac 3e 12 af 20 3e 7f 60 8a bc
       0.014122008 0.33678338 0.15691784 -0.016891716
000170 47 73 5a be 65 b3 25 3e 2e 85 95 3e 35 d7 a3 be
       -0.21333037 0.16181715 0.2920317 -0.32000127
000180 7e 63 91 be ec 46 8b 3e
       -0.2839622 0.27202547

network.2.weight f4 [98, 98]
000000 0e d7 f2 3c 71 ca f2 bd bf d8 cf bd 5c 9e dc bc
       0.029643562 -0.11855019 -0.10148763 -0.02693098
000010 fc d2 05 3c 60 33 9b be ef 0c 63 bf 15 ce ca be
       0.008167978 -0.30312634 -0.8869161 -0.39610353
000020 42 f6 59 3b 42 51 ca bc b4 d7 48 bd df e8 22 bd
       0.0033258353 -0.02469695 -0.049033836 -0.039772864
000030 10 04 b5 3c a9 13 6c 3d a7 e8 fd bd 3b 1d 0a bf
       0.022096664 0.057635937 -0.123978905 -0.5395085
000040 b8 87 99 be a5 2c 5c 3d ae b7 94 3c b3 71 b8 3e
       -0.29986358 0.053753514 0.018153992 0.36024246
000050 05 51 5b bd 00 c9 03 bc b6 e6 99 3d 77 0a 18 3e
       -0.053544063 -0.008043528 0.07514708 0.14847742
000060 ac b2 69 3d 7c d9 84 be c8 58 57 bc 9c 35 85 be
       0.05705516 -0.25947177 -0.013143726 -0.26017463
000070 7c da 05 be cb f3 a4 be 21 21 10 3e c0 0a 7f 3d
       -0.13071626 -0.3221725 0.14075138 0.06226611
000080 0b c2 5a be 25 17 3a 3e 3f e4 3a bf fa 17 5d be
       -0.21363084 0.18172891 -0.73004526 -0.21591178
000090 74 30 83 3d 82 52 a8 3d 6c 7f 27 be 3a c2 02 bf
       0.06405726 0.08218862 -0.16357201 -0.51077616
0000a0 1d 32 09 be b7 00 8a bd eb 97 e7 3d 33 78 9d 3e
       -0.13398023 -0.067384176 0.11308273 0.30755767
0000b0 a7 5b ed bd 4e 5c c0 3d 9b 85 e4 3c f3 49 07 bd
       -0.11589747 0.09392606 0.02789574 -0.033029508
0000c0 90 cb cd bd fe 30 ac be da be be bd 66 b5 7f bc
       -0.10048592 -0.33631128 -0.09313746 -0.015607214
0000d0 b9 cd b8 be 88 ad ca bc b7 c6 94 bb 7e 8e 29 3d
       -0.36094454 -0.02474095 -0.00454029 0.041395657
0000e0 8a 8a 66 3d 4a c9 ba be 61 80 97 bc 1b 9e 7c 3e
       0.056284465 -0.36481696 -0.018493833 0.24669687
0000f0 68 5f 3b 3d 54 86 c4 3d 58 80 53 bd c9 3f f8 3e
       0.045745283 0.095959336 -0.05163607 0.48486164
000100 03 ce 87 3d da e4 8e 3e 0d f3 e3 bd 67 0d 7b 3d
       0.066310905 0.27908975 -0.11130343 0.06129208
000110 df ee 43 be 16 70 0c 3e ea ac 30 3e 2d aa 5f 3d
       -0.19134091 0.13714632 0.17253461 0.05460565
000120 65 94 2c be 22 8a 50 3d de d6 f6 3c f7 04 4a be
       -0.16853483 0.050912984 0.030131754 -0.19728456
000130 68 f9 2e 3d 4b 5b 53 bd 5d 1b 1c bd 19 9b af 3d
       0.04271832 -0.051600736 -0.038112033 0.085745044
000140 72 ad 62 be 61 5c 6b be c9 f4 14 bd 68 5b 65 be
       -0.22136477 -0.22984459 -0.036366258 -0.2239815
000150 b8 e8 60 3a ff 17 26 be 72 66 13 3f 78 8d f9 bd
       0.00085795997 -0.16220091 0.57578194 -0.12185186
000160 1d 2b 1b bd 4f 38 2d bc 81 62 93 3e c6 18 f2 3c
       -0.037882913 -0.010572507 0.2878609 0.029552829
000170 60 a2 a8 be 7d 38 4e be 4e b1 dc bd 11 5d b0 3d
       -0.32936382 -0.20138736 -0.10776006 0.08611501
000180 a0 13 41 bd f5 ad d5 3d 56 8a 74 3d e5 8f f7 3d
       -0.047137856 0.1043357 0.05970224 0.120879926
000190 c8 65 d6 3d 8e b5 d9 3b be 6b 03 bd c6 c8 64 3d
       0.10468632 0.0066439575 -0.032085173 0.055855535
0001a0 b6 23 84 3d fd 34 16 bd f1 1a 8f bd e0 74 19 bd
       0.06452124 -0.036671627 -0.069875605 -0.037464976
0001b0 85 96 4e 3d b1 d3 b0 3d 81 5a 98 3d c6 c5 8d 3d
       0.050436515 0.08634127 0.07439137 0.06922488
0001c0 4a a3 a9 bd 09 e8 ef 3c 3c 8d 73 3b cd be 06 3c
       -0.08283098 0.029285448 0.003716304 0.008224201
0001d0 2e 36 8e bc 6b e7 1f bc 9c b8 20 3d 8b 61 c0 3d
       -0.01735982 -0.009759764 0.039238557 0.09393605
0001e0 9b b9 8e 3b 64 7a 2e bc c9 11 2e 3d 40 79 ac 3c
       0.004355622 -0.010649297 0.04249743 0.02105391
0001f0 49 bf 29 bd 9a da 76 3d b5 23 6c bd 24 7e 3e bd
       -0.04144219 0.06026707 -0.05765124 -0.046507016
000200 c3 7a 08 3e bb ec a6 bd 18 d8 3d 3d bc f4 a7 bc
       0.1332808 -0.081506215 0.04634866 -0.02050244
000210 d5 d0 0d bc aa 59 93 bd 00 2f 69 bd 3a 2a 46 3d
       -0.0086557465 -0.071948364 -0.05692959 0.048380114
000220 36 97 a2 bd 9c 03 9e bc 4d 50 c4 3c 71 d0 9a bd
       -0.079389974 -0.01928883 0.023964072 -0.07559288
000230 0b e9 cb 3d 4d f6 2f bc 33 6e 7b bd 58 fb f4 3d
       0.09956559 -0.010739875 -0.06138439 0.119620025
000240 65 f8 0c 3e 21 fc eb 3b db a3 a8 bc 17 79 b0 3d
       0.1376663 0.007201687 -0.020585945 0.08616846
000250 e1 6b cc bd 0b 71 c5 3c 52 06 16 3d 1e ce c4 3b
       -0.09981514 0.024101755 0.03662712 0.0060060164
000260 f2 1d 97 3d 1c f3 f7 3d 2b 4e 90 bd 1c 93 d0 3c
       0.073787585 0.12106916 -0.07046159 0.025460772
000270 76 24 e0 3c 22 1b f7 3c fd c8 df 3b 07 27 97 bd
       0.027361136 0.030164305 0.0068293796 -0.07380491
000280 97 45 17 bd 4f ff 5f 3d c7 68 9b bd 64 8c 55 bd
       -0.0369316 0.05468684 -0.07588344 -0.05213584
000290 d6 cc ad 3d 81 31 05 3e a6 30 12 3c 03 be e1 3d
       0.08486335 0.13007165 0.0089227315 0.1102257
0002a0 bb 3a 23 bd 67 a6 15 3d a4 2d d8 3d 8a 45 46 bc
       -0.03985093 0.036535647 0.1055558 -0.01210154
0002b0 d0 d5 f9 3d c9 ae 98 bd 99 28 32 bc 58 7d 3d 3d
       0.121989846 -0.074552126 -0.010873937 0.046262115
0002c0 f9 e0 83 bd 62 60 9a 3d d0 6a a5 bd a4 23 29 3c
       -0.064393945 0.07537915 -0.080770135 0.010323439
0002d0 ac 13 e3 bc 3a dc 1a bb f5 20 07 3d 26 b3 9a bc
       -0.027719341 -0.00236298 0.032990415 -0.018884253
0002e0 69 4b 90 3d 4e 36 80 3d 83 68 dd 3c 88 2f 21 bd
       0.07045633 0.06260358 0.027027374 -0.03935197
0002f0 2d 06 e8 3d 03 73 87 bd b3 7b 9c 3d e9 d6 9b bc
       0.11329303 -0.066137336 0.07640781 -0.019023376
000300 ab 37 d0 3d d3 3d c2 3c ec d1 20 3d d3 19 56 bd
       0.10166868 0.02371112 0.039262697 -0.05227072
000310 9f cf a0 bd 0b 33 9a 3d 8f 53 3c 3d cf fe 0e bd
       -0.078521006 0.07529267 0.045978125 -0.034910973
000320 7c a9 42 3d 4c e6 78 bd 79 b1 69 bc c9 09 a4 bd
       0.047524914 -0.060766503 -0.014263504 -0.08009679
000330 9d a3 a3 bd 5c ef 95 3d 88 9d b5 bc 8c b5 dc bc
       -0.07990191 0.07321045 -0.022169843 -0.026942037
000340 79 6a 06 bd 0c 9b 7f 3b 58 b5 4f 3d a2 f2 ab 3b
       -0.032816384 0.0039002327 0.050710052 0.00524743
000350 a3 3c 0a bd 82 95 0e bd 5e 0c 00 3d 84 2a 51 bc
       -0.033749234 -0.03481055 0.031261794 -0.012766484
000360 59 ca 4c bd f6 07 61 bc a8 97 cc bd 84 49 42 3c
       -0.04999766 -0.013734808 -0.09989864 0.011858348
000370 6c c5 21 3d 97 5b cd bd 92 d4 59 3d 6b ec 8d bd
       0.039494917 -0.10027235 0.05318124 -0.06929859
000380 e3 68 04 bd 47 a4 c0 3b 68 c7 40 bd dc 4b 66 3d
       -0.03232659 0.0058789584 -0.04706517 0.05622469
000390 05 48 66 bd 91 bd 04 3d 16 09 8b 3c ce 63 18 3d
       -0.056221027 0.032407347 0.016972106 0.037204556
0003a0 11 f5 c0 bd e5 0f 45 bd 2c d0 20 3d 82 b9 80 bd
       -0.09421743 -0.04811086 0.03926103 -0.06285383
0003b0 f0 eb b8 bc fc 6d b2 bd 75 0a 54 3d b3 5e 8b bd
       -0.022573441 -0.08712384 0.051767785 -0.06805172
0003c0 88 fc 0e 3d e6 69 37 bd e2 bb 8c bd e8 a1 6b bd
       0.0349088 -0.044778727 -0.06871773 -0.057527453
0003d0 00 15 3d bc d8 39 28 bc 86 5f 8c bd 20 2a 49 3d
       -0.011540651 -0.010267697 -0.06854157 0.04911244
0003e0 78 ab d3 bc f4 2d 89 bd d3 fe 8a bd c0 06 a1 bd
       -0.025838599 -0.06698218 -0.06786885 -0.078626156
0003f0 61 4c 0d bd 5c 04 bc bc 00 41 87 bd 19 9d b3 3d
       -0.03449667 -0.022951297 -0.06604195 0.087701984

network.2.bias f4 [98]
000000 49 e0 b9 3d c5 f6 e0 ba 1d 77 e3 bd 41 a8 84 3d
       0.09075982 -0.0017163387 -0.111067034 0.064774044
000010 95 9a b6 3c 59 d0 d2 3c 59 bb fa bc c5 4b 6c 3d
       0.022290507 0.025734114 -0.030606912 0.057689447
000020 e1 8c df 3d 3b cf 8b bd 65 83 f3 3c 9b 33 03 bd
       0.109155424 -0.068266355 0.02972574 -0.032031637
000030 df 09 a3 3d db 11 f4 bc df 33 07 3e e5 a8 11 bc
       0.07960867 -0.02979367 0.13203381 -0.008890365
000040 1a c1 2e 3d 47 4c c3 bb 3a a3 01 bd 3a 91 a8 3d
       0.042664625 -0.0059600207 -0.031649806 0.08230825
000050 b8 89 b8 3d 69 49 c1 3d 0c d3 17 bd 83 2c 53 3c
       0.09010643 0.0943783 -0.037066504 0.01288903
000060 1d 00 9c bd b2 fc fe 3d c2 23 10 3e a7 f5 81 bc
       -0.07617209 0.124505416 0.1407614 -0.015864206
000070 e1 c9 0b bb 99 cd e7 3d 73 5a 04 3e 90 2a 5f bd
       -0.0021330046 0.113185115 0.12925129 -0.05448395
000080 af 0b 0f 3c 12 85 95 bd 67 3d 46 3d 35 98 ff 3d
       0.008730813 -0.07300772 0.0483984 0.12480203
000090 08 d0 d4 3d 23 a6 f5 3d d3 d6 97 bd d3 c6 f0 3d
       0.10391241 0.11994579 -0.07414021 0.11756673
0000a0 41 61 8e 3d 79 8e ce bd 8a b5 be 3d aa ac 86 bd
       0.069521435 -0.10085768 0.093119696 -0.06575902
0000b0 80 8c dc bb 83 f1 83 bd 32 c9 67 3d cb f8 91 3d
       -0.006730616 -0.06442549 0.05658836 0.071275316
0000c0 7f 00 c8 3d 55 36 8a bb 91 b7 b2 3d f9 02 9d 3d
       0.097657196 -0.0042179027 0.08726419 0.076665826
0000d0 43 52 b9 3d 11 b4 c0 3d a8 ed 19 bd c1 35 c2 3b
       0.09048893 0.09409345 -0.037580162 0.005926818
0000e0 99 e1 74 bd 74 ad a5 bb 46 d8 7f 3c 63 40 e3 3d
       -0.05978546 -0.0050560776 0.015615528 0.11096265
0000f0 df b2 db 3c 41 ff 5a bd 1d fc e9 bc 40 f1 01 bd
       0.02681869 -0.053466085 -0.0285626 -0.031724215
000100 93 f3 cb ba 82 bd e8 3c 31 9d a3 3d 7f 6b 05 3d
       -0.0015560262 0.028410677 0.07988966 0.03257322
000110 f3 1a a5 3d 25 f7 18 3e e8 cc f9 3d 41 bb 09 bc
       0.08061781 0.14938028 0.12197286 -0.008406461
000120 9d 01 b6 3d ca 04 a6 3c 66 2b 96 3d 09 9b aa 3d
       0.088870265 0.020265955 0.07332496 0.08330352
000130 e4 e1 0d 3d fa b7 88 3c 3e 19 90 bd 22 65 04 bd
       0.034639254 0.01668929 -0.070360646 -0.03232301
000140 6f 39 1d 3c 24 cd a4 3d 98 51 f9 3d 2a 54 d8 bd
       0.009596213 0.0804694 0.12173766 -0.10562928
000150 e7 76 92 bd a1 1f f7 3d 53 b1 db 3b 63 26 c6 3c
       -0.07151585 0.120665796 0.0067044883 0.024188226
000160 0b 9b 36 3d 7e 6e 56 3b 2b d7 25 bd 90 41 4b bd
       0.044581454 0.0032719667 -0.040488403 -0.049623072
000170 ec ca dd 3d 99 5c 9b 3d 8e 62 dd bd 1b 44 40 3c
       0.1082972 0.07586021 -0.108098134 0.011734988
000180 16 d2 dd 3d ad b9 f0 3d
       0.10831086 0.11754165

network.4.weight f4 [98, 98]
000000 83 50 96 3e c8 9c a5 3d 6a 5b 80 3d 8e 94 64 3c
       0.293583 0.08086544 0.06267436 0.013951434
000010 d6 a2 c3 3c 45 98 15 3e b6 b6 97 3b 17 a0 5e 3d
       0.023881357 0.14608867 0.004629935 0.054351892
000020 3a 4e a7 bc d0 bb 1e 3d c8 a7 c3 3d 68 63 c5 3d
       -0.020423044 0.03875333 0.09553486 0.09638101
000030 2a f7 f1 3b 96 81 c6 3d 8d 59 86 3d 58 7c 46 bc
       0.0073842006 0.09692685 0.06560049 -0.012114607
000040 1b 6a b8 bd a0 a0 7e bd 2f de 2b 3c e8 55 47 bd
       -0.09004613 -0.062164903 0.010489984 -0.04866591
000050 5a 57 0e bf 3a d2 1b bd c7 b3 82 bd 4b 0f 04 3e
       -0.5560204 -0.038042285 -0.06381946 0.12896459
000060 14 a2 93 3c 3c 07 71 3d 50 fa 62 bd 10 af d1 bd
       0.01802162 0.05884479 -0.055414498 -0.10238469
000070 79 18 72 3d 6e a3 15 bd aa 13 21 bd 69 97 bb 3d
       0.05910537 -0.03653281 -0.039325394 0.091597386
000080 9c b7 7f bd da bd cd ba 71 e0 7b 3d b5 83 bc 3c
       -0.062430963 -0.0015696839 0.06149334 0.023012022
000090 0a 9a 38 3c 38 e0 84 bd 7c e0 55 3d 50 d0 40 3d
       0.0112671945 -0.06488079 0.052216038 0.047073662
0000a0 ad 51 66 3d 8e d7 0a bd ee e5 0a 3c 01 38 27 bd
       0.056230236 -0.033896975 0.008477671 -0.040824894
0000b0 49 04 e7 3d 14 4c 3a 3d ab 4f a7 3d 1d cc 2a bc
       0.11280114 0.04548271 0.08169492 -0.010424641
0000c0 2d e9 a5 3d 8f 0d 50 3d 04 c4 30 bd 4c 0f d1 3d
       0.081011154 0.05079418 -0.043155685 0.10207996
0000d0 d6 0e 53 bc e0 e8 03 3c 68 88 be 3d 88 24 0b 3e
       -0.012881955 0.008051127 0.09303361 0.13588154
0000e0 ff ac 04 bd fe 92 e1 3d ed 30 61 3d 01 b4 b4 3d
       -0.032391544 0.11014365 0.0549783 0.088233955
0000f0 46 00 04 3d 1c 03 26 3e ef b1 4d bd 5e c2 1c 3c
       0.032226823 0.16212124 -0.05021852 0.009567825
000100 ea 22 c8 3d 19 f9 14 3d 7b c2 20 3e ff cc ac 3d
       0.09772284 0.03637037 0.15699188 0.084375374
000110 88 90 0b bc a1 97 74 bd be ee 92 3b 38 d6 90 3d
       -0.008518346 -0.059714917 0.0044840267 0.07072109
000120 bc e2 05 3d ce df 6a 3d 21 4b 39 3d 79 01 c9 3d
       0.032686934 0.057342343 0.045237664 0.09814734
000130 f3 96 e4 3c 3e e5 6f 3d 43 d2 54 3e 3c 21 f5 3d
       0.02790401 0.05856823 0.20783333 0.119692296
000140 c9 a1 08 3b ef 81 2e 3c 62 3b 9c bd 50 66 7c 3d
       0.0020848385 0.010651096 -0.07628514 0.06162101
000150 9e 34 8b 3d 77 e7 1f bd d6 4d a5 3d 9c 73 f9 3c
       0.06797145 -0.0390391 0.08071487 0.030450635
000160 ca 4b e8 bc c3 70 9e bd 45 9f eb bc 27 b3 c5 3d
       -0.028356452 -0.07736351 -0.028762469 0.09653311
000170 ee 8d 84 3d 29 bf c6 be 66 3e 71 3d 2b bc 08 bc
       0.064723834 -0.3881772 0.0588974 -0.008345644
000180 21 44 da 3c 36 cb 91 3c ad 90 68 3d d4 dd 99 bb
       0.026643815 0.017797094 0.0567786 -0.0046956334
000190 a0 6e 9b 3d fa b2 d6 bd 42 62 ea bc a1 a6 d2 bd
       0.075894594 -0.10483356 -0.028611306 -0.10285688
0001a0 38 0c 85 3d 1e 40 6c bd 1c 28 c3 bd a2 a1 37 3d
       0.06496471 -0.057678334 -0.09529135 0.04483188
0001b0 d5 30 9f 3c a0 37 82 bd bf ff a1 bd d1 07 db bd
       0.019432465 -0.06358266 -0.07910108 -0.1069485
0001c0 67 38 d9 bd 78 53 a5 3d 0a b0 a2 bd d3 52 25 3d
       -0.10606461 0.08072561 -0.07943733 0.04036219
0001d0 cc 6b 12 bd 97 d3 9c 3d 7b 8c 5d bd 77 64 c2 bd
       -0.035747334 0.07657545 -0.05408905 -0.094918184
0001e0 3b 71 dc bd c4 cb 83 bd c7 8d 15 bd c1 67 e0 bd
       -0.107637845 -0.064353496 -0.036512163 -0.109572895
0001f0 89 3a f9 bb d0 af ee 3c 6e c9 a3 bd a7 16 b3 3d
       -0.007605855 0.029136568 -0.07997404 0.08744555
000200 1f ef b6 bd 95 7a 4b bb 44 b0 46 3c ab 26 ac bc
       -0.089323275 -0.0031048406 0.012126986 -0.021014532
000210 4f 8d 1e bc cb eb 24 3d 87 cf bf bd 34 b0 6f bb
       -0.009677245 0.040263932 -0.093657546 -0.003657353
000220 da 6f d8 bc 48 00 0e 3d ee 62 b3 3d b8 6d 19 bd
       -0.026420522 0.034668237 0.08759104 -0.03745815
000230 b4 1c bb bd ab 99 5d 3d 32 ae e1 3b 5f 78 62 bd
       -0.09136334 0.054101627 0.006887221 -0.055290576
000240 9c 1a 98 bc 4c 26 50 3c 08 be db bd e9 45 c6 bd
       -0.018567376 0.012704443 -0.10729605 -0.09681303
000250 35 48 4a 3b 94 ee 43 3d 1f 5a 91 3b 04 e2 a4 bd
       0.0030865793 0.047834948 0.004435792 -0.080509216
000260 80 e5 f0 bb 85 07 12 3d 1c 53 3b 3d e8 55 a5 3c
       -0.0073515773 0.035651702 0.045733556 0.020182565
000270 ac 72 6c 3c a3 ce 98 3d 49 77 b7 bc 21 36 eb bc
       0.014431637 0.07461288 -0.022395747 -0.028712334
000280 ad 35 12 3d c6 8a 40 3d 55 96 69 bd 40 1b d9 bb
       0.03569572 0.047007345 -0.057028133 -0.006625563
000290 1a 36 c1 bd 6e 2e 31 3d c1 f5 12 bd c5 42 ca bd
       -0.09434147 0.04325717 -0.0358789 -0.098760165
0002a0 08 58 bb bd fa 72 97 bc 15 c5 e7 bb 14 cf 8b 3d
       -0.0914765 -0.018487442 -0.0070730546 0.068266064
0002b0 71 2a 2f 3c 73 79 84 3d 4c 7d 89 bd 7b bc d9 3b
       0.010691271 0.06468477 -0.067133516 0.006644783
0002c0 40 3b 06 3d 12 9d d4 bd 32 23 a2 3d 61 55 d6 bd
       0.03277135 -0.10381521 0.07916869 -0.104655035
0002d0 e5 f0 8e 3d e6 29 8e 3d 22 26 e6 bc d0 f2 6a 3c
       0.06979541 0.06941585 -0.028094355 0.014340118
0002e0 5d a9 93 bd 4a f7 8d 3d ae c4 a6 bc 14 6a 18 3c
       -0.07210038 0.06931932 -0.020357456 0.009302635
0002f0 37 03 bf 3d 40 88 e7 3c c5 26 92 bd 0d bc 27 bc
       0.09326785 0.028263211 -0.07136301 -0.010237706
000300 de 33 e6 bc b0 da af 3d 0e 37 43 3b a3 5c 82 3d
       -0.028100904 0.08586633 0.0029787454 0.06365325
000310 e9 84 72 bd c0 5d 4b 3c d0 3b eb bc c8 6c 72 bc
       -0.059208784 0.012412488 -0.028715044 -0.014796443
000320 50 72 28 3d b6 42 98 bd ec 27 3e 3d c0 68 e3 ba
       0.041124642 -0.07434599 0.04642479 -0.0017349944
000330 0e 6b c9 3d 30 12 24 3d 48 d4 44 bc d6 58 cd 3d
       0.09834872 0.040056407 -0.012013502 0.1002671
000340 90 ce da 3c 3a cc c3 3d 08 00 50 bd a0 29 3a 3b
       0.026709825 0.095604375 -0.05078128 0.0028406158
000350 76 7b 9d bd 7c 69 95 bd 3b cf 92 bd 88 69 87 3c
       -0.07689564 -0.0729551 -0.07168432 0.016529813
000360 16 39 92 bd 44 f4 2d 3d e4 ac 0d 3d 5e 12 91 bd
       -0.071397945 0.042469278 0.03458871 -0.070835814
000370 63 dd 48 bd 55 9e b1 bd 46 2e 0e bd 39 92 9c bd
       -0.049039256 -0.086727776 -0.0347121 -0.07645077
000380 72 4a cb bd 78 b8 50 3d 7f 12 4f bd 60 26 05 3b
       -0.09926309 0.050957173 -0.05055475 0.0020317063
000390 17 f0 7c bd a8 13 7c 3d e1 56 5c bd 8d 87 a9 bd
       -0.061752405 0.061542183 -0.05379379 -0.082778074
0003a0 9f f9 b2 bd 90 88 29 3d b8 0d 69 3c 18 5c a7 bd
       -0.08739018 0.04139 0.014224462 -0.08171862
0003b0 2c 27 9f bc d5 ca 4b bd 92 2a 97 3d 50 00 05 3c
       -0.019427858 -0.049753983 0.073811665 0.00811775
0003c0 a6 fb c0 3d 68 f7 a0 3c 98 84 1e 3d 5c a5 6c bd
       0.09422998 0.019649222 0.03870067 -0.057774886
0003d0 c0 66 9e bc 72 c4 94 3d 42 90 86 bd 95 40 1f bd
       -0.019336104 0.072640315 -0.06570484 -0.03887995
0003e0 e0 1b 16 bb b0 cd a1 3c c4 91 dc bc 3a 46 2b bd
       -0.0022904798 0.0197514 -0.026924975 -0.04181502
0003f0 64 d4 5a 3d 68 7d 93 3d 40 b6 e9 3b 9e 9d a2 bd
       0.053425208 0.07201654 0.0071323216 -0.07940219

network.4.bias f4 [98]
000000 fb e6 33 3d 28 4a f4 3b 28 1f 1d bc 32 de e3 3d
       0.043921452 0.007455129 -0.009589948 0.11126365
000010 05 05 11 bd 42 d4 88 bd ac cc de 3d 7f 02 17 3d
       -0.035405178 -0.0668111 0.10878882 0.036867615
000020 f3 20 0b 3e 6c b1 a0 3d fe 82 3d bc 88 8e 95 bd
       0.13586788 0.078463405 -0.0115668755 -0.07302576
000030 16 18 aa 3d e9 c1 ea 3b 75 0c 04 3d 7f 39 07 bc
       0.08305375 0.007164229 0.032238442 -0.008253454
000040 0b fe 1c 3d 18 84 67 3d 66 e1 f0 3c a9 33 9f 3d
       0.03832821 0.05652246 0.029404353 0.07773525
000050 22 2c 25 bd a7 bf 82 bb 2f c1 fd bc ad 90 76 bd
       -0.04032529 -0.003990132 -0.030975906 -0.060196567
000060 f8 d6 b0 bc 50 86 4d bd ad fb 8b 3d df d0 72 3d
       -0.02158688 -0.05017692 0.06835113 0.059281226
000070 f9 a3 bb ba bb 1a 08 bd 2d 54 bc bc a8 c9 f3 3c
       -0.0014315835 -0.033228617 -0.022989357 0.029759243
000080 1d 5f d5 3d 1f 35 81 3b a5 a8 b5 bd fd 6a 89 bd
       0.10418532 0.0039431 -0.08870057 -0.067098595
000090 6f 49 56 bd 4c 77 4f bc c7 ee 00 3e 01 b2 25 bd
       -0.052316125 -0.01266272 0.12591086 -0.04045296
0000a0 6a 37 a7 3d 96 0c 9b 3d 32 12 89 bc 54 7b 49 3d
       0.08164866 0.0757076 -0.016732309 0.04918988
0000b0 1c ba c4 bd d0 4b da bc 0c e8 1c bd 78 dc 8a bd
       -0.0960581 -0.026647478 -0.038307235 -0.06780332
0000c0 b3 0d a2 bc 9d e7 3f bd 68 b9 fc bd 2b 5f 9c 3d
       -0.019781923 -0.046851743 -0.12340051 0.07635339
0000d0 a5 d9 ed 3c 5e 00 08 bd bd ed e0 bc 9c f7 af 3c
       0.029034445 -0.033203475 -0.027457112 0.021480374
0000e0 86 c7 7a 3d 64 4d bd bd 21 79 2e bd 93 dc 91 3d
       0.061225437 -0.09243277 -0.042595986 0.07122149
0000f0 69 7a 62 3c e0 ce 96 3d 58 22 06 3d 76 6f c2 3b
       0.01382313 0.07363677 0.032747597 0.0059336973
000100 0e 71 48 3a d9 a2 8a 3d d0 b7 22 bc 4d 4f 2c bd
       0.0007646241 0.06769342 -0.00993152 -0.042067815
000110 55 f2 dd bd fe 91 85 bd 4b c2 17 bc 07 3b b8 bd
       -0.10837237 -0.065219864 -0.009262632 -0.089956336
000120 c7 aa 6c bd 2b 42 99 3d 48 5b ac bd 8e 00 04 3e
       -0.057780053 0.07483324 -0.08415848 0.12890837
000130 91 43 a9 bd b3 b3 8f 3c 92 a9 64 3d 8c d0 4f bd
       -0.082648404 0.017541742 0.055825777 -0.050735995
000140 20 6b b7 3c 18 4a 69 3c 5f b9 d2 3d f7 ad ff 3c
       0.022389948 0.014238857 0.10289263 0.031210883
000150 42 17 a0 3d 03 e5 ff 3c ba e0 81 bd ba fa 63 bd
       0.07816936 0.031237131 -0.06341691 -0.055659033
000160 f3 96 0d 3c 94 05 54 3d 03 7d b7 bc 61 0c 1a 3e
       0.008641946 0.051763132 -0.022398477 0.15043785
000170 1c a0 0f bd 28 ce fc 3c 25 c5 f3 3c 2e 88 0b bd
       -0.0350648 0.030860022 0.029757092 -0.034065418
000180 24 2e 15 3b 18 3d a9 bd
       0.0022763098 -0.08263606

network.6.weight f4 [1, 98]
000000 b4 1e 1a 3d 51 74 8e bc d4 77 1e bd 4f b2 b1 3d
       0.037626937 -0.017389448 -0.038688496 0.08676588
000010 d6 6f 66 3d 9a 58 0b bc 97 9e 1b 3d 89 9d e6 3d
       0.056259 -0.008505011 0.03799304 0.11260516
000020 f3 2f 4e 3d 0d ae de 3d 7a ef 91 bd da 81 dd bc
       0.050338697 0.10873041 -0.07125755 -0.027039457
000030 d9 7c ab bc f4 38 dc 3d 64 d2 17 bd af a2 2b 3d
       -0.020933555 0.107530504 -0.03706588 0.041903194
000040 55 4e 2e 3d f2 4d 14 3d e5 94 bb 3d 9c 7e 41 bd
       0.042555172 0.036207147 0.09159259 -0.047239885
000050 fd 86 b6 bb 64 eb 76 3d 4b 3f e0 3c 9e ca 16 bc
       -0.005570291 0.06028308 0.02737393 -0.009203581
000060 60 e4 e1 3d d0 84 80 3d 07 c3 8d bb e2 d0 69 bd
       0.11029887 0.06275332 -0.0043262276 -0.05708397
000070 7a ae c3 3d a7 d8 60 bb d6 a4 af 3d 6e a9 3b 3d
       0.09554763 -0.0034308822 0.08576362 0.045815878
000080 69 5c 8e 3d d4 b1 3e bd 3f 17 66 bd a0 b9 a1 bd
       0.069512196 -0.04655631 -0.056174513 -0.07896733
000090 70 1e 96 3d 3a c6 28 bd 3c 75 f8 3d a3 c2 1c 3d
       0.07330024 -0.04120467 0.12131736 0.038271558
0000a0 1b 63 a8 bd 59 0d a7 bd 79 62 8e 3d b0 82 b6 bd
       -0.08222028 -0.08156843 0.06952376 -0.089116454
0000b0 78 25 35 3b e6 22 10 bc 38 90 b9 3d 99 75 d8 bd
       0.0027640741 -0.008797383 0.09060711 -0.10569305
0000c0 dd 42 29 ba fa 7c 01 3d 8b 1a 3d bd cb 1f 67 bd
       -0.0006456802 0.031613328 -0.04616789 -0.056426805
0000d0 df a1 8a bd 24 98 92 bd 58 a8 1d 3d 1e 9c a1 3d
       -0.06769156 -0.07157925 0.038490623 0.07891105
0000e0 ee 2a c5 3c fc 75 e6 bc 55 08 b7 bd a8 1d 15 3d
       0.024068322 -0.028132431 -0.08937136 0.036405236
0000f0 39 43 88 3d dc 83 28 3d f8 dc e5 3c 96 fb 93 bd
       0.06653447 0.041141376 0.028059468 -0.072257206
000100 08 6e fe 3d 35 d7 f8 bc 50 1c 4c bc bb 91 bf bc
       0.124233305 -0.030376056 -0.012457922 -0.02338492
000110 eb 80 74 3c f6 f3 50 bd 2c 46 c6 3d 5a 6d 80 bb
       0.014923315 -0.05101391 0.09681353 -0.0039192857
000120 d8 e1 a8 bd e0 84 08 3c 70 a2 a9 bd d4 e6 c4 3d
       -0.08246201 0.008332461 -0.082829356 0.096143395
000130 fe c6 c3 3d 77 5c de 3d c7 85 c3 3d 28 2a e1 3d
       0.09559439 0.1085748 0.095470004 0.10994369
000140 cc c4 ff bb 8d e1 9f bd cc de b2 3d 10 85 bb 3d
       -0.0078054424 -0.07806692 0.087339014 0.09156239
000150 38 8c 87 3d 10 51 8f bd 00 9b 36 3b 5e cd c8 bd
       0.066185415 -0.06997883 0.0027863383 -0.09804796
000160 c2 9b bd bc 68 1a f1 3c 31 41 02 3e 5a f2 47 3e
       -0.02314556 0.029431537 0.12720181 0.19526044
000170 ff 82 ad bd 1f ad 35 3d 25 05 b1 3d 63 51 59 bd
       -0.08472251 0.044354554 0.08643559 -0.053056132
000180 05 f1 8d bd 41 41 b6 bd
       -0.069307365 -0.08899165
