Backend/SavedModels/9inmodel.pth (torch, 85144 bytes, 7 tensors)

network.0.weight f4 [98, 9]
0	0x3e8772ff	0.26454923
1	0xbe7b13f4	-0.2451933
2	0xbeaf720e	-0.34266704
3	0x3ddb219f	0.10699772
4	0x3eb4bd91	0.35300878
5	0xbe060a4d	-0.13089867
6	0x3d94ec11	0.072715886
7	0x3ec4086d	0.38287678
8	0xbdb6b5a0	-0.08921361
9	0x3d901738	0.070356786
10	0xbd9b8e10	-0.07595456
11	0x3e7a9df4	0.24474317
12	0xbcf25962	-0.029583637
13	0xbe8d7470	-0.27627897
14	0xbe3d23c6	-0.18470678
15	0xbe50b3e5	-0.20381124
16	0xbe1e9c90	-0.15489411
17	0x3e138af7	0.1440848
18	0xbdbdcbff	-0.09267425
19	0xbe344922	-0.17606023
20	0xbe36eb47	-0.17863189
21	0x3b895514	0.0041910503
22	0xbe95fe4b	-0.29295573
23	0xbd8b8f98	-0.06814498
24	0xbe3e51d2	-0.185859
25	0x3e32e502	0.17470172
26	0xbe653e1d	-0.22386976
27	0xbe92d05a	-0.28674585
28	0x3dab81be	0.08374356
29	0xbeb5070f	-0.35356948
30	0xbe1ee261	-0.15516044
31	0x3e2373cb	0.1596214
32	0x3e0042dd	0.12525506
33	0xbdd2891a	-0.10280056
34	0xbdded241	-0.108799465
35	0x3eb26704	0.3484422
36	0xbe6b5938	-0.22983253
37	0xbda87484	-0.082253486
38	0xbd14729f	-0.036242124
39	0x3e5e96f0	0.21737266
40	0x3ec124a1	0.37723258
41	0x3d887033	0.06662025
42	0x3cbfdc61	0.023420515
43	0xbdc09e23	-0.09405162
44	0xbe89226a	-0.26784068
45	0x3e469317	0.19392048
46	0x3ea4f588	0.32218575
47	0xbd50234b	-0.050814908
48	0xbe0f6005	-0.14001472
49	0x3e655588	0.22395909
50	0x3d719f47	0.05898979
51	0xbe58c379	-0.21168317
52	0xbe166a1e	-0.14688918
53	0x3e8e485e	0.27789587
54	0xbd6a6c21	-0.057232026
55	0x3e08b947	0.13351928
56	0x3e01bd03	0.12669758
57	0x3e61fdc6	0.22069463
58	0x3d565088	0.052322894
59	0x3e8b9991	0.272656
60	0xbea60438	-0.32425094
61	0xbdc7a246	-0.09747748
62	0xbe7b185a	-0.24521008
63	0xbe817059	-0.25281027
64	0xbe8af914	-0.27143157
65	0xbe44ad6f	-0.19206785
66	0x3cd775b2	0.026301239
67	0xbe6a3198	-0.22870481
68	0x3db8af10	0.090177655
69	0xbe593088	-0.2120992
70	0x3d776d90	0.06040722
71	0x3d9fa834	0.07795754
72	0x3e1f24cf	0.15541385
73	0xbe082aee	-0.13297626
74	0x3a1a45dd	0.0005885044
75	0x3eacffc7	0.33788893
76	0xbeb6ac97	-0.3567855
77	0xbe0e4046	-0.13891706
78	0x3e09c2f4	0.13453275
79	0x3d4e9bbe	0.050441496
80	0x3e900627	0.28129694
81	0x3d7edafb	0.062220555
82	0xbec49a9c	-0.38399208
83	0x3d4468eb	0.04795162
84	0xbe5e1bd5	-0.21690305
85	0x3d243ebc	0.04009889
86	0xbd72b13a	-0.059251048
87	0x3c7011a3	0.014652642
88	0xbe9762d1	-0.29567578
89	0xbe02439e	-0.12721106
90	0xbe443824	-0.19162041
91	0x3e8c901d	0.274537
92	0xbea2e39c	-0.31814277
93	0xbeab01b0	-0.33399725
94	0x3e363022	0.17791799
95	0xbd93b86e	-0.072129115
96	0xbe2380f7	-0.15967165
97	0x3c39fb08	0.011351354
98	0x3eb3418e	0.35010952
99	0xbd9500ce	-0.07275544
100	0x3e114493	0.14186315
101	0x3d0064a8	0.031345993
102	0x3dee3108	0.11630446
103	0x3e94c2a7	0.29054758
104	0xbd78b9ff	-0.060724255
105	0x3e342d6d	0.17595454
106	0xbcd21602	-0.02564526
107	0xbe8fc171	-0.28077272
108	0xbe29a576	-0.16567025
109	0xbcf889f9	-0.030339228
110	0xbe2ffa5f	-0.17185353
111	0xbe0e469f	-0.13894127
112	0x3e405487	0.18782245
113	0x3c8f639b	0.01750355
114	0x3cfe5382	0.031045679
115	0x3e3ed5ac	0.18636197
116	0x3e0ad0ce	0.13556215
117	0x3e38c84a	0.18045154
118	0xbd01b12e	-0.031663112
119	0xbd25a0ba	-0.040436484
120	0xbebc1e68	-0.36741948
121	0x3e1036b5	0.14083369
122	0x3e479265	0.19489439
123	0xbea6a545	-0.32547966
124	0xbb5b854a	-0.0033496195
125	0xbd53e0b9	-0.051727984
126	0xbe64cde1	-0.22344162
127	0xbcb63a2e	-0.02224454
128	0xbd9c54e7	-0.07633381
129	0xbe966f27	-0.29381678
130	0x3d17213e	0.036896937
131	0x3d495bf3	0.049159955
132	0x3e978131	0.29590753
133	0x3e9c67fc	0.30548084
134	0xbe57900d	-0.21051045
135	0x3b4e832b	0.0031511288
136	0x3e96a6d4	0.29424155
137	0xbe8fe557	-0.2810466
138	0x3e660f02	0.22466663
139	0x3e871c2c	0.2638868
140	0x3e9c1a7d	0.3048896
141	0xbd76a751	-0.06021816
142	0x3e10104c	0.14068717
143	0xbe63169c	-0.22176594
144	0xbd98a2d9	-0.07452936
145	0x3d80fde0	0.06298423
146	0xbe528c15	-0.2056125
147	0xbc846504	-0.01616145
148	0x3cf5b4b3	0.02999339
149	0xbe368ccc	-0.17827147
150	0xbe516e96	-0.20452341
151	0xbe1523ec	-0.14564484
152	0x3e079a70	0.13242507
153	0xbe8e08aa	-0.27740985
154	0x3e60133f	0.21882342
155	0x3e91194c	0.28339612
156	0x3e443257	0.19159828
157	0xbdd9da28	-0.10637313
158	0x3ded19ea	0.11577208
159	0x3d9e5085	0.07730202
160	0xbdd55698	-0.10416907
161	0xbea1eaf9	-0.31624582
162	0xbea40f43	-0.32042894
163	0x3e0f9b08	0.14023983
164	0x3e194b6e	0.1497018
165	0xbe9fae07	-0.3118746
166	0x3d0d68a2	0.034523614
167	0x3d6674a7	0.056263592
168	0x3e932368	0.2873795
169	0x3ea96f00	0.330925
170	0x3d6c5c56	0.057705246
171	0x3e5efd33	0.21776275
172	0xbe3641b6	-0.17798504
173	0xbc80fcc0	-0.01574552
174	0xbd64d920	-0.05587113
175	0x3e3bd07d	0.1834125
176	0x3e3367f6	0.17520127
177	0xbc9976b0	-0.018733352
178	0x3e9e2f3a	0.30895406
179	0x3e9a13cf	0.30093238
180	0x3cadc70c	0.021213077
181	0x3e4987eb	0.19680755
182	0x3e897ff2	0.26855427
183	0x3e865d51	0.2624307
184	0xbe7681a2	-0.24072888
185	0xbe8c12d8	-0.27358127
186	0x3e90e7fc	0.2830199
187	0xbe3c4b76	-0.18388161
188	0xbeb18114	-0.3466879
189	0xbe8e582d	-0.27801648
190	0x3e4fd56d	0.20296259
191	0xbe1e60e5	-0.1546665
192	0xbdcd35f6	-0.10020058
193	0xbe60c1e7	-0.21948968
194	0xbe5a639e	-0.21327063
195	0xbe817da9	-0.25291184
196	0x3e268e02	0.16265109
197	0x3ca1844f	0.01971641
198	0x3e4eed73	0.20207767
199	0x3df221ac	0.11822829
200	0xbd0f9a2e	-0.035059147
201	0x3e2c456c	0.16823357
202	0xbe57bfaa	-0.21069208
203	0x3e48e01f	0.19616745
204	0x3e1fd757	0.1560949
205	0x3d247543	0.040150892
206	0xbe460922	-0.19339421
207	0x3d8784eb	0.06617149
208	0xbe91207e	-0.28345102
209	0x3eb1c91f	0.34723756
210	0x3e4a577b	0.19759934
211	0x3e27879d	0.16360326
212	0x3e55b8fc	0.20871347
213	0xbe40c4e3	-0.18825106
214	0x3e9ed729	0.3102353
215	0xbeb1f3fb	-0.34756455
216	0x3eb6085b	0.3555325
217	0xbd22c9be	-0.039743178
218	0x3d18fc40	0.03734994
219	0xbe1a86e3	-0.15090518
220	0x3e6da58c	0.23207682
221	0xbe7af50c	-0.2450754
222	0xbe8f2a0c	-0.27961767
223	0x3e96e72b	0.29473242
224	0x3e3883ac	0.18018979
225	0xbe4b9ba8	-0.19883597
226	0xbe16f732	-0.14742735
227	0x3ea1d8f2	0.3161083
228	0xbe65eb90	-0.22453141
229	0xbe4392a1	-0.19098903
230	0xbe4ae57e	-0.19814107
231	0xbd9a5b04	-0.07536891
232	0xbeb25165	-0.34827724
233	0xbe89834f	-0.26857993
234	0xbe821d5b	-0.2541302
235	0x3ea650e9	0.32483605
236	0xbe7d2785	-0.24722107
237	0x3e5adff5	0.21374495
238	0xbbafe6b7	-0.0053680795
239	0xbc9ae751	-0.018909128
240	0xbc863cd3	-0.016386425
241	0xbe1d6e11	-0.15374018
242	0xbeae2de7	-0.34019396
243	0x3c81db95	0.015851775
244	0x3e5100c7	0.20410453
245	0xbe035047	-0.12823592
246	0x3d6814c2	0.05666042
247	0xbea148f6	-0.31500977
248	0xbe81800a	-0.25293
249	0xbe953a1c	-0.29145896
250	0x3e7da4a0	0.2476983
251	0xbdcecbcb	-0.10097464
252	0x3e487eb2	0.1957958
253	0x3d5a4b78	0.05329463
254	0xbe15615d	-0.14587922
255	0x3c8cb604	0.017176636

network.0.bias f4 [98]
0	0x3d9fa920	0.0779593
1	0x3de38d13	0.11110892
2	0x3e47851f	0.19484375
3	0xbe3eff72	-0.18652132
4	0xbbefd341	-0.0073188846
5	0x3e84b5f5	0.25920072
6	0x3e3328e7	0.17496072
7	0xbd87cd0a	-0.06630905
8	0xbe1b8225	-0.15186365
9	0xbebd7548	-0.3700354
10	0xbc63e6aa	-0.013909975
11	0xbdb2c5a2	-0.08729102
12	0xbe4eccbb	-0.20195286
13	0xbdf54184	-0.11975387
14	0xbe85c2dd	-0.2612523
15	0x3e1a1b5f	0.15049504
16	0x3e36b6eb	0.17843215
17	0x3de4a46d	0.11164174
18	0xbac68df6	-0.0015148509
19	0xbe0b77a0	-0.13619852
20	0x3e9eacd3	0.3099123
21	0xbea68765	-0.32525173
22	0x3d95f87a	0.07322784
23	0xbe8359f2	-0.2565456
24	0x3e2f4d7a	0.17119399
25	0xbe734a0f	-0.2375872
26	0x3de31dd9	0.11089677
27	0xbe471883	-0.19442944
28	0xbe12e7b3	-0.14346199
29	0xbec2b823	-0.3803111
30	0xbef6a6ae	-0.48174042
31	0x3e6ffe8d	0.23436947
32	0xbdbb7720	-0.09153581
33	0x3dc3cc0f	0.095604055
34	0x3e1310c4	0.14361864
35	0xbe504a84	-0.20340925
36	0xbe9cc5e1	-0.3061972
37	0xbd73a781	-0.059485916
38	0x3d2a698d	0.041604567
39	0xbe33c26f	-0.1755464
40	0x3e9fc928	0.31208158
41	0x3dc0e1c6	0.09418063
42	0x3e7391b5	0.23786052
43	0x3dbd773b	0.09251257
44	0xbe188f5e	-0.1489844
45	0x3e5585fa	0.20851889
46	0xbd39af38	-0.045333117
47	0xbd992ef4	-0.07479659
48	0x3e8a8020	0.27050877
49	0xbdaae971	-0.08345307
50	0x3e69c47f	0.22828864
51	0xbe132574	-0.14369756
52	0x3e39a2d9	0.18128528
53	0xbe5ea015	-0.21740754
54	0xbeb23a83	-0.34810266
55	0x3d862c16	0.065513775
56	0x3eb58d7b	0.35459504
57	0x3e5487b8	0.20754898
58	0xbeeb22d9	-0.45925024
59	0x3d775a6d	0.06038897
60	0x3e975233	0.295549
61	0x3e0f582e	0.13998482
62	0x3eb864de	0.36014456
63	0x3d85254f	0.06501257
64	0xbe57f0ce	-0.21087953
65	0xbe87d677	-0.2653081
66	0x3cdfb50e	0.027308013
67	0x3e9836a6	0.29729193
68	0x3e828901	0.2549515
69	0xbb199516	-0.002343481
70	0xbd37fd66	-0.044919394
71	0x3e36b663	0.17843013
72	0xbdb22aab	-0.086995445
73	0xbe863fc1	-0.26220515
74	0x3c1dce27	0.00963167
75	0x3ec61484	0.38687527
76	0x3db440a0	0.08801389
77	0x3e63f978	0.22263134
78	0x3e7cb237	0.24677359
79	0x3e411b0c	0.18857974
80	0xbe7ad6c9	-0.24495997
81	0xbe1a15c0	-0.1504736
82	0xbe957fb4	-0.29198992
83	0xbe8bb742	-0.27288252
84	0x3e869964	0.26288903
85	0x3e6af52a	0.22945085
86	0xbe5b2b1e	-0.21403167
87	0x3da3f154	0.08005014
88	0xbe9373e7	-0.28799364
89	0x3e2507b9	0.16116227
90	0xbeb4cd7b	-0.3531302
91	0xbe9f6ed6	-0.3113925
92	0x3dfede66	0.12444763
93	0x3e5b1ed9	0.21398486
94	0x3dbe3819	0.092880435
95	0xbe279069	-0.16363682
96	0x3e8cb756	0.27483624
97	0x3e284f6e	0.1643655

network.2.weight f4 [98, 98]
0	0x3dd1b46c	0.10239491
1	0x3dc9e857	0.098587684
2	0xbda28aac	-0.07936606
3	0x3d355201	0.04426766
4	0x3c192f0d	0.009349597
5	0xbd11f4d7	-0.035633888
6	0x3cdba225	0.026810715
7	0x3d83e1a0	0.06439519
8	0x3ce5bda3	0.028044527
9	0xbdb472e2	-0.08810975
10	0x3b021ad5	0.001985242
11	0x3cd28aa5	0.025700876
12	0xbdc8de24	-0.09807995
13	0x3d9262b8	0.07147735
14	0xbd9c686b	-0.07637104
15	0x3ddf9fe5	0.10919169
16	0x3d0610d3	0.03273089
17	0xbca2b3d6	-0.019861143
18	0x3bb41da1	0.005496696
19	0xbd2f1429	-0.042743836
20	0xbb268329	-0.0025407767
21	0x3d0353d0	0.03206235
22	0xbc6e6515	-0.014550467
23	0xbcef6c32	-0.029226396
24	0x3dd6b87c	0.10484406
25	0x3da9ca9d	0.082905985
26	0x3de7017d	0.11279581
27	0x3bfbead4	0.007687906
28	0x3da4d08b	0.08047589
29	0x3dadb033	0.08480873
30	0xbd9a6117	-0.0753805
31	0x3cf96ea9	0.030448275
32	0x3e3a0501	0.18165971
33	0xbccfb232	-0.025353525
34	0xbd0d15e6	-0.034444712
35	0xbd061452	-0.032734223
36	0xbd453edc	-0.04815565
37	0x3dbbce6f	0.091702335
38	0xbd50c536	-0.050969325
39	0xbdb404c7	-0.08789974
40	0x3afe5f0a	0.0019406986
41	0x3d9992c1	0.07498694
42	0x3dceb813	0.10093703
43	0x3d3eb0d9	0.046555374
44	0xbd8604d1	-0.065438874
45	0x3d8df4f3	0.06931486
46	0x3d1f5799	0.0389019
47	0xbcce6173	-0.025192952
48	0x3db669be	0.089068875
49	0x3d7fc558	0.06244406
50	0x3cc6fdac	0.024290882
51	0x3d97cd97	0.0741226
52	0xbd59ab83	-0.053142082
53	0x3d10c760	0.03534639
54	0x3d076ef3	0.033064794
55	0x3d593f81	0.053039078
56	0x3df50db8	0.11965507
57	0xbc528291	-0.012848512
58	0xbe153b92	-0.14573506
59	0xbc0ed01a	-0.0087166075
60	0xbdaea060	-0.08526683
61	0x3cb9ed8c	0.022696279
62	0x3d321e51	0.043485943
63	0xbdb7e89f	-0.08979916
64	0x3da511d1	0.08060039
65	0xbdf681a5	-0.120364465
66	0x3bdf3494	0.0068116877
67	0x3da5e6b1	0.081006415
68	0xbc15558c	-0.009114634
69	0xbdbba569	-0.09162409
70	0x3d0c469c	0.034247026
71	0x3e037f9d	0.1284165
72	0xbda70dcc	-0.081569284
73	0xbd3cb1f2	-0.04606814
74	0xbc830cde	-0.015997346
75	0xbd06e0c9	-0.032929216
76	0x3e0e5b13	0.1390193
77	0xbd05b2d2	-0.03264124
78	0x3db90c3c	0.09035537
79	0x3e1019c9	0.14072336
80	0xbd9a424b	-0.07532176
81	0xbd98b0fa	-0.074556306
82	0xbdc54dd1	-0.09633983
83	0x3d997e0c	0.07494745
84	0xbd987801	-0.07444764
85	0x3dd89ccb	0.10576781
86	0x3b8eb664	0.0043552388
87	0x3da5dcf8	0.08098787
88	0xbd4f5441	-0.05061746
89	0xbddbeddf	-0.1073873
90	0x3dc6d13d	0.09707878
91	0xbd86afb4	-0.065764815
92	0x3cbcccf1	0.023046942
93	0xbcb41cc6	-0.021986376
94	0x3d376ff4	0.0447845
95	0xbd9511cd	-0.07278786
96	0x3d7f38c2	0.062309988
97	0x3dd97ee4	0.106199056
98	0x3def1c8d	0.116753675
99	0xba355e21	-0.00069186284
100	0x3dc1adc2	0.0945697
101	0x3c633886	0.013868457
102	0x3d69c924	0.05707659
103	0x3e06c745	0.13161953
104	0xbc589f24	-0.013221536
105	0x3da298ec	0.07939324
106	0x3d6dd23f	0.058061834
107	0xbcc26aba	-0.023732532
108	0xbd4cecd3	-0.05003054
109	0xbdb37a45	-0.087635554
110	0xbcbad0af	-0.022804586
111	0x3dbfd509	0.09366805
112	0x3cf70f2f	0.030158607
113	0x3d8416f7	0.06449693
114	0x3d58cdf2	0.05293078
115	0x3d5c372f	0.053763565
116	0xbc25d705	-0.010122065
117	0x3d0449ef	0.03229707
118	0xbceb5015	-0.02872471
119	0xbd4e4807	-0.05036166
120	0x3cdbfc0e	0.026853587
121	0xbe06587b	-0.1311969
122	0x3de70a4d	0.112812616
123	0xbd3c9d01	-0.046048168
124	0x3d2e8b2e	0.0426132
125	0xbcb22c04	-0.021749504
126	0x3c0534d8	0.008130275
127	0xbcad654f	-0.021166472
128	0xbdaf44ca	-0.08558042
129	0x3d81173e	0.06303261
130	0x3e108cb1	0.1411617
131	0x3d81118d	0.06302176
132	0xbd59fa32	-0.05321712
133	0x3dafd339	0.085852094
134	0x3cb7f08e	0.022453573
135	0x3cccab04	0.02498389
136	0x3ca89b93	0.020581996
137	0x3daf61d2	0.085635796
138	0xbd15bdad	-0.036557842
139	0x3d88c746	0.066786334
140	0x3dc69143	0.09695675
141	0x3dd58910	0.10426533
142	0x3d41407d	0.04718064
143	0x3dba2651	0.090893395
144	0x3d8c4c30	0.06850469
145	0xbd944d90	-0.072413564
146	0x3dbb6ae9	0.09151251
147	0x3c3affd9	0.011413538
148	0xbd81c69c	-0.0633671
149	0x3da0d53a	0.0785317
150	0xbdb69cd8	-0.08916634
151	0xbd34b302	-0.044116028
152	0x3bbad4f0	0.0057016537
153	0x3ca59aa9	0.02021535
154	0xbc9759b2	-0.018475387
155	0x3e09fd47	0.13475524
156	0x3c1c7fb7	0.009551934
157	0x3c0f5136	0.00874739
158	0x3e015ad1	0.126323
159	0x3d5c6bbb	0.053813677
160	0x3cd35edc	0.025802068
161	0x3d0582aa	0.032595314
162	0x3d72aa6d	0.059244562
163	0xbd906f0b	-0.0705243
164	0x3d26458d	0.040593673
165	0x3dc5fad8	0.09666985
166	0x3de4e54b	0.11176547
167	0xbd5578de	-0.05211722
168	0x3dfa0c73	0.12209406
169	0x3e046d45	0.12932308
170	0xbc31ac39	-0.010844284
171	0x3d8565b4	0.06513539
172	0x3d800f1f	0.06252884
173	0xbadf46e7	-0.001703468
174	0x3e05d28f	0.13068603
175	0x3dc3149b	0.095254146
176	0x3dc10c75	0.09426204
177	0x3e0c51f2	0.13703135
178	0xbcb8f02f	-0.022575466
179	0x3a04554c	0.00050481106
180	0x3ca0d553	0.01963297
181	0xbd6a0a11	-0.057138506
182	0xbd8b29f0	-0.06795108
183	0xbc917f8d	-0.017761016
184	0x3d54fb73	0.051997613
185	0xbd206926	-0.039162777
186	0x3d385834	0.045005992
187	0xbd98f63f	-0.07468843
188	0xbc3a3973	-0.011366236
189	0x3d3028ec	0.043007776
190	0x3c67de5a	0.014152134
191	0xbdb0ee18	-0.08639163
192	0xba816b91	-0.0009873976
193	0xbd1d87f9	-0.03845975
194	0x3d341c18	0.043972105
195	0x3db08ee4	0.08621004
196	0x3d8a2b66	0.06746559
197	0x3cda64f1	0.02665946
198	0xbb81c9c2	-0.003960819
199	0x3c016892	0.007898467
200	0xbd88dabd	-0.06682346
201	0xbc875131	-0.016518207
202	0x3ce11d33	0.027479744
203	0x3dbbb25a	0.09164877
204	0x3c9942d0	0.018708616
205	0xbe095973	-0.13413028
206	0xbd73cc50	-0.05952102
207	0x3dad3fa4	0.08459404
208	0xbdaa34eb	-0.083108746
209	0x3d7754a0	0.06038344
210	0x3c4d2fe2	0.012523623
211	0x3dbab3fa	0.09116359
212	0x3aa1774f	0.0012318882
213	0x3d0bbd90	0.034116328
214	0x3dfcfcb0	0.12352884
215	0x3d7124f8	0.058873147
216	0xbd2963f4	-0.04135509
217	0x3ddfd373	0.109290026
218	0xbd86ceea	-0.065824345
219	0xbd118d3c	-0.035535082
220	0x3c23ecfa	0.01000523
221	0xbda2f6da	-0.079572394
222	0x3dc8568c	0.097821325
223	0x3c7bdeed	0.015372974
224	0x3ce308c9	0.02771415
225	0xbcdc3bbc	-0.026883952
226	0xbdb21064	-0.086945325
227	0x3e0d7d08	0.13817227
228	0x3dbe44b7	0.0929045
229	0x3de162e7	0.11005192
230	0xbd9a602b	-0.07537874
231	0x3dadd39a	0.084876254
232	0x3db0f275	0.08639995
233	0x3dc0aa27	0.09407454
234	0x3c63629b	0.01387849
235	0x3dc9b447	0.09848838
236	0xbcf02781	-0.029315712
237	0x3d597739	0.053092215
238	0xbcb4975b	-0.022044828
239	0x3cd6597b	0.026165714
240	0xbd69df92	-0.05709798
241	0x3de0c189	0.10974414
242	0xbd69b9d9	-0.057062004
243	0xbccb2a83	-0.024800545
244	0x3c02eda1	0.007991225
245	0xbcaf49a2	-0.021397416
246	0xbde2c10e	-0.110719785
247	0xbdad2e09	-0.08456046
248	0xbd16d783	-0.03682662
249	0x3ccb7d85	0.024840126
250	0xbc3fed77	-0.011714331
251	0xbbb264af	-0.0054441313
252	0x3d8a4137	0.0675072
253	0x3ce6d574	0.028177954
254	0xbd4c7e4c	-0.049925134
255	0xbc540424	-0.01294044

network.2.bias f4 [98]
0	0x3db2f36b	0.087378345
1	0x3df159d0	0.117847085
2	0xbd45b6cf	-0.048270043
3	0xbd4db343	-0.050219785
4	0xbd79c538	-0.060979098
5	0x3d78bbb0	0.060725868
6	0x3b38afce	0.002818096
7	0xbd07dd8a	-0.03317026
8	0x3aaafc91	0.0013045241
9	0xbddcc166	-0.10779075
10	0xbd3b2213	-0.045686793
11	0x3d8a7251	0.067600854
12	0x3e04cf49	0.12969698
13	0x3d7e9696	0.06215533
14	0x3d83197b	0.064013444
15	0xbd797e1f	-0.060911294
16	0x3d63e38d	0.05563693
17	0xbd5b579b	-0.053550344
18	0x3c0b2386	0.008492356
19	0xbc3493e7	-0.011021591
20	0xbda9f336	-0.08298342
21	0x3da06d36	0.0783333
22	0xbd0a7038	-0.033798426
23	0x3d4e6b67	0.050395396
24	0x3dda05ff	0.10645675
25	0x3cdb92bd	0.026803369
26	0xbc900c33	-0.017583942
27	0x3d43a35a	0.047763206
28	0x3d61bd8c	0.055112407
29	0xbd2ccd94	-0.042188242
30	0x3dd83006	0.10556035
31	0x3df64cc5	0.120263614
32	0xbd6e92a5	-0.05824532
33	0x3de1b50f	0.11020862
34	0x3d107457	0.0352672
35	0x3d4591ce	0.048234753
36	0x3d5beb4d	0.053691197
37	0xbd220fbc	-0.039565787
38	0x3d27de92	0.040983744
39	0x3d130500	0.03589344
40	0x3db412cb	0.08792647
41	0xbd4fe09f	-0.050751325
42	0x3d1dc989	0.038522277
43	0x3dc4a63a	0.09602018
44	0xbdb22896	-0.086991474
45	0xbdbdd504	-0.09269145
46	0xbd38ef7d	-0.04515027
47	0x3dccb2fb	0.09995075
48	0x37b52c48	2.1597501e-05
49	0xbc44cdac	-0.012011927
50	0x3caffa2d	0.021481598
51	0xbd0960a5	-0.033539433
52	0xbdd147e7	-0.102187924
53	0xbd179717	-0.037009325
54	0xbcb0ce49	-0.02158274
55	0x3d4a615d	0.04940926
56	0x3dbe70da	0.092988685
57	0x3e001919	0.12509574
58	0x3dc57b0b	0.09642609
59	0xba1d8017	-0.00060081616
60	0x3c248216	0.0100407805
61	0x3d8dcc8b	0.06923779
62	0x3dcb18d7	0.09916847
63	0x3d216a3f	0.039407965
64	0xbd9acb26	-0.07558279
65	0x3df3dfd1	0.11907924
66	0x3dc1ca91	0.094624646
67	0xbdf2f695	-0.11863438
68	0x3d146222	0.0362264
69	0x3dbf8570	0.09351623
70	0xbd81ae69	-0.06332094
71	0xbce0cc54	-0.027441181
72	0xbbebc60e	-0.007195241
73	0xbc6b7e6c	-0.014373403
74	0xbcbc7363	-0.02300424
75	0x3d4c2759	0.049842212
76	0x3d21865f	0.039434787
77	0xbb958fd6	-0.0045642657
78	0xbd3faa02	-0.04679299
79	0xbd83ddc5	-0.064387836
80	0xbdd0ca3f	-0.101948254
81	0xbd1f14ea	-0.038838305
82	0xbd82f8c6	-0.06395106
83	0xbdebd7ba	-0.11515756
84	0xbcfa1a2f	-0.030530063
85	0x3c1c6e41	0.009547771
86	0xbd8857b2	-0.066573516
87	0x3dd524ee	0.104074344
88	0x3bba92e6	0.005693781
89	0xbd83f912	-0.06443991
90	0x3bbc0200	0.005737543
91	0x3dd813d2	0.105506554
92	0x3cabdc28	0.020979002
93	0xbd35a410	-0.044345915
94	0x3dba89e8	0.09108335
95	0x3dd9d654	0.10636583
96	0xbbb319e8	-0.0054657348
97	0xbd05adb6	-0.032636367

network.4.weight f4 [98, 98]
0	0xbd5b8068	-0.053589255
1	0xbd8f35c8	-0.0699268
2	0xbd139f41	-0.03604055
3	0x3bb0e06b	0.0053978465
4	0xbdc05d49	-0.09392793
5	0xbbaa2c28	-0.005193252
6	0x3a15cc4c	0.00057143415
7	0x3d3199e8	0.043359667
8	0xbd874b1b	-0.06606122
9	0xbcc3ab36	-0.02388535
10	0xbddaf3ef	-0.10691058
11	0xbda4bd46	-0.080439135
12	0x3d9db4d5	0.077005066
13	0xbc3cd25d	-0.011524764
14	0x3d5fd284	0.054644123
15	0xbdad8ff0	-0.084747195
16	0xbd889edf	-0.06670927
17	0xbc9218f8	-0.017834172
18	0xbdcf3d89	-0.10119159
19	0xbd79618d	-0.060884047
20	0x3d5b97ea	0.053611673
21	0xbd5610df	-0.052262183
22	0xbdb5fc4d	-0.08886013
23	0xbdb62536	-0.08893816
24	0xbc86b4bb	-0.0164436
25	0x3ca12259	0.019669699
26	0xbdba2a0e	-0.090900525
27	0xbcd0946e	-0.025461402
28	0x3bf1791b	0.007369173
29	0x3d720810	0.05908972
30	0xbd9a10b8	-0.0752272
31	0xbdc53a97	-0.09630316
32	0xbdd4645c	-0.103707045
33	0x3d085973	0.03328843
34	0xbdd56087	-0.10418802
35	0xbdb71527	-0.08939581
36	0xbdc998aa	-0.098435715
37	0x3b1f6948	0.0024324227
38	0xbcf6f263	-0.030144876
39	0xbd16744f	-0.036732014
40	0xbdbdd9b7	-0.092700414
41	0x3d4a95e0	0.04945934
42	0x3d8135e1	0.06309105
43	0xbdd20085	-0.10254005
44	0x3d22141e	0.039569966
45	0x3d7eb9d5	0.062188942
46	0x3d2862fa	0.041110016
47	0xbd8f93e9	-0.070106335
48	0x3dabb636	0.08384363
49	0xbcc058d6	-0.02347986
50	0xbd39677c	-0.045264706
51	0x3d6d0ac6	0.057871602
52	0x3d9279df	0.07152151
53	0xbdb28517	-0.08716791
54	0xbd940528	-0.07227546
55	0x3c4e5695	0.012593885
56	0x3cdb9650	0.026805073
57	0xbb173b3a	-0.0023076073
58	0xbd34552b	-0.044026535
59	0xbd25ce1e	-0.04047977
60	0x3d186a1d	0.037210573
61	0x3d663587	0.05620339
62	0xbdb39442	-0.08768512
63	0x3c80c8cc	0.015720747
64	0x3ce7c279	0.028290974
65	0xbde4089e	-0.11134456
66	0xbca9a192	-0.020706926
67	0x3db3c2f8	0.08777422
68	0x3d874163	0.066042684
69	0x3cb4ad79	0.022055374
70	0xbb05f300	-0.0020439029
71	0x3d10905c	0.03529392
72	0xbd26c598	-0.040715784
73	0xbd1f46d3	-0.038885903
74	0xbdd9b446	-0.106300876
75	0xbdb27d17	-0.08715265
76	0x3d56c0d7	0.05243
77	0xbd9c7431	-0.07639349
78	0xbdc74557	-0.097300224
79	0xbcff2bf1	-0.031148883
80	0x3d5f12bd	0.05446123
81	0x3d9cb3e5	0.076515
82	0x3cf54fdb	0.029945305
83	0xbd7701f2	-0.06030459
84	0xbcb5ae85	-0.022177944
85	0x3d4a0418	0.04932031
86	0x3d8b5ee5	0.06805209
87	0x3da5b785	0.08091644
88	0xbd90b5d7	-0.07065933
89	0x3cf88fc0	0.030341983
90	0x3cbbb95d	0.022915537
91	0x3c79b9a4	0.015242014
92	0xbcb52f01	-0.02211714
93	0xbcb784e7	-0.02240224
94	0x3da06640	0.07832003
95	0x3d24b99a	0.040216066
96	0xbdd83111	-0.10556234
97	0xbd94becc	-0.07262954
98	0xbc924fc0	-0.017860293
99	0x3cc1592e	0.023602095
100	0x3df6cc49	0.12050683
101	0xbd29d8eb	-0.041466635
102	0xbd0c269f	-0.03421652
103	0xbcdb5e9f	-0.026778517
104	0x3d1baff4	0.0380096
105	0x3cae09db	0.021244934
106	0x3d8e05a1	0.069346674
107	0xbd8d64c4	-0.06903985
108	0x3e1b4d44	0.15166193
109	0xbc562250	-0.013069704
110	0x3d7892e0	0.060686946
111	0x3d062a3e	0.03275513
112	0x3cdc3e91	0.026885303
113	0x3d5c30d2	0.053757496
114	0xbcbd6b23	-0.023122376
115	0xbb0f3b56	-0.0021855435
116	0x3daa8d3f	0.08327722
117	0xbd94a009	-0.07257087
118	0x3dce4b59	0.10072965
119	0x3d98ca7f	0.07460498
120	0x3de0e265	0.10980681
121	0x3dc2ce5d	0.09512017
122	0x3d04f9c9	0.032464776
123	0x3de2652b	0.110544525
124	0xbe30f0eb	-0.17279403
125	0xbca4949b	-0.020090392
126	0xbd16d6dc	-0.036826
127	0x3dc3dd96	0.095637485
128	0xbda25a32	-0.0792736
129	0x3c8d22dc	0.017228536
130	0x3d682015	0.05667122
131	0x3d0579d4	0.032586887
132	0x3cf80615	0.030276338
133	0x3d908c1d	0.070579745
134	0xbd3ab4ec	-0.045582697
135	0x3cc6f586	0.024286997
136	0x3de3766f	0.11106574
137	0xbd450e41	-0.048109297
138	0x3d89ddd2	0.06731762
139	0x3cd6e36e	0.026231494
140	0x3e13dc1e	0.14439437
141	0x3c66bdee	0.014083369
142	0xbd9aed2d	-0.07564769
143	0x396f869a	0.00022842959
144	0xbdb35d53	-0.087580346
145	0x3e1ad96a	0.15122
146	0x3c5a202c	0.013313334
147	0x3da71a07	0.08159261
148	0x3d954742	0.07288982
149	0xbc1ba607	-0.009500033
150	0x3d940ff5	0.07229606
151	0x3d8e5cdb	0.069513045
152	0x3d6113f6	0.054950677
153	0xbd537fc6	-0.051635526
154	0xbd9fd953	-0.07805123
155	0x3d867e4e	0.065670595
156	0xbcffd2af	-0.031228391
157	0xbd0c0cf2	-0.034192033
158	0xbd68241e	-0.05667507
159	0x3d622735	0.055213172
160	0x3dcfbca6	0.10143404
161	0x3dedcf91	0.11611856
162	0xbdaa48bb	-0.083146535
163	0x3dac8287	0.084233336
164	0x3cb6d0f8	0.022316441
165	0x3d85d319	0.06534404
166	0x3dc54f04	0.09634212
167	0x3cb54b34	0.022130586
168	0xbdf62884	-0.120194465
169	0x3c9feb7a	0.019521464
170	0x3dadf2ca	0.08493574
171	0xbd4c9664	-0.04994811
172	0x3dda58b7	0.10661452
173	0xbd88e62f	-0.06684529
174	0xbd708160	-0.05871713
175	0x3c96d879	0.01841377
176	0xbd527f56	-0.05139097
177	0x3d936592	0.071971074
178	0x3cb727b7	0.022357805
179	0xbc674555	-0.014115651
180	0x3db4ad44	0.0882211
181	0x3d148dab	0.036267918
182	0x3dcb31fb	0.099216424
183	0x3db6e400	0.08930206
184	0xbd6a389a	-0.057182886
185	0xbc9aea71	-0.018910618
186	0xbc42f805	-0.011899953
187	0x3dce561e	0.10075019
188	0x3db17244	0.086643726
189	0x3e12b209	0.14325728
190	0x3d0c9c6c	0.034328863
191	0xbd93e9be	-0.07222317
192	0x3ded69b2	0.115924254
193	0xbd116e21	-0.035505418
194	0x3d0e36e4	0.034720317
195	0x3d8f646c	0.07001576
196	0xbdb3691d	-0.08760283
197	0xbc1d4cf7	-0.009600869
198	0xbd98ce80	-0.07461262
199	0xbdb3f03b	-0.08786055
200	0xbcd2f08d	-0.02574947
201	0x3dbada6a	0.091236904
202	0x3dc72f64	0.09725836
203	0xbd7dbc5b	-0.061947208
204	0x3cc5fb57	0.0241677
205	0xbd9b88d7	-0.075944595
206	0x3d865ab6	0.065602705
207	0xbd443578	-0.047902554
208	0x3dc2873c	0.0949845
209	0x3dc18b0d	0.0945035
210	0x3d97310a	0.073824
211	0xbc93c811	-0.018039735
212	0x3dc2aaae	0.09505211
213	0x3d087061	0.033310298
214	0xbdae77a2	-0.08518912
215	0xbd217304	-0.039416328
216	0xbd3fb30e	-0.04680162
217	0x3dfe2c72	0.12410821
218	0x3dbc6be3	0.09200265
219	0x3d5c377d	0.053763855
220	0x3de225b8	0.110423505
221	0xbd918997	-0.07106321
222	0xbed8f7c8	-0.42376542
223	0x3d8e3a25	0.06944684
224	0xbd63163f	-0.055441137
225	0x3d48d0b5	0.049027164
226	0x3d0ff2e5	0.03514375
227	0x3d47a547	0.048741605
228	0xbdb9b0a4	-0.09066895
229	0xbdc183f2	-0.09448995
230	0x3c679000	0.014133453
231	0xbd1b1542	-0.03786207
232	0x3c1f6991	0.009729759
233	0x3be55426	0.0069985567
234	0x3c9e91ed	0.019356692
235	0x3c25ad01	0.010112048
236	0x37f3ac00	2.9047951e-05
237	0x3d078f69	0.03309575
238	0x3d5c0278	0.053713292
239	0xbb1874a8	-0.0023262892
240	0x3ce62b85	0.028096924
241	0x3dca59eb	0.09880432
242	0x3d81d6bd	0.06339786
243	0x3e249731	0.160733
244	0xbd9b664d	-0.07587872
245	0x3d5fc13b	0.05462764
246	0xbd6fd188	-0.058549434
247	0x3d20ca6d	0.03925555
248	0x3ca8166f	0.02051851
249	0xbd1625de	-0.036657207
250	0xbaa63b5e	-0.0012682488
251	0xbd3ec2b1	-0.04657239
252	0xbbef05d0	-0.007294394
253	0xbcfde7ce	-0.030994322
254	0x3c5ac6ca	0.013353059
255	0xbcf8e70c	-0.03038361

network.4.bias f4 [98]
0	0x3d82bc31	0.06383551
1	0x3ddff245	0.10934881
2	0xbd2db4ce	-0.042408757
3	0x3dec5eea	0.11541541
4	0xbc3343e8	-0.010941483
5	0x3d9cace9	0.076501675
6	0x3db8fef2	0.09033002
7	0x3d7e857d	0.062139023
8	0x3a5dfcfa	0.00084681774
9	0x3dfd3831	0.12364233
10	0x3d82895d	0.06373856
11	0xbd46027f	-0.048342224
12	0xbcd7f95c	-0.026364021
13	0xbd677d71	-0.056516115
14	0x3d38885d	0.04505192
15	0xbcc4483f	-0.02396023
16	0x3e071ff4	0.13195783
17	0xbd52183d	-0.051292647
18	0xbd55e268	-0.05221787
19	0xbcac8953	-0.021061575
20	0xbc84fb3e	-0.016233083
21	0xbdce6562	-0.10077931
22	0x3d229b73	0.03969903
23	0x3d6cbf9d	0.057799924
24	0x3da8a8f6	0.08235352
25	0x3cac31ac	0.02101978
26	0xbc9c1f61	-0.019057931
27	0x3d24cc5e	0.040233962
28	0x3d95f5ed	0.07322297
29	0x3d2849a8	0.04108587
30	0x3d83b794	0.06431499
31	0xbd3ad34d	-0.04561167
32	0xbd88b0e8	-0.06674367
33	0xbde0790e	-0.10960589
34	0x3d8764e6	0.06611042
35	0x3de5cfec	0.112212986
36	0x3c90d8f7	0.017681582
37	0xbc7d0a50	-0.015444353
38	0x3cbdf45e	0.023187812
39	0x3d514533	0.051091384
40	0xbdb0c3ad	-0.08631072
41	0x3d339c70	0.043850362
42	0xbd964d24	-0.07338932
43	0x3da8d962	0.082445875
44	0xbd3380c7	-0.043823984
45	0xbd7c29dc	-0.061563358
46	0xbd1fee2f	-0.03904551
47	0x3d232264	0.03982772
48	0xbda9524d	-0.08267651
49	0x3dac4523	0.08411624
50	0x3df8135e	0.12113069
51	0xbd89d9e1	-0.0673101
52	0x3e05123d	0.12995239
53	0x3d108d2d	0.035290886
54	0x3d96fd42	0.07372524
55	0x3d8c6372	0.06854905
56	0x3ddd3c82	0.108025566
57	0x3d1a8dbe	0.037732832
58	0xbcad21f5	-0.021134356
59	0xbdd2496b	-0.102679096
60	0x3d8b17d0	0.06791651
61	0x3cb499cb	0.02204599
62	0x3d7898aa	0.060692467
63	0xbd51f14c	-0.05125551
64	0xbdb9e46b	-0.090767704
65	0xbba4574e	-0.0050152903
66	0x3dc5dcd4	0.0966126
67	0xbd3bc69c	-0.045843706
68	0xbcf6358a	-0.030054826
69	0xbcfa1334	-0.030526735
70	0x3e07d6bc	0.13265508
71	0x3c7d9210	0.015476719
72	0xbc879c0b	-0.0165539
73	0x39b72728	0.00034933654
74	0xbb16957b	-0.002297728
75	0x3a01fe0c	0.00049588154
76	0xbbd89274	-0.0066092554
77	0x3b9dfa64	0.0048211087
78	0x3e093fe4	0.13403279
79	0xbcda1510	-0.026621372
80	0x3d7bdff8	0.06149289
81	0x3d4c3484	0.04985477
82	0xbcbbcd39	-0.022925006
83	0xbd844c41	-0.06459857
84	0x3dd25761	0.102705725
85	0x3da22ea7	0.079190545
86	0xbd4d063d	-0.050054777
87	0xbcd113af	-0.025522081
88	0x3ddaee0a	0.106899336
89	0x3c21bd79	0.009871834
90	0xbd4d78bb	-0.050163966
91	0xbdfccac9	-0.12343366
92	0xbb5e3594	-0.0033906447
93	0xbb145d73	-0.0022638708
94	0x3b2adc4e	0.0026071253
95	0x3cfed249	0.031106131
96	0xbddaba30	-0.10680044
97	0x3d226289	0.03964475

network.6.weight f4 [1, 98]
0	0x3a7f0751	0.0009728568
1	0x3df86c15	0.1212999
2	0x3c780f8c	0.015140425
3	0x3d82b998	0.063830554
4	0xbd60fc7e	-0.054928295
5	0xbcf277f4	-0.029598214
6	0xbed5fa67	-0.41792604
7	0x3df57ca7	0.11986666
8	0xbc42c7d7	-0.011888466
9	0x3db28278	0.08716291
10	0x3cf50351	0.029908808
11	0x3cc5b6a3	0.02413494
12	0x3c43992c	0.0119383745
13	0xbe895e8c	-0.26829946
14	0x3d63f3ed	0.055652548
15	0x3dbba3a6	0.09162073
16	0x3d78a870	0.06070751
17	0xbce36835	-0.02775965
18	0x3de19000	0.11013794
19	0x3dae92f7	0.08524125
20	0xbd93ed50	-0.07222998
21	0x3c33360d	0.01093818
22	0xbd91be62	-0.07116391
23	0x3aef03e8	0.0018235417
24	0x3d4be546	0.0497792
25	0x3caea699	0.021319674
26	0xbd661a4a	-0.056177415
27	0xbca1092b	-0.019657692
28	0x3d6a3984	0.057183757
29	0x3d80103c	0.062530965
30	0xbd49bf55	-0.049254734
31	0xbd82915b	-0.063753806
32	0x3a9cbc5d	0.0011957992
33	0xbd406390	-0.04696995
34	0xbd306274	-0.043062642
35	0x3d84e323	0.064886354
36	0x3d4d6668	0.05014649
37	0x3d5ff468	0.054676443
38	0x3cb92350	0.022599846
39	0xbd6d16d6	-0.057883106
40	0xbce63944	-0.028103478
41	0xbd8cb3a2	-0.068702
42	0xbda0968a	-0.07841213
43	0xbd994c3a	-0.07485242
44	0xbc7dfeb6	-0.015502622
45	0xbd27bac3	-0.040949594
46	0xbd0dd3ef	-0.034625944
47	0xbda3e500	-0.08002663
48	0xba17f57a	-0.0005796772
49	0xbc84be7b	-0.01620411
50	0x3d7cb2a3	0.0616938
51	0xbc4cab41	-0.012492002
52	0x3df5574c	0.11979541
53	0x3d7e24a9	0.06204668
54	0x3c0007ee	0.007814391
55	0xbd7fd4ab	-0.062458675
56	0x3cf8d2c9	0.030373948
57	0x3da5afff	0.08090209
58	0x3d0bfbbc	0.03417562
59	0xbcb271ab	-0.021782717
60	0x3d7b0632	0.061285205
61	0xbcca3fd4	-0.024688639
62	0xbc8bcb91	-0.017064841
63	0x3e92ee14	0.28697264
64	0xbd568b7f	-0.052379128
65	0xbc3ed0d0	-0.0116464645
66	0x3de455df	0.11149191
67	0x3d0621a1	0.032746915
68	0xbdb6c5da	-0.08924456
69	0xbc9a7dd7	-0.018858833
70	0x3de4c741	0.11170817
71	0x3cff0d4c	0.03113427
72	0xbdad8c20	-0.08473992
73	0x3db85971	0.090014346
74	0x3d731fc0	0.05935645
75	0xbd97a38c	-0.07404241
76	0x3db2a726	0.08723287
77	0x3c9c6c20	0.019094527
78	0x3d914061	0.070923574
79	0x3cb99a84	0.022656687
80	0x3b7540c3	0.0037422634
81	0x3c1f5d5a	0.009726847
82	0xbd1e4286	-0.03863766
83	0xbd5ac044	-0.053406015
84	0x3d50fafe	0.051020615
85	0x3dd5630d	0.10419283
86	0x3bb152a0	0.005411461
87	0x3cb7606d	0.022384847
88	0x3d95ad20	0.073084116
89	0x3dd3c05f	0.10339426
90	0x3db8b341	0.09018565
91	0x3d6e0781	0.058112625
92	0xbd733a24	-0.05938162
93	0xbea604b3	-0.3242546
94	0x3d3db682	0.04631663
95	0x3d11d82c	0.03560655
96	0xbce2af26	-0.027671408
97	0x3d32bbe6	0.043636225
