Backend/SavedModels/inflation_predictor_threeinputs_model.pth (torch, 18356 bytes, 5 tensors)

weight f4 [56, 3]
00000000: 3212 d4be e272 b33e e25e 593e a1b5 053d
00000010: 3b65 553e 0e55 a03d 7f55 09be b695 5dbe
00000020: b022 633e 96f0 b13e 9e7a 90be b770 96bc
00000030: b48e 8a3e 93ae babe e461 a3bd 65ae bbbe
00000040: 0085 dbbb d05e bb3e 97c8 dbbe fa17 9abe
00000050: a193 d13e 604e d33e a55a 05be 8a48 4bbe
00000060: 01fe 86be a295 8c3e 80cb cebc 9d21 5cbf
00000070: a07f f9bd 7c48 cd3e 9cb1 493e af2e 263e
00000080: 70c7 2fbd f9c3 04bf aa80 87bd daea 753e
00000090: 20b5 a53d 59ce 32be 4c75 f13e 5746 0c3f
000000a0: 2296 87be e463 fbbe 62d9 b3be 9b01 9ebe
000000b0: 798f f33d 997e debe 437a 6fbd f713 c6bc
000000c0: 4a10 48be da0e e03e d2a7 f0be f064 bd3e
000000d0: b212 b53d f118 963e 95b1 42bf be09 983d
000000e0: a4e4 a23e c241 9d3e 7148 22bf e328 3e3d
000000f0: 547d 073f c8e8 1bbe 3a71 fdbe 8c40 a3be
00000100: 58d6 e63e 4f40 0cbe 3cf5 e8be 5097 b53e
00000110: 43a0 933e 5305 efbd f537 d03e 33a0 a6bd
00000120: 9f1c a3be e72b bf3e 06d3 62be d27e 343e
00000130: 53d6 9c3e 9566 c3be 5949 343e 6bda 903d
00000140: 75bb ebbe ec39 173f 07f6 a6be 0e05 3fbe
00000150: c8fe 1f3f ea6f ce3e 7d60 85be ca43 c4be
00000160: fab3 ed3e 4d29 adbe fff0 4fbe 67f9 4ebe
00000170: 9ae4 f7bd ed10 76bd 83ff 023f d485 15bf
00000180: ac01 493e c353 e9bd 004b 843e 8188 a5bc
00000190: ba5a 0c3f f551 e4be 9bc8 53bf e8a3 3e3e
000001a0: 93fc 773e 1a0c c0be 6e9e ab3e dcb2 8b3d
000001b0: f481 0abf 93e6 ab3e 658d 883e b67e 0bbf
000001c0: 0264 4fbc 516f 293f b5f4 ed3e ac23 10bb
000001d0: 4018 fe3e 36ae da3e 1e94 05bd 805b 6fbe
000001e0: 8101 cabe c484 1cbf 3acc 913e a721 c43c
000001f0: 9e76 bdbe e5a9 cabe c6bd 7ebe 50f8 343d
00000200: 8e4e ac3e f60c e8be cf61 573e 8a17 af3e
00000210: 271d 47be 5db6 433e dcac 863e bd56 393e
00000220: b275 993d 6ba9 493e 6e47 e63e 2ab9 cfbc
00000230: 725b adbe 4986 98be aa82 523e 36a3 eebd
00000240: e2df 263f b39c f7be f8f4 cdbe c0c2 373f
00000250: 868f b53c b9f3 4dbf a902 143e db9f 613e
00000260: e341 87be 2234 68be fc20 893e efd9 203e
00000270: 0c81 27be acdc e13d fdfc f6be b465 503e
00000280: 4008 04bd b73b 713c 2633 39bf 44f6 dcbc
00000290: 6f5a c2bd 009f 9cbd 38c9 b3ba e8af 293e
-0.41420132 0.35048586 0.21227601 0.032643918 0.20839398 0.07828723 -0.1341152 -0.21639141
0.22181201 0.34753865 -0.2821855 -0.018364294 0.27062 -0.36461315 -0.079776555 -0.3665649
-0.0066992044 0.36595774 -0.42926475 -0.30096418 0.40932944 0.41270733 -0.1302286 -0.1985189
-0.26365665 0.2745791 -0.02524352 -0.8598879 -0.12182546 0.40094364 0.19696659 0.16228746
-0.042914808 -0.5186153 -0.066163376 0.2401537 0.080911875 -0.17461528 0.47159803 0.5479483
-0.2648173 -0.49099648 -0.35126787 -0.308606 0.118925996 -0.4345596 -0.058466207 -0.024179442
-0.19537464 0.4376133 -0.47003037 0.36991072 0.088414565 0.29315904 -0.7605222 0.07423733
0.31815064 0.30714232 -0.63391787 0.04642571 0.5292561 -0.15225518 -0.49500448 -0.31885183
0.45085406 -0.13696407 -0.454996 0.35467005 0.28833207 -0.116709374 0.40667692 -0.08136024
-0.31857774 0.37338182 -0.22150812 0.17626503 0.30632266 -0.381642 0.17606105 0.0707291
-0.46041456 0.59072757 -0.3260958 -0.18654272 0.6249814 0.4031976 -0.26050177 -0.3833297
0.46426374 -0.33820572 -0.20306776 -0.20212327 -0.12104149 -0.060074735 0.5117113 -0.5840733
0.19629544 -0.113929294 0.2583847 -0.020206692 0.5482594 -0.44593778 -0.82727975 0.18617213
0.24217443 -0.37509233 0.3351931 0.06821224 -0.5410454 0.33574352 0.26670375 -0.5449022
-0.012658121 0.6618548 0.4647576 -0.0021993918 0.49627876 0.42711037 -0.03261196 -0.23374748
-0.39454272 -0.61140084 0.28476125 0.023941828 -0.3700456 -0.39582744 -0.2487708 0.04418212
0.33653682 -0.45322388 0.21033405 0.34197646 -0.19444714 0.19112535 0.26303756 0.18099494
0.07493152 0.19693534 0.44976372 -0.025356848 -0.3385883 -0.2978995 0.20557657 -0.11652224
0.6518537 -0.4836174 -0.4022596 0.7178154 0.022163164 -0.80450016 0.1445414 0.22033636
-0.26417455 -0.22676137 0.26782978 0.15708135 -0.16357821 0.11028418 -0.4823989 0.20351297
-0.03223443 0.01472371 -0.7234367 -0.026972897 -0.09489905 -0.07647514 -0.0013716584 0.16571009

bias f4 [56]
00000000: f47f 6a3e 94cd fcbe b98e a7be 0500 603e
00000010: cc8c 0cbf 331a 02bf cfd5 bb3e 541c c33e
00000020: 950c e1be 548e cfbe a62f 143f 6b80 403e
00000030: b63c 843e 5ddd f23d 1c97 50be 6a25 b33e
00000040: 7db6 35bd e711 753e a67a 7dbe ecef 44bd
00000050: 795d cc3c b52e f53e 366a a93e 74e1 043f
00000060: 8592 bd3e 443c d63d 8366 09be b378 743e
00000070: 28ca 1ebf 06f7 1cbd 08f4 febe fcdd a7be
00000080: e93c 7dbd 2e97 d5bd 44d3 83be 47af c3be
00000090: d2a3 07bf 4d5a 083f 4dbf b5be 84a8 d43d
000000a0: 48e8 8ebf ce24 82bf 9b4b 913e 8861 393e
000000b0: c168 d73e 035a 633e 7720 a6bd 5e2b 0bbd
000000c0: 4576 823d 8ba2 a1bd 9243 3abc 37ac cebe
000000d0: 1095 c6be e2f0 a23e 7b2f 1cbf fb97 ae3e
0.22900373 -0.49375594 -0.32726076 0.21875007 -0.5490234 -0.50821227 0.3668656 0.3810755
-0.43954912 -0.40538275 0.57885206 0.18798988 0.2582757 0.11858628 -0.20370144 0.34989482
-0.044363488 0.2393261 -0.24753818 -0.04808037 0.024946915 0.47887197 0.33088845 0.51906514
0.37025848 0.104607135 -0.13418011 0.23874168 -0.62027216 -0.038321517 -0.49795556 -0.32786548
-0.061825667 -0.10429226 -0.2574712 -0.38219664 -0.52984345 0.5326279 -0.35497513 0.10383704
-1.1164637 -1.0167482 0.28377995 0.18103611 0.42072108 0.22202305 -0.08111661 -0.033976905
0.063702144 -0.07892331 -0.011368649 -0.40365764 -0.387856 0.31824404 -0.6100995 0.34100327

weight f4 [56, 56]
00000000: 98fe f73c db4a bfbd 213c dcbd 6fe4 04be
00000010: 8160 e6bd 8a5b 9a3d 1a71 debc 933f 16be
00000020: 1091 0f3d 862d ba3c 34bc 18be 77dd 083d
00000030: 988c 28be 3284 34be 9822 f1bd 9ea6 843c
00000040: 55d0 b53c 14c5 bb3c aa9d 37bd e247 9bbd
00000050: 65de 54be 4327 febc ac58 1dbd 4c92 2ebe
00000060: 75d2 d9bd 9cbb b63c 0179 c6bc c9ee 1b3d
00000070: a124 43bd 9a89 34bc 940c 2bbe 3ad5 ffbd
00000080: 54e3 443d a76b ffbd ba14 2fbe e7ce 11be
00000090: d2bb 24be 889b f6bd 9de0 17be 1694 113d
000000a0: a264 9c3b 1df4 7dbd 1b10 4bbd d745 5b3c
000000b0: d56e 92bd 9ad2 2e3d f514 2c3c 5c52 2dbd
000000c0: 531f 523d 2aed bfbd 97f0 0a3c 7e24 753d
000000d0: 3b13 59be be8a c6bd b004 da3a 99e1 db3b
000000e0: 5bf4 773e 2436 9abd adc6 5abd 8b60 41bd
000000f0: 701e c53c b401 843d 421e 2b3e 4ea2 e33c
00000100: ec2f 85bc 0604 863e d99a fb3d 3d41 383d
00000110: d835 d63d 08b4 4f3d 94a8 e7bb bf0f 043d
00000120: 79cd c53d ef52 c1bb 3987 f43d c6a1 1dbe
00000130: 7169 273d 2bf1 a93c 2c73 153e a49d 8a3d
00000140: 2971 0e3e aa0e 6dbd 6051 17be 586e ddbd
00000150: 9e09 57be 5dd9 c13d ffda 46be d27f c0be
00000160: 0ff7 03bd cc45 93bd 117a 963e 3fd4 303e
00000170: ac8f e03d abf7 093d 9343 cabd 5d30 c43d
00000180: 6082 d4be 0744 b2be be79 9b3d a5e8 b93d
00000190: dffb 2b3c 1041 173e eb12 dd3c f917 043e
000001a0: 71f8 b6be 7702 be3e 71e3 cbbc bd86 32bd
000001b0: 4fcd 2dbd 3800 e73d 47cb e23d bb59 343d
000001c0: 2f1b 1a3e fb81 e7bd 3c16 2ebe d932 cb3d
000001d0: 90b5 ac3c 7046 ab3d 3e5c 0cbd 46f2 0f3d
000001e0: b035 ecbc 4b48 b93e 370e ff3d 679b 313e
000001f0: 48e7 4d3e 7d0f b1bd b5b4 7abd 3181 283e
00000200: 35e6 333e 4cc7 f23d b0b0 1a3e 6c30 e6bc
00000210: bb55 c4bc 269c 0a3e 385e 353e 31ef 3bbc
00000220: f458 643e fc51 d13d e19b 1a3d 8244 ce3d
00000230: 6553 79be 60e1 563e 9902 51be 15dd d9be
00000240: ab73 303d c5c0 6dbd f29f 6f3e be84 2a3e
00000250: 72e4 1ebc 3d9a 2a3e a394 e0bd 9ead 253e
00000260: 55ae dcbe 2965 05bf 437f f93d a428 e23d
00000270: e449 5c3e 34bb 62bb 6ff1 37bd ce1c 9abd
00000280: bed9 25be d6fc c23e 7c11 823d 85c8 1e3e
00000290: 40f1 883d e211 c53a 5f01 ab3e 3a23 063e
000002a0: b6fe a1bd 0a83 3fbd 7e4c c73d 508b 4d3c
000002b0: 4813 44bc 1808 ffbd a29e ab3d 8450 e8bd
000002c0: 280f 49bd 44cd 9fbd 986b 99bd d7c4 03be
000002d0: 0f18 05be 320b 59bd a68a 7dbd fc5e d1bd
000002e0: c0cf 073c 3845 023d c43e 67bd 80a3 e2ba
000002f0: a8dc 76bc 50ac 26bc 33a9 febd 5025 4c3d
00000300: fecf ebbd 98e8 d13d 08b5 0d3d f05f 563c
00000310: c8b5 92bc f81c d23c b7e2 e5bd 0bd6 84bd
00000320: 65a5 07be 0980 febd 284f 92bd 6e9e d0bd
00000330: fe95 86bd d07b a33d b25a f23d a0bc 67bd
00000340: c035 643c 3af9 f53d 0048 3b39 b03c 923d
00000350: 67a8 f1bd d0a4 35bd 00c3 de3a e030 c9bb
00000360: f276 bebd f253 fcbd e0d8 19bc 0c23 96bd
00000370: e013 7e3d 32c3 ca3d 0379 033e 081f a0bd
00000380: 010c 843e dd92 56bc c5a0 903d 7f98 a9bd
00000390: 6a94 f8bd e253 39bd cf7e 823d 615d adbd
000003a0: b4ba bd3d 6fee fe3e bf32 153e 312d 093e
000003b0: 9141 653e 0f31 1bbd 653c bcbd 218a 033c
000003c0: ebd2 8c3e d375 2b3e 06ea 123e dfe9 12be
000003d0: 3c17 243d fd7a 0c3e b03c 493e e088 bf3d
000003e0: 4a83 e23d 3665 a83d 2b57 adbd ed18 1abe
000003f0: 1449 66be b404 8c3e 7950 89be 0fb3 32bf
0.030272767 -0.093404494 -0.10753656 -0.12977766 -0.112488754 0.07536991 -0.02715354 -0.14672689
0.03505045 0.022726785 -0.14915544 0.03341433 -0.16459882 -0.17628554 -0.11774176 0.01619273
0.022194067 0.022921123 -0.044828095 -0.0758207 -0.20787962 -0.03102458 -0.038414642 -0.17047995
-0.106358446 0.022306256 -0.024227621 0.03806952 -0.047642354 -0.011019135 -0.16704017 -0.124918416
0.04806836 -0.12471705 -0.1709775 -0.14239083 -0.16087273 -0.12041384 -0.14831777 0.035541616
0.0047727386 -0.062000383 -0.049575906 0.01338335 -0.07150046 0.042681314 0.010503043 -0.042314872
0.051299404 -0.09371407 0.008480213 0.059849255 -0.21198742 -0.09694432 0.0016633477 0.006710243
0.24214308 -0.07529858 -0.05341213 -0.04721121 0.024062365 0.06445637 0.16710761 0.027787354
-0.016258202 0.26174945 0.12285394 0.04498409 0.10459489 0.0507088 -0.0070696566 0.03224158
0.096583314 -0.005899779 0.11939854 -0.15393743 0.04087204 0.02074488 0.14594716 0.06768349
0.13910355 -0.057875313 -0.14777136 -0.10812062 -0.20999762 0.09465287 -0.19419478 -0.3759752
-0.032218035 -0.07191047 0.29390004 0.17268465 0.10964903 0.03368346 -0.0987617 0.09579537
-0.41505718 -0.34817526 0.0759158 0.090775765 0.0104970625 0.14770913 0.02698656 0.1289977
-0.3573642 0.37111256 -0.024888726 -0.043585528 -0.042432126 0.112793386 0.11073928 0.044030886
0.15049432 -0.11304089 -0.17000669 0.09921808 0.02108267 0.08363044 -0.034267657 0.03514316
-0.028834194 0.36187968 0.12453883 0.17344438 0.20107758 -0.08645532 -0.061207492 0.16455533
0.17568286 0.11854419 0.15106463 -0.028099261 -0.02396666 0.13536128 0.17711723 -0.011470602
0.22299558 0.102207154 0.037746314 0.100716606 -0.24348219 0.20984411 -0.20411147 -0.42551485
0.04307906 -0.058045167 0.23400858 0.166522 -0.00969802 0.166604 -0.1096585 0.16179511
-0.43101755 -0.52107483 0.12182476 0.11042908 0.21512562 -0.0034596445 -0.044907983 -0.07525025
-0.16196343 0.38083524 0.06350991 0.1550618 0.0668664 0.0015035237 0.33399484 0.13099375
-0.079099104 -0.046755828 0.097313866 0.012545422 -0.011967488 -0.12452716 0.08379866 -0.11343482
-0.04908672 -0.07802823 -0.07491225 -0.12868057 -0.12997459 -0.052989192 -0.061899804 -0.10223195
0.008289278 0.031804293 -0.056456342 -0.0017291158 -0.015067257 -0.010172918 -0.12434616 0.04984027
-0.11514281 0.10249442 0.034596473 0.013084397 -0.017908946 0.025648579 -0.11224883 -0.06486138
-0.13246687 -0.124267645 -0.07144004 -0.10186468 -0.065715775 0.079826 0.11833705 -0.05657637
0.013928831 0.12010427 0.00017860532 0.071404815 -0.11799698 -0.04434663 0.001699537 -0.0061398596
-0.09300031 -0.12320699 -0.009390086 -0.073309034 0.062030673 0.09900512 0.12839131 -0.07818419
0.25790408 -0.013096538 0.07061914 -0.082810394 -0.12137683 -0.045246013 0.06371843 -0.08465076
0.092641264 0.49791285 0.1457014 0.13396145 0.22388293 -0.037888583 -0.09191207 0.008028538
0.27504668 0.16744165 0.14347085 -0.14347027 0.04006122 0.13718791 0.19652057 0.09352279
0.11060198 0.082224295 -0.084638916 -0.15048571 -0.22488815 0.27347338 -0.26819208 -0.6980447

bias f4 [56]
00000000: 8a80 40bc b260 8a3d b0f0 ff3d 967b cabd
00000010: 16f3 6f3e a55c 543c 1e58 8cbc 07ce fcbd
00000020: 5ac4 f63d 5e1b 1bbe b982 fb3b eb3c 6fbd
00000030: 3ce5 d13c c514 9d3d 1bde cbbc 38e9 1ebd
00000040: 0227 3c3d ee1d 833e 01ca 2c3e 753a 103e
00000050: affb 833b 10ac 103c 3e53 e6bd 308d 3b3d
00000060: ca83 a73d cfc4 ea3d 0e06 1fbe 0249 55bc
00000070: f279 89bd ec48 803d 2786 3e3d 3483 d7bd
00000080: 3cfd e6bd c702 d8bd c99b 303d 6c43 95bd
00000090: 42bb 733e 0983 223e dd19 cc3c d901 87bd
000000a0: 8fab d8bc 0af8 ccbc 163a 0ebe 6179 4b3d
000000b0: 6026 d43d 66c0 b53c ec1a 0d3b 8c19 3c3c
000000c0: d4ad 3bbc e5d1 25be cb40 153e 3d6d db3c
000000d0: abda 3dbe b397 4abe 8153 573d f5d8 fc3c
-0.011749396 0.067567244 0.12497079 -0.098868534 0.23432574 0.012961541 -0.017131861 -0.12343984
0.1204917 -0.15147159 0.0076754955 -0.058407705 0.025622003 0.07669977 -0.024886182 -0.038796633
0.04593564 0.25608772 0.16873933 0.140848 0.0040278058 0.008830085 -0.11246346 0.045788944
0.08179434 0.114633195 -0.15529653 -0.013017895 -0.06712712 0.06263909 0.046514656 -0.10523072
-0.112787694 -0.10547405 0.04311732 -0.0728825 0.23801902 0.15870298 0.024914676 -0.06592149
-0.026448993 -0.025020618 -0.13889346 0.049676303 0.10358882 0.02218647 0.002153094 0.0114807
-0.011455018 -0.1619335 0.14575498 0.026785487 -0.18540446 -0.19784431 0.05256987 0.030865172

weight f4 [1, 56]
00000000: 5f72 1c3b da50 803d 7f2c bb3d 0230 64bd
00000010: 4936 0e3e 357b 993c 7439 5d3c 5836 3d3d
00000020: 6b0c 213d 2c48 61bd 6d68 623c 3c45 213c
00000030: 88b6 dfbc c19d 8bbd 3a4d 123e 7c0b fcbd
00000040: 212f 813c 4225 123e 7c8b bc3d 0d7d 173e
00000050: 065f 9cbd 44cc 84bd a2f9 cabd 92dd e53d
00000060: 3178 873d 2143 063e 2c8a 34bd af86 a73d
00000070: e1d9 a6bc aa0c 2f3e cf1b 213e 3afa 1a3d
00000080: 087d 0f3d 5fde 5dbd 2078 bf3c c9cc 25bd
00000090: 2352 313e aa93 043e 87b8 f5bc 24c0 153d
000000a0: 4c1f febc 1f77 b53d 57eb 0fbd dc78 37ba
000000b0: 515b 683e a9ca 493e a3f4 123d 94e4 613d
000000c0: b7dc 1e3b 6da6 d13c 7b62 343e 4d13 333e
000000d0: 09a6 04bd 332c e23d d7cb 47bd 50f8 52bd
0.0023871881 0.06265421 0.09139346 -0.055709846 0.13887896 0.018735508 0.013502467 0.046194404
0.039318483 -0.05500047 0.013818842 0.009843167 -0.027308717 -0.068171985 0.14287272 -0.12306878
0.015769543 0.14272025 0.09206292 0.14793797 -0.07635312 -0.06484273 -0.09910895 0.11223902
0.066147216 0.13111545 -0.044077083 0.08179986 -0.020367565 0.17094675 0.15733264 0.03783629
0.03503135 -0.054167148 0.02337271 -0.0404785 0.17316489 0.12946954 -0.029995216 0.036560193
-0.031020783 0.08860611 -0.035136547 -0.00069989054 0.22691084 0.19706215 0.035877835 0.05514963
0.0024240443 0.025592053 0.17615692 0.17487831 -0.032384906 0.110435866 -0.04877838 -0.05150634
