Backend/SavedModels/inflation_rnn_model_full.pth (torch, 38054 bytes, 9 tensors)

weight_ih_l0 f4 [50, 9]
-0.05026711 0.028110055 0.08066354 -0.10672413 0.1789757 -0.07767201 0.048431728 -0.24295111
0.020724397 -0.09760079 0.2030442 -0.13271104 0.024872229 0.0661065 -0.11073675 0.15484919
-0.05349081 0.15569872 0.041398983 -0.102604754 -0.11854739 -0.102365375 0.1404109 -0.03867323
-0.07220135 -0.19920339 0.21853763 -0.106868125 -0.1041441 0.05260015 0.019434946 0.35039496
-0.057267427 0.17197831 -0.023763912 0.27939773 -0.044962727 0.18128052 -0.039362133 -0.15374103
0.06816287 0.085359514 -0.14466627 -0.020417847 0.0012136408 -0.100934945 0.19808795 -0.025742
0.09897835 0.02302502 0.021065352 0.1780349 -0.18631195 -0.14280716 0.18928684 0.09734569
0.08208172 0.0033575627 -0.050036155 0.16998266 0.0022281436 -0.09609508 -0.09095629 -0.078561306
0.11048876 0.019496955 0.09971557 0.031578578 0.10029146 0.05308668 -0.10934161 -0.05740086
-0.029640693 -0.113161474 -0.05521653 -0.100200355 0.16320251 -0.043957658 -0.1477112 -0.019751612
0.037183683 -0.059542496 -0.01591435 0.0077068834 -0.11310799 0.31664044 0.08326056 0.08996257
-0.30367726 -0.08860463 -0.055931263 -0.116348006 -0.053048544 0.17389739 -0.3565237 -0.047828287
-0.07493532 -0.110612944 0.28557554 -0.0059021167 -0.07141672 0.05970294 -0.03589712 -0.0013912445
-0.05926842 -0.13629526 -0.06986864 -0.021631764 0.19661511 -0.0904206 -0.01752673 -0.01820404
0.3896369 -0.10843291 -0.26784018 -0.20012051 -0.3168658 0.13804759 -0.1452624 0.016678989
0.043671906 -0.020401176 0.11875079 0.012758785 0.13214867 0.0185566 0.07746204 0.0031714109
-0.062331334 0.11207101 0.13825552 0.027220706 0.113452636 0.002301736 -0.09956177 -0.010406419
-0.04052301 0.030438635 0.24018046 -0.010668726 0.04086681 0.11975655 0.24761413 -0.067518055
0.07376982 -0.12607026 -0.1511381 0.05095615 0.026451794 0.022896938 -0.030312857 -0.030636594
0.21068124 0.030194575 -0.09043717 0.006736621 -0.19416346 -0.019905 0.015897715 -0.14805178
-0.23981841 -0.011317149 0.09483609 -0.03855616 0.006354679 -0.064280905 0.34600413 -0.0009107912
-0.04229455 0.030703455 0.11590854 0.10208499 0.09967301 0.060655497 0.015750952 0.01694185
-0.06927214 -0.13462408 0.112115346 0.1516483 -0.14368552 0.044801358 0.021791624 0.2567604
-0.23711622 0.12286885 0.026234819 0.03211044 0.1358228 -0.11909844 -0.07457235 -0.01030336
-0.18383065 -0.0022996783 -0.08351529 -0.11873748 -0.09938126 0.02935114 0.032576475 0.008869238
-0.111148246 -0.10106153 -0.15408264 -0.014321321 0.12893227 -0.015388106 0.15584974 0.13317648
0.11465557 0.10178642 -0.33396572 -0.13794416 0.25118324 0.019006135 -0.022383744 -0.018891858
-0.07022937 -0.0065629533 -0.08031621 0.22657707 -0.020772362 -0.14270683 -0.1454826 -0.005563009
-0.2495441 -0.059113003 -0.15154678 0.11314621 -0.11421379 -0.20195843 -0.040825915 0.025610859
0.036079634 0.18002735 0.09947793 -0.08095887 -0.027860662 0.019747108 -0.039828993 -0.06967018
-0.084471524 0.12873419 -0.070668206 0.07307632 0.09519139 -0.14531523 -0.10555676 -0.057878483
0.105203845 -0.10186718 0.07624555 0.07440057 -0.1255463 -0.13861242 -0.04058933 0.07843148
00000000: e3e4 4dbd 0f47 e63c ed32 a53d 2e92 dabd
00000010: 6845 373e 8112 9fbd 5960 463d 2dc8 78be
00000020: 36c6 a93c ece2 c7bd d2ea 4f3e 67e5 07be
00000030: d8c0 cb3c d862 873d f3c9 e2bd c990 1e3e
00000040: 2e19 5bbd 7c6f 1f3e fb91 293d 7122 d2bd
00000050: f9c8 f2bd f0a4 d1bd e0c7 0f3e d267 1ebd
00000060: 4dde 93bd f9fb 4bbe 54c8 5f3e addd dabd
00000070: 8049 d5bd 4173 573d 0936 9f3c f866 b33e
00000080: 4091 6abd 151b 303e 89ac c2bc 380d 8f3e
00000090: d62a 38bd 9aa1 393e 303a 21bd 4a6e 1dbe
000000a0: fa98 8b3d f8d0 ae3d 6523 14be 5443 a7bc
000000b0: 0713 9f3a fbb6 cebd 91d7 4a3e e3e0 d2bc
000000c0: 29b5 ca3d f79e bc3c 3f91 ac3c c84e 363e
000000d0: 8fc8 3ebe 0a3c 12be 69d4 413e 2d5d c73d
000000e0: 761a a83d 8e0a 5c3b b6f2 4cbd ef0f 2e3e
000000f0: 0c06 123b 7fcd c4bd 4b47 babd c0e4 a0bd
00000100: ee47 e23d 14b8 9f3c ad37 cc3d 8a58 013d
00000110: 9c65 cd3d 6b71 593d 7eee dfbd 2a1d 6bbd
00000120: 0ad1 f2bc 34c1 e7bd ba2a 62bd d835 cdbd
00000130: 8f1e 273e f20c 34bd 9b41 17be 22ce a1bc
00000140: eb4d 183d d5e2 73bd d05e 82bc 068a fc3b
00000150: 29a5 e7bd b21e a23e 8384 aa3d 4c3e b83d
00000160: 967b 9bbe 5876 b5bd 2e18 65bd dd47 eebd
00000170: 6e49 59bd 2812 323e 468a b6be 98e7 43bd
00000180: b077 99bd 0a89 e2bd f536 923e 8b66 c1bb
00000190: ee42 92bd 128b 743d dc08 13bd 6b5a b6ba
000001a0: 71c3 72bd fc90 0bbe 4a17 8fbd 1935 b1bc
000001b0: 7955 493e 6f2e b9bd 3894 8fbc a420 95bc
000001c0: 7d7e c73e 1312 debd 5922 89be 64ec 4cbe
000001d0: 3c3c a2be 595c 0d3e abbf 14be 60a2 883c
000001e0: 50e1 323d 5e20 a7bc 9d33 f33d 390a 513c
000001f0: fb51 073e 0304 983c 6ba4 9e3d 72d7 4f3b
00000200: 244f 7fbd 7c85 e53d db92 0d3e f5fd de3c
00000210: db59 e83d b9d8 163b 0be7 cbbd af7f 2abc
00000220: 75fb 25bd 725a f93c def1 753e e1cb 2ebc
00000230: f563 273d ec42 f53d 8f8e 7d3e e846 8abd
00000240: a214 973d 9018 01be f2c3 1abe 65b7 503d
00000250: 6fb1 d83c 5c92 bb3c ab52 f8bc 98f9 fabc
00000260: d3bc 573e 9d5a f73c 1f37 b9bd dfbe dc3b
00000270: c9d2 46be d00f a3bc ed3b 823c e39a 17be
00000280: f592 75be 906b 39bc 6d39 c23d 10ed 1dbd
00000290: e93a d03b b5a5 83bd 7427 b13e 2ac2 6eba
000002a0: 0d3d 2dbd d085 fb3c 7561 ed3d ef11 d13d
000002b0: 5d21 cc3d e671 783d 2408 813c a2c9 8a3c
000002c0: 8dde 8dbd e5da 09be bb9c e53d b149 1b3e
000002d0: 4c22 13be a181 373d 5984 b23c 1976 833e
000002e0: 98ce 72be aaa2 fb3d 67ea d63c 3d86 033d
000002f0: 2215 0b3e e2e9 f3bd 63b9 98bd 6dcf 28bc
00000300: 1a3e 3cbe 33b6 16bb 100a abbd a32c f3bd
00000310: 6788 cbbd cd71 f03c e96e 053d 4850 113c
00000320: b1a1 e3bd 59f9 cebd d7c7 1dbe f9a3 6abc
00000330: d206 043e 651e 7cbc 1397 1f3e 6a5f 083e
00000340: 8ad0 ea3d 6675 d03d 8efd aabe 3c41 0dbe
00000350: 179b 803e c1b2 9b3c 1d5e b7bc 19c3 9abc
00000360: 6ad4 8fbd 0b0e d7bb d37c a4bd d203 683e
00000370: cd2a aabc bd21 12be 64f9 14be e749 b6bb
00000380: 7d88 7fbe 7a20 72bd 142f 1bbe 33b9 e73d
00000390: ebe8 e9bd 31ce 4ebe 1339 27bd ddcd d13c
000003a0: 3dc8 133d 1759 383e 16bb cb3d c4cd a5bd
000003b0: 0b3c e4bc b0c4 a13c ba23 23bd 3daf 8ebd
000003c0: 68ff acbd e5d2 033e 7eba 90bd 0aa9 953d
000003d0: b4f3 c23d 84cd 14be 252e d8bd fd11 6dbd
000003e0: 1d75 d73d bd9f d0bd a026 9c3d 535f 983d
000003f0: 368f 00be 6af0 0dbe ff40 26bd afa0 a03d

weight_hh_l0 f4 [50, 50]
0.1297082 0.13687778 0.03286499 0.18320227 -0.017900912 -0.06696751 0.052180685 0.077484496
0.14106779 0.1985628 0.05883248 0.06052551 -0.046758093 -0.16606319 0.170911 0.024088204
0.08439934 0.10318008 -0.11021363 0.037497025 0.07036308 -0.09751262 -0.045971338 -0.1085936
0.19320726 0.08410106 -0.053546492 -0.042656206 -0.032718115 -0.011809285 0.12896453 -0.009603829
0.07042868 -0.18932478 -0.006689635 0.14505538 0.12524523 -0.14148407 -0.061807387 -0.035701167
0.13199101 0.12976061 -0.047307633 0.0617311 -0.07545622 -0.030496739 -0.038562905 -0.07456617
0.05316985 -0.087513864 -0.100967795 0.013764706 -0.0061151916 0.002903629 0.005176703 -0.10367207
0.030682221 0.034104537 0.07882022 0.039150145 0.020659205 -0.09604222 -0.252349 -0.016058497
-0.117918715 0.09046602 0.018228926 0.003759249 0.06287686 0.010481957 0.067815505 -0.15050122
0.0040091597 -0.105988644 0.11524653 0.01534747 0.10725467 0.059512064 0.051250327 -0.075926885
-0.09660159 0.08256946 -0.05349312 0.03276019 -0.14099334 -0.036962707 -0.14248645 0.086724505
0.07894203 -0.026649045 0.11155764 -0.088687755 -0.071812145 -0.016015204 0.006191844 -0.13320614
0.11478299 0.052079484 -0.041324362 -0.01652617 0.14400348 0.109783836 0.2466242 0.004604081
0.038769428 -0.042354263 -0.022452073 -0.17629765 0.13481186 0.1680866 0.1776432 -0.13010478
0.04476827 0.036300447 0.02726574 -0.11355733 0.2535184 -0.026766801 0.07297471 0.3014458
0.061226174 -0.14788519 -0.08318011 -0.07216652 -0.022066148 0.14454184 -0.15439934 0.15824404
0.080428794 0.04482995 0.04810406 0.05909901 0.04258293 0.07236818 0.055230804 -0.1144788
-0.08579235 0.20486087 -0.036870696 -0.0038849448 0.059828963 -0.065672174 -0.08319554 -0.058238443
0.17964795 0.09241221 -0.09071724 0.05556552 0.0005157579 0.0334863 0.07366971 0.14622588
-0.15255985 0.22058384 -0.05476266 0.19449398 0.05191497 -0.025339019 -0.15150668 0.050874747
0.074644074 0.0035361305 0.11087155 -0.13318965 0.060956974 0.1661536 0.03132905 0.05150199
0.179358 0.026085086 -0.0071659656 -0.05026275 -0.03605425 -0.03793839 -0.00831204 0.05084732
-0.13086948 -0.09160689 -0.19912706 0.24520122 0.12473489 0.04841858 -0.18044613 -0.049023498
-0.07962801 -0.04922209 -0.14478487 -0.028658817 -0.22029856 -0.10738331 -0.06147741 0.03765947
0.017789448 0.12668662 -0.040688466 -0.08799023 -0.10739312 0.12674895 0.0023327072 0.0059393705
0.15306371 -0.097781576 0.14434946 -0.07297347 0.12868421 -0.056212362 0.07340202 -0.112368755
-0.015349511 -0.02393605 -0.16531873 0.032052804 0.084796615 -0.15407343 0.056112856 -0.14105137
0.080038674 0.13246539 0.13608755 -0.097066805 -0.2501196 -0.021316107 0.2136244 0.052033357
0.08670445 -0.073697284 -0.05096153 0.12965214 0.0020122775 0.07640748 0.16608196 0.007865938
0.06014373 0.086450316 0.04600172 0.030107062 0.04993609 -0.02988555 -0.051590532 0.12556323
-0.072071925 0.1338597 -0.10031151 -0.08142766 -0.08400771 0.07060983 0.12198366 -0.13809957
0.0078105154 -0.04470049 0.12544902 -0.001567011 0.000835391 0.02917058 -0.11889654 0.19090013
00000000: 3ad2 043e b029 0c3e 719d 063d 6099 3b3e
00000010: efa4 92bc 4326 89bd 6abb 553d 31b0 9e3d
00000020: 1374 103e 0c54 4b3e 54fa 703d 99e9 773d
00000030: 6a85 3fbd 780c 2abe 4b03 2f3e a054 c53c
00000040: 90d9 ac3d 1450 d33d afb7 e1bd 7b96 193d
00000050: 851a 903d b2b4 c7bd 714c 3cbd 5266 debd
00000060: 20d8 453e 2d3d ac3d 9153 5bbd 46b8 2ebd
00000070: 6e03 06bd bb7b 41bc 470f 043e 6159 1dbc
00000080: e93c 903d 5bde 41be ba34 dbbb 6689 143e
00000090: 4940 003e 33e1 10be be29 7dbd 633b 12bd
000000a0: a728 073e f7df 043e a6c5 41bd c0d9 7c3d
000000b0: ca88 9abd 4cd4 f9bc 23f4 1dbd 26b6 98bd
000000c0: a1c8 593d 783a b3bd 34c8 cebd 5d85 613c
000000d0: f261 c8bb d04a 3e3b 55a1 a93b 0652 d4bd
000000e0: 4859 fb3c 33b1 0b3d 7f6c a13d e75b 203d
000000f0: 7e3d a93c c9b1 c4bd e333 81be 1c8d 83bc
00000100: 5e7f f1bd 4046 b93d d454 953c bc5d 763b
00000110: 95c5 803d 84bc 2b3c dbe2 8a3d fe1c 1abe
00000120: 455f 833b 9310 d9bd 5f06 ec3d f473 7b3c
00000130: 56a8 db3d ecc2 733d ddeb 513d 8e7f 9bbd
00000140: 0ed7 c5bd 2d1a a93d 9a1b 5bbd 8d2f 063d
00000150: 8f60 10be 3566 17bd f8e7 11be 9e9c b13d
00000160: 5cac a13d 194f dabc 5578 e43d eda1 b5bd
00000170: 3f12 93bd 5132 83bc f4e4 ca3b 3167 08be
00000180: 5813 eb3d 4c51 553d bc43 29bd e461 87bc
00000190: a675 133e 59d6 e03d 0e8b 7c3e d5dd 963b
000001a0: b1cc 1e3d aa7b 2dbd 69ed b7bc 5f87 34be
000001b0: 1f0c 0a3e e51e 2c3e 19e8 353e 303a 05be
000001c0: ef5e 373d c7af 143d 675c df3c bf90 e8bd
000001d0: 2acd 813e 0d46 dbbc c473 953d 1b57 9a3e
000001e0: 4cc8 7a3d 376f 17be 555a aabd 0acc 93bd
000001f0: 11c4 b4bc c702 143e dc1a 1ebe ba0a 223e
00000200: dab7 a43d 9c9f 373d c308 453d ce11 723d
00000210: 706b 2e3d c535 943d b239 623d dc73 eabd
00000220: e6b3 afbd 0cc7 513e ba05 17bd 8f9a 7ebb
00000230: 370f 753d 227f 86bd 6c62 aabd 6f8b 6ebd
00000240: a2f5 373e 9d42 bd3d f6c9 b9bd ac98 633d
00000250: ed33 073a ee28 093d 25e0 963d 3dbc 153e
00000260: a638 1cbe bbe0 613e d04e 60bd 6e29 473e
00000270: cba4 543d c693 cfbc 9124 1bbe 0a62 503d
00000280: fede 983d 6dbe 673b a010 e33d de62 08be
00000290: 05ae 793d 2b24 2a3e e452 003d c0f3 523d
000002a0: a0a9 373e 64b0 d53c 7ad0 eabb 50e0 4dbd
000002b0: 9fad 13bd 4965 1bbd 392f 08bc 4845 503d
000002c0: a602 06be 659c bbbd f7e7 4bbe 0716 7b3e
000002d0: 0275 ff3d 9052 463d dfc6 38be ddcc 48bd
000002e0: 0314 a3bd 1a9d 49bd 7c42 14be e5c5 eabc
000002f0: f295 61be c8eb dbbd bdcf 7bbd d140 1a3d
00000300: 2dbb 913c 23ba 013e f3a8 26bd 3934 b4bd
00000310: edf0 dbbd 7aca 013e 55e0 183b 0d9f c23b
00000320: bcbc 1c3e b541 c8bd 58d0 133e 1d73 95bd
00000330: cbc5 033e ef3e 66bd cc53 963d 9721 e6bd
00000340: 847c 7bbc 8915 c4bc 5049 29be cd49 033d
00000350: d9a9 ad3d 6dc5 1dbe 98d6 653d c56f 10be
00000360: 51eb a33d 02a5 073e 895a 0b3e f6ca c6bd
00000370: ad0f 80be 1e9f aebc 5bc0 5a3e ee20 553d
00000380: 1a92 b13d 9aee 96bd 0abd 50bd 88c3 043e
00000390: 6ae0 033b 867b 9c3d 6411 2a3e 23e0 003c
000003a0: 4659 763d dd0c b13d 4d6c 3c3d 16a3 f63c
000003b0: c989 4c3d 8ad2 f4bc 9850 53bd a693 003e
000003c0: 729a 93bd 8412 093e 1f70 cdbd 8cc3 a6bd
000003d0: 3c0c acbd e39b 903d 92d2 f93d f969 0dbe
000003e0: 5aef ff3b dc17 37bd b575 003e 2a64 cdba
000003f0: 24fe 5a3a 24f7 ee3c 0780 f3bd 537b 433e

bias_ih_l0 f4 [50]
0.07390117 0.036511805 0.036545344 0.025117604 0.11455156 0.09527163 0.0028976032 -0.09508725
0.16139126 0.05946154 -0.01892318 -0.16388376 0.090956956 0.0036426669 0.1286193 0.04573823
0.14538896 0.073835894 0.13282238 0.012468619 -0.041795824 0.026591578 -0.12291166 -0.066584624
0.107831754 -0.15001518 0.027883692 0.17480358 0.19286573 0.06992312 0.07202279 0.11244349
-0.021215942 -0.06428552 -0.13062735 -0.09824072 0.0117269 0.15712066 -0.15494466 0.08848544
0.008572674 -0.109058544 -0.04869318 0.110772416 0.05573047 0.001463715 0.1385127 -0.064516194
0.026652342 0.013885452
00000000: 7f59 973d 678d 153d 92b0 153d 6fc3 cd3c
00000010: 029a ea3d c61d c33d b7e5 3d3b 1bbd c2bd
00000020: c043 253e f28d 733d c904 9bbc 25d1 27be
00000030: a447 ba3d cfb9 6e3b c7b4 033e 0358 3b3d
00000040: d8e0 143e 4637 973d 9702 083e 2e49 4c3c
00000050: 1932 2bbd 95d6 d93c 1cb9 fbbd 855d 88bd
00000060: e5d6 dc3d 949d 19be 576c e43c b6ff 323e
00000070: 987e 453e da33 8f3d af80 933d c648 e63d
00000080: 0ecd adbc 20a8 83bd 2dc3 05be 6e32 c9bd
00000090: 2f22 403c 3de4 203e d0a9 1ebe db37 b53d
000000a0: 6774 0c3c 165a dfbd 8072 47bd a6dc e23d
000000b0: a245 643d 20da bf3a 46d6 0d3e 1121 84bd
000000c0: 0356 da3c cf7f 633c

bias_hh_l0 f4 [50]
0.05194063 -0.009070026 0.094398744 -0.032280058 0.10301419 0.11063455 0.05273222 -0.037082642
-0.007240587 -0.027879696 -0.06280383 0.05884106 -0.076817594 -0.09421678 -0.06914378 0.039341595
0.09854316 -0.061392825 0.067776196 0.035885293 -0.086326934 0.00920901 -0.03969282 -0.08380653
-0.08947192 -0.04192414 -0.022813078 0.15842849 -0.077111125 0.05897508 0.07889854 -0.080145136
-0.0309921 0.08723395 -0.16892771 -0.13809323 -0.026963085 -0.08171738 -0.14061145 -0.1756222
-0.012359946 -0.091682665 -0.1347658 0.12747212 -0.013226118 -0.14950092 0.19921602 -0.14033726
-0.03717462 -0.06602291
00000000: b3bf 543d 729a 14bc 2154 c13d 1838 04bd
00000010: 1bf9 d23d 5e94 e23d befd 573d f8e3 17bd
00000020: 7242 edbb f663 e4bc 4b9f 80bd 5303 713d
00000030: 8b52 9dbd baf4 c0bd 419b 8dbd a724 213d
00000040: ffd0 c93d 0b77 7bbd 3fce 8a3d 75fc 123d
00000050: 2dcc b0bd 63e1 163c f094 22bd c2a2 abbd
00000060: 0e3d b7bd a6b8 2bbd 7ee2 babc 143b 223e
00000070: 70ec 9dbd da8f 713d 8f95 a13d 2223 a4bd
00000080: 25e3 fdbc b7a7 b23d 63fb 2cbe 5068 0dbe
00000090: b0e1 dcbc 715b a7bd 73fc 0fbe 4ed6 33be
000000a0: 5f81 4abc 1fc4 bbbd 0c00 0abe 0d88 023e
000000b0: 5cb2 58bc c516 19be 49ff 4b3e 92b4 0fbe
000000c0: 6a44 18bd 0537 87bd

weight_ih_l1 f4 [50, 50]
-0.009904574 -0.15314908 -0.058624096 -0.027313797 -0.109317936 -0.19168687 -0.13912596 -0.007736819
-0.15487492 -0.0828264 -0.17269538 0.123077564 -0.07381651 -0.11044656 -0.09180296 -0.045812555
0.04287572 0.004361056 -0.07195637 -0.046193022 0.048885718 -0.049362384 0.12133216 0.14885737
-0.09096401 0.16276473 0.13301253 0.029857118 0.0521282 0.03763385 -0.06397211 -0.022935648
-0.10823534 -0.1575285 0.14052443 -0.018356722 -0.06181494 -0.08673739 0.09389536 -0.027128583
0.012525001 0.11296697 -0.08073559 -0.09693282 0.047479447 0.050036512 -0.08373898 -0.060091138
-0.09006946 -0.00861398 0.09148959 0.04993465 0.15625839 -0.054871738 0.013829479 0.18869655
0.10058973 0.10167282 -0.030190498 -0.2381177 0.05196677 0.1348973 -0.037984952 0.017520458
-0.0634979 -0.07307578 0.043782726 0.028493725 -0.15494907 0.011780256 -0.11839997 -0.03241328
0.14582211 -0.050585736 0.19136176 0.11010653 -0.12294645 0.08708713 -0.0056585064 -0.31587988
-0.09378229 0.20131025 -0.097207315 0.23349354 0.0014317066 -0.112664975 -0.16187255 -0.12299915
-0.09982362 0.019336157 -0.18907174 0.0016929454 0.039411552 -0.04027323 -0.04664825 -0.10404093
0.0075861025 -0.08175124 0.09921983 -0.2637674 0.15296517 -0.06903988 0.11138246 0.04950336
-0.095378496 0.1381366 0.08551052 0.023787914 0.07192402 -0.09836041 -0.14721286 0.08181035
0.092392765 -0.14735238 -0.06728136 -0.063597165 -0.043302845 0.014675522 0.12985894 0.10257618
-0.012571839 -0.037370604 -0.01500449 -0.052174404 0.14957327 -0.22002919 -0.026501732 0.039776072
0.11506979 0.16761234 0.15356442 -0.028207075 0.05346344 -0.13530791 0.040679596 0.08185223
0.042084605 0.11324093 -0.1244278 0.056243103 -0.13285987 -0.11485403 -0.048707332 0.16950993
0.0696634 -0.03250111 -0.10942963 -0.06293023 0.07672939 0.010163604 -0.018815218 -0.05567337
-0.02738577 -0.0906074 -0.10930076 0.005461917 -0.06847956 0.07939927 -0.051704187 -0.059185162
0.120516546 0.123166025 0.021002358 0.09395832 -0.044585675 -0.20584548 -0.11220631 0.16196106
0.096732035 0.09178684 -0.12399333 0.028144328 -0.052821994 -0.026086265 0.048651557 0.00017888701
0.007699155 -0.00943739 -0.10382445 0.052791167 0.09195326 -0.020148767 0.07366965 -0.12638277
0.062142987 -0.08814453 0.11905355 -0.10317462 0.012145791 0.11498375 -0.036379393 0.090161406
0.059592135 -0.11660378 -0.13503432 -0.103002265 -0.07798513 0.04892605 0.026339088 -0.07981949
-0.15797289 0.017313436 -0.06083998 -0.020733813 -0.098193206 -0.09216704 -0.046745963 0.08491094
-0.03285131 -0.036382344 0.11282149 0.117098756 0.018313574 0.1726732 -0.051207524 0.100628056
0.005867555 0.013809807 -0.028148709 -0.10636237 0.021688936 0.0912827 0.013007285 -0.016370602
-0.06644511 0.036630914 0.08233336 -0.08408108 -0.04545896 -0.021061255 -0.1514475 0.04874828
0.0055515 0.030408408 0.026429866 0.024144068 0.062258698 0.0998634 -0.085521616 0.08847929
0.0022954457 0.05760693 -0.06534842 -0.14139609 0.12126937 0.061965663 -0.02600714 0.043444615
-0.002006904 -0.04826063 -0.032757424 0.005799203 -0.17035317 -0.052364137 -0.18977971 0.051219147
00000000: cb46 22bc 1dd3 1cbe d21f 70bd 2fc1 dfbc
00000010: 15e2 dfbd 9049 44be 0977 0ebe 2485 fdbb
00000020: 8897 1ebe e3a0 a9bd 0fd7 30be 1710 fc3d
00000030: 1c2d 97bd ce31 e2bd 3103 bcbd f2a5 3bbd
00000040: 739e 2f3d 30e7 8e3b dc5d 93bd e534 3dbd
00000050: 643c 483d 3630 4abd ff7c f83d 116e 183e
00000060: 574b babd ccab 263e 7034 083e ea96 f43c
00000070: 6184 553d f425 1a3d cf03 83bd 8ae3 bbbc
00000080: 7daa ddbd 274f 21be a3e5 0f3e d660 96bc
00000090: aa31 7dbd 5fa3 b1bd 364c c03d c33c debc
000000a0: a935 4d3c 3a5b e73d b358 a5bd b784 c6bd
000000b0: cf79 423d 16f3 4c3d 587f abbd 2022 76bd
000000c0: 5676 b8bd a721 0dbc e55e bb3d 4788 4c3d
000000d0: 3302 203e 30c1 60bd 0a95 623c ab39 413e
000000e0: fd01 ce3d d739 d03d 1052 f7bc 20d5 73be
000000f0: 1cdb 543d 8522 0a3e 1c96 1bbd 1087 8f3c
00000100: 300b 82bd c1a8 95bd 8455 333d ac6b e93c
00000110: f8aa 1ebe fa01 413c af7b f2bd cac3 04bd
00000120: 6452 153e fd32 4fbd 56f4 433e 887f e13d
00000130: 59cb fbbd bd5a b23d fe6a b9bb 02bb a1be
00000140: ee10 c0bd 4624 4e3e a114 c7bd ee18 6f3e
00000150: 1aa8 bb3a e5bc e6bd ebc1 25be fae6 fbbd
00000160: 5370 ccbd dc66 9e3c 069c 41be d2e5 dd3a
00000170: 026e 213d 8bf5 24bd 3c12 3fbd 6913 d5bd
00000180: d794 f83b 326d a7bd c433 cb3d 850c 87be
00000190: e7a2 1c3e c864 8dbd 7d1c e43d 09c4 4a3d
000001a0: cd55 c3bd ae73 0d3e 2420 af3d dfde c23c
000001b0: e74c 933d 2f71 c9bd f8be 16be 2f8c a73d
000001c0: 6b38 bd3d 8be3 16be cfca 89bd 3b3f 82bd
000001d0: 535e 31bd 9a71 703c bef9 043e 7613 d23d
000001e0: 1dfa 4dbc eb11 19bd 64d5 75bc d4b4 55bd
000001f0: bc29 193e 554f 61be 291a d9bc 3cec 223d
00000200: b6a9 eb3d 92a2 2b3e fe3f 1d3e 8612 e7bc
00000210: 7bfc 5a3d 288e 0abe a69f 263d 24a2 a73d
00000220: e860 2c3d dcea e73d 01d4 febd 2b5f 663d
00000230: 6b0c 08be 9738 ebbd 5781 47bd 0394 2d3e
00000240: afab 8e3d e21f 05bd a41c e0bd 90e1 80bd
00000250: 4c24 9d3d 3f85 263c 5f22 9abc c209 64bd
00000260: 1f58 e0bc 5f90 b9bd 14d9 dfbd e1f9 b23b
00000270: 033f 8cbd 169c a23d c5c7 53bd 246c 72bd
00000280: 61d1 f63d 783e fc3d 230d ac3c 386d c03d
00000290: 789f 36bd 28c9 52be 6ccc e5bd 1fd9 253e
000002a0: 721b c63d bdfa bb3d 37f0 fdbd ef8e e63c
000002b0: e05b 58bd ddb2 d5bc db46 473d 9e93 3b39
000002c0: 3149 fc3b 489f 1abc eaa1 d4bd 8d3b 583d
000002d0: fe51 bc3d 070f a5bc 1de0 963d 7c6a 01be
000002e0: a589 7e3d 1f85 b4bd 59d2 f33d 374d d3bd
000002f0: 24ff 463c 9a7c eb3d 8f02 15bd 8ba6 b83d
00000300: e216 743d f6cd eebd 7046 0abe daf2 d2bd
00000310: abb6 9fbd af66 483d 12c5 d73c 6778 a3bd
00000320: a5c3 21be e8d4 8d3c 5833 79bd f5d9 a9bc
00000330: 8519 c9bd 13c2 bcbd b278 3fbd c9e5 ad3d
00000340: 188f 06bd a705 15bd f40e e73d 79d1 ef3d
00000350: 5906 963c 3ed1 303e fbbe 51bd 1516 ce3d
00000360: 9e44 c03b 8742 623c 1f98 e6bc 84d4 d9bd
00000370: ffac b13c 6df2 ba3d 821c 553c a41b 86bc
00000380: 6014 88bd 4c0a 163d 659e a83d b432 acbd
00000390: 2d33 3abd a788 acbc 0e15 1bbe 47ac 473d
000003a0: 5be9 b53b 0e1b f93c 7283 d83c c8c9 c53c
000003b0: fa02 7f3d 2f85 cc3d f525 afbd a134 b53d
000003c0: 306f 163b 3ff5 6b3d 64d5 85bd 23ca 10be
000003d0: 135c f83d b5cf 7d3d ed0c d5bc fbf2 313d
000003e0: 4386 03bb f0ac 45bd a62c 06bd 3e07 be3b
000003f0: 1071 2ebe c77b 56bd 9d55 42be 2bcb 513d

weight_hh_l1 f4 [50, 50]
-0.086422615 0.11029667 -0.042648416 0.04515885 0.06461876 -0.073657185 -0.013115726 -0.034190994
-0.05287512 0.044184174 -0.08097843 0.14118968 0.14144015 0.052455954 0.041535158 0.13609125
0.061973386 -0.00819093 0.11325524 0.090440296 -0.07108352 0.15824671 0.005578722 -0.012211583
-0.10817289 -0.062746726 -0.003509626 -0.015244699 -0.027984185 -0.0970102 -0.026711144 0.09105823
0.08502105 0.13886553 0.08786854 0.06512761 -0.053070422 0.09483254 -0.06576955 -0.09687331
0.035092656 0.0045058285 -0.14264919 0.10268926 -0.12374074 -0.042389035 0.047758307 -0.0069230283
0.085800625 -0.043097172 0.0804164 0.025146754 -0.044270605 0.13067763 0.070638716 -0.12719847
0.002428747 -0.015058621 -0.035616357 -0.07403968 0.047874827 -0.06280491 -0.011801065 -0.065299705
0.11279642 -0.10056376 -0.1109129 -0.07838096 -0.083402716 0.11130817 -0.13019645 0.024603333
0.06680359 0.023980351 -0.060292754 -0.00063566485 -0.13247177 0.0013776937 -0.06049778 0.15313837
-0.031775206 -0.012355313 -0.11261203 -0.059186246 0.09319357 -0.13790676 -0.14453404 -0.04375097
0.02097148 -0.031664714 -0.10619139 -0.06603753 -0.0168025 -0.097216144 0.0794849 -0.11983516
0.15593159 0.11752162 0.04358355 -0.05840231 -0.04654148 0.14980493 0.14533626 -0.031328995
-0.018165039 -0.06975 0.08027832 0.1131671 -0.11978188 -0.11833123 -0.011905275 0.101035856
-0.12826647 -0.012334886 -0.11352733 0.10038797 0.019194093 0.05137413 0.022653125 0.115585946
-0.1012664 0.00010971648 0.027016848 -0.037650995 -0.10381633 -0.06090876 0.12185914 -0.06367065
0.11585164 -0.14808407 0.15433182 0.0037064967 -0.10068436 -0.017608939 -0.099186815 -0.12100715
0.10578949 0.07196411 0.11646592 0.10443707 -0.051258933 0.11777063 0.07248272 0.07277991
0.0016131371 0.02773128 0.063131645 0.07861896 -0.1634498 -0.08369274 0.068656504 -0.02720541
0.005102302 0.13817939 0.06989145 0.03112226 0.03270525 -0.06740096 0.017920274 0.05422601
0.06112626 0.02213186 0.07864906 -0.038590264 -0.07118806 -0.06446623 0.15120943 0.15989998
0.15993096 -0.16617076 0.023975594 -0.062475428 -0.0348178 0.017513445 -0.023671627 -0.13952824
-0.15263942 -0.07624494 -0.0013130053 -0.046643957 0.13248716 0.04786033 0.032144528 -0.047335558
-0.011747971 0.046080116 -0.022178806 -0.0005403302 0.0002055234 0.009749025 0.08260821 -0.07854467
0.095557764 0.09346818 -0.11139062 0.007289505 -0.03796247 -0.01825002 -0.015606117 -0.059676845
-0.07173742 -0.057334237 -0.035611358 0.1336277 0.0322475 0.037473835 -0.14143853 -0.09501336
0.15465364 0.0012131466 -0.099222094 -0.011739803 -0.09701525 -0.021485189 0.011417158 -0.09542295
0.012915139 0.018010464 0.07156145 -0.11556308 -0.11822448 0.09214452 0.066824414 0.036972605
-0.07259046 -0.03967611 0.06586194 0.00902721 0.007052218 -0.039910942 -0.04953158 0.031716056
0.028226834 -0.030637654 -0.030566873 0.14365982 0.05667878 -0.022338022 0.09579979 -0.0974653
0.061444584 0.053939737 0.037559893 0.015436938 0.09310682 0.10283696 0.025173783 0.12342545
0.15704253 0.010777963 0.034000084 0.09979903 0.010783655 0.038362745 0.06730936 0.09839708
00000000: 57fe b0bd 38e3 e13d 1bb0 2ebd 7cf8 383d
00000010: d756 843d 94d9 96bd 58e3 56bc db0b 0cbd
00000020: 9593 58bd 77fa 343d 05d8 a5bd 0794 103e
00000030: b0d5 103e 0edc 563d c520 2a3d 815b 0b3e
00000040: ced7 7d3d 4033 06bc 5df2 e73d c338 b93d
00000050: 3d94 91bd 6d0b 223e b6cd b63b 1713 48bc
00000060: c089 ddbd 5b81 80bd c101 66bb e7c4 79bc
00000070: 173f e5bc 49ad c6bd 54d1 dabc bd7c ba3d
00000080: 841f ae3d c432 0e3e 6cf4 b33d a061 853d
00000090: 5f60 59bd 9037 c23d 30b2 86bd 8465 c6bd
000000a0: 51bd 0f3d a1a5 933b a112 12be bf4e d23d
000000b0: c96b fdbd 20a0 2dbd 379e 433d 92da e2bb
000000c0: 3db8 af3d a986 30bd 5bb1 a43d 9100 ce3c
000000d0: 1855 35bd 5bd0 053e 08ab 903d 5140 02be
000000e0: 9d2b 1f3b 6fb8 76bc 75e2 11bd 1ea2 97bd
000000f0: 6518 443d dc9f 80bd 4159 41bc dabb 85bd
00000100: cf01 e73d 5ff4 cdbd 4d26 e3bd 3286 a0bd
00000110: 0bcf aabd 8af5 e33d 3852 05be ee8c c93c
00000120: 52d0 883d 7172 c43c 89f5 76bd bfa2 26ba
00000130: aea6 07be bb93 b43a 85cc 77bd 4ed0 1c3e
00000140: b826 02bd f06d 4abc 23a1 e6bd 476d 72bd
00000150: 45dc be3d 6e37 0dbe bb00 14be 3834 33bd
00000160: 62cc ab3c dcb2 01bd df7a d9bd af3e 87bd
00000170: 65a5 89bc 4219 c7bd fbc8 a23d 236c f5bd
00000180: 88ac 1f3e 2daf f03d aa84 323d 4337 6fbd
00000190: 47a2 3ebd 7766 193e 07d3 143e d552 00bd
000001a0: d9ce 94bc 17d9 8ebd f668 a43d 27c4 e73d
000001b0: 3450 f5bd a557 f2bd 580e 43bc e3eb ce3d
000001c0: 4958 03be 4318 4abc 0481 e8bd 3598 cd3d
000001d0: ee3c 9d3c ae6d 523d 0c93 b93c 53b8 ec3d
000001e0: c264 cfbd 9617 e638 7052 dd3c ee37 1abd
000001f0: a89d d4bd 777b 79bd 4991 f93d c265 82bd
00000200: a043 ed3d 5aa3 17be 2909 1e3e b2e8 723b
00000210: 9a33 cebd 9f40 90bc 7522 cbbd 99d2 f7bd
00000220: 29a8 d83d eb61 933d af85 ee3d 1ae3 d53d
00000230: e3f4 51bd ba31 f13d d271 943d a20d 953d
00000240: e66f d33a b62c e33c 2a4b 813d fa02 a13d
00000250: 625f 27be 1967 abbd c89b 8c3d e1dd debc
00000260: 3631 a73b e67e 0d3e 4023 8f3d 1cf4 fe3c
00000270: f1f5 053d 8409 8abd 8acd 923c 181c 5e3d
00000280: 875f 7a3d e04d b53c c212 a13d d310 1ebd
00000290: 0ccb 91bd df06 84bd a5d6 1a3e d2bc 233e
000002a0: f1c4 233e ab28 2abe 7768 c43c 3ce6 7fbd
000002b0: 1c9d 0ebd 5b78 8f3c 00eb c1bc 7ee0 0ebe
000002c0: 824d 1cbe 4f26 9cbd 2619 acba bc0d 3fbd
000002d0: b7aa 073e 3209 443d fba9 033d eee2 41bd
000002e0: 907a 40bc 81be 3c3d 54b0 b5bc f2a4 0dba
000002f0: c581 5739 60ba 1f3c 7e2e a93d 07dc a0bd
00000300: cab3 c33d 3f6c bf3d c420 e4bd cddc ee3b
00000310: 897e 1bbd 1181 95bc cdb0 7fbc b56f 74bd
00000320: 12eb 92bd 4ed7 6abd 37dd 11bd b3d5 083e
00000330: f415 043d 2a7e 193d 43d5 10be 5d96 c2bd
00000340: 865d 1e3e 7202 9f3a f434 cbbd 4d58 40bc
00000350: eeaf c6bd b501 b0bc 080f 3b3c 1c6d c3bd
00000360: 059a 533c ae8a 933c cf8e 923d 56ac ecbd
00000370: ad1f f2bd 44b6 bc3d 3ddb 883d 9670 173d
00000380: 4faa 94bd 6b83 22bd a0e2 863d dde6 133c
00000390: 4b16 e73b a879 23bd a0e1 4abd b2e8 013d
000003a0: f63b e73c d1fb fabc 6167 fabc 8f1b 133e
000003b0: 0228 683d 3afe b6bc ae32 c43d e39b c7bd
000003c0: 51ad 7b3d eaef 5c3d 67d8 193d 36eb 7c3c
000003d0: caae be3d 2f9c d23d 4039 ce3c 7bc6 fc3d
000003e0: c2cf 203e 0e96 303c ac43 0b3d 6f63 cc3d
000003f0: edad 303c 4122 1d3d 7dd9 893d 6984 c93d

bias_ih_l1 f4 [50]
-0.1157781 -0.11369756 -0.06072541 -0.000617094 -0.01616572 0.030584546 0.09592384 0.027299628
-0.15476863 0.16435705 -0.035736717 -0.095866725 0.05339149 0.1413589 0.13829362 0.100081004
-0.051340416 0.0688757 -0.080411255 0.15922967 0.12782373 -0.11909191 0.045913257 -0.10580829
0.030918088 0.059904277 0.00047126022 -0.07546737 0.11655732 0.11872684 0.030861083 -0.1019357
-0.14130238 0.0914477 0.08638038 -0.10795102 -0.02470105 -0.059638552 -0.01162963 0.10546907
0.047405142 -0.09300672 0.044517994 -0.08035892 -0.026334994 0.04720605 -0.11875572 0.0018609086
-0.03418271 -0.051663376
00000000: 121d edbd 44da e8bd 35bb 78bd 7ac4 21ba
00000010: f96d 84bc 718c fa3c b873 c43d 78a3 df3c
00000020: ab7b 1ebe 374d 283e aa60 12bd c655 c4bd
00000030: 09b1 5a3d 63c0 103e d89c 0d3e 45f7 cc3d
00000040: 544a 52bd b40e 8d3d a8ae a4bd 1a0d 233e
00000050: 39e4 023e 76e6 f3bd 8a0f 3c3d 04b2 d8bd
00000060: ee47 fd3c 305e 753d 7a13 f739 a38e 9abd
00000070: 9bb5 ee3d 0f27 f33d 62d0 fc3c aac3 d0bd
00000080: 92b1 10be ef48 bb3d 32e8 b03d 6d15 ddbd
00000090: db59 cabc 8e47 74bd 348a 3ebc 2b00 d83d
000000a0: e52b 423d 4f7a bebd 8058 363d 3893 a4bd
000000b0: 7cbc d7bc 225b 413d 3336 f3bd bbe9 f33a
000000c0: 2b03 0cbd fa9c 53bd

bias_hh_l1 f4 [50]
-0.08107059 -0.022535859 -0.094467156 -0.078255095 -0.1260229 -0.04921041 -0.012159062 0.101618595
-0.13607942 0.15563695 0.029132921 -0.0040054 0.040005926 0.1326712 -0.076544024 -0.069186375
-0.06461833 -0.14426348 -0.025615007 0.13193084 0.14335257 -0.11050592 0.008707578 0.111845486
0.12846348 -0.06133561 0.08877411 0.0034596235 -0.09965159 -0.060020752 -0.08326769 -0.10763571
0.0188289 -0.08154134 -0.043938205 -0.042324472 0.075578645 -0.0032814837 0.12600057 -0.054406635
-0.10985386 0.00022804058 -0.06159515 -0.01599285 -0.0593424 0.14379588 -0.13098843 -0.040443726
-0.06478227 -0.04987022
00000000: 5608 a6bd 1f9d b8bc ff77 c1bd 3544 a0bd
00000010: 260c 01be db90 49bd cd36 47bc 691d d03d
00000020: 6758 0bbe 4b5f 1f3e 2aa8 ee3c bb3f 83bb
00000030: 41dd 233d f6da 073e 1dc3 9cbd 96b1 8dbd
00000040: 9d56 84bd ceb9 13be 90d6 d1bc e118 073e
00000050: 04cb 123e ee50 e2bd 3baa 0e3c 3f0f e53d
00000060: ee8b 033e 0c3b 7bbd 33cf b53d daba 623b
00000070: 2216 ccbd 52d8 75bd 4088 aabd 1c70 dcbd
00000080: 113f 9a3c 25ff a6bd 8cf8 33bd 6d5c 2dbd
00000090: fac8 9a3d 290e 57bb 4b06 013e 7ed9 5ebd
000000a0: 10fb e0bd 2d1e 6f39 324b 7cbd 7003 83bc
000000b0: 0411 73bd 3a3f 133e d521 06be 52a8 25bd
000000c0: 91ac 84bd b744 4cbd

weight f4 [1, 50]
-0.07912442 0.072136804 0.010057446 -0.06497603 -0.025597002 -0.1462954 0.02337567 -0.09103791
-0.13979208 0.08283363 -0.10921053 -0.12692888 -0.14567967 0.09992525 0.121258594 0.033657756
0.080838546 -0.13306347 -0.15640403 0.08909718 0.0639582 -0.008610683 -0.025474114 0.14842096
0.045325972 0.13997367 0.14959453 -0.19116257 -0.0898213 0.13108937 0.07701186 -0.015288745
0.09247315 -0.022367323 -0.065120384 -0.035209548 -0.019564439 -0.058126047 0.065084696 -0.10813868
-0.13723405 0.046803627 0.13906728 -0.026311088 0.02980409 0.1551556 0.07227314 0.005617874
-0.029890332 0.073859744
00000000: fc0b a2bd 76bc 933d fcc7 243c 2712 85bd
00000010: ceb0 d1bc 76ce 15be 557e bf3c 1572 babd
00000020: a825 0fbe aea4 a93d c5a9 dfbd a5f9 01be
00000030: 0d2d 15be 9ca5 cc3d 6d56 f83d b7dc 093d
00000040: ae8e a53d ca41 08be 6128 20be 9578 b63d
00000050: 84fc 823d d213 0dbc 17af d0bc aafb 173e
00000060: baa7 393d 4255 0f3e 4f2f 193e 1fc0 43be
00000070: 3bf4 b7bd 4b3c 063e 65b8 9d3d a57d 7abc
00000080: 9062 bd3d ad3b b7bc d65d 85bd e337 10bd
00000090: 9a45 a0bc 9415 6ebd 204b 853d d077 ddbd
000000a0: 1587 0cbe 29b5 3f3d a767 0e3e 5a8a d7bc
000000b0: b527 f43c 1ce1 1e3e f103 943d 2516 b83b
000000c0: 92dc f4bc c743 973d
