Backend/SavedModels/inflation_predictor_threeinputs_model.pth (torch, 18356 bytes, 5 tensors)

weight f4 [56, 3]
0	0x3e5ed6f1	0.21761681
1	0xbf026d4e	-0.50948036
2	0x3e80bf32	0.2514587
3	0xbeccf6df	-0.40032098
4	0x3e0996ca	0.13436428
5	0x3e9a66dc	0.301566
6	0xbe84d1e3	-0.2594138
7	0xbe13c693	-0.14431219
8	0x3ed0dcb4	0.40793383
9	0xbd1abbf4	-0.037776902
10	0xbe98b6eb	-0.29827055
11	0xbec8edcf	-0.39243934
12	0xbe2b706e	-0.16742107
13	0x3deb2063	0.11480787
14	0xbec78df3	-0.38975486
15	0xbf35dd81	-0.71041113
16	0x3e8cdd9e	0.2751283
17	0xbea8fe4d	-0.33006516
18	0xbeb1f45a	-0.34756738
19	0xbed29db3	-0.4113594
20	0xbed05451	-0.40689328
21	0xbeb9c5f4	-0.3628384
22	0xbd8a5f80	-0.067564964
23	0x3f037701	0.5135346
24	0xbe120022	-0.14257863
25	0xbeb9c54d	-0.3628334
26	0x3f0d41bc	0.5517843
27	0x3e138f40	0.14410114
28	0x3e90e571	0.2830005
29	0xbf2db1f9	-0.6784969
30	0xbeab8f7f	-0.33507916
31	0x3ebe4bbd	0.3716716
32	0x3cf59c90	0.029981881
33	0xbeeb2507	-0.45926687
34	0xbd480500	-0.048832893
35	0x3e9c1d16	0.3049094
36	0x3ce5d540	0.028055787
37	0xbe8e5e76	-0.27806443
38	0x3e832246	0.25612086
39	0xbe942639	-0.28935412
40	0x3e7137bb	0.23556416
41	0x3ea6f448	0.32608247
42	0xbeafa39e	-0.34304518
43	0x3f2aa07e	0.6665114
44	0xbec7476a	-0.38921672
45	0x3e9f9ef1	0.3117595
46	0xbeb9cfa1	-0.3629122
47	0x3f25cec0	0.647686
48	0x3efc52b8	0.4928186
49	0xbf0624b7	-0.5239977
50	0xbd77f9c1	-0.06054092
51	0x3f25e518	0.64802694
52	0x3e9c76ca	0.3055938
53	0xbe8895ed	-0.26676884
54	0xbe654402	-0.22389224
55	0x3f0e160a	0.5550238
56	0xbea4c8a2	-0.3218432
57	0x3e14ca94	0.14530402
58	0x3e81db99	0.25362852
59	0xbebcfa20	-0.3690958
60	0x3e6cb62e	0.23116371
61	0xbf24f687	-0.6443867
62	0x3e6293cb	0.22126691
63	0xbe81e1bd	-0.25367537
64	0x3efd8b5d	0.49520388
65	0xbf2bc7b4	-0.671016
66	0x3e33a211	0.17542292
67	0x3ceec98d	0.029148841
68	0xbe040919	-0.12894095
69	0xbed7bac9	-0.42134693
70	0x3e854ebb	0.2603663
71	0xbea79a6d	-0.32735005
72	0xbe6623d3	-0.22474603
73	0xbeb50c85	-0.35361114
74	0xbe053d8f	-0.13011764
75	0xbebb4103	-0.36573038
76	0xbea96edc	-0.33092391
77	0x3f036c9e	0.5133761
78	0xbc7227b9	-0.014779978
79	0xbe7a03d2	-0.2441552
80	0xbe5d4e39	-0.21611871
81	0xbee9b51e	-0.45645994
82	0xbe2d86dc	-0.16945976
83	0x3eb42cd8	0.35190463
84	0xbe92f9ff	-0.28706357
85	0x3d967b38	0.07347721
86	0x3db1bcb0	0.086785674
87	0xbf13df94	-0.5776303
88	0x3edaf54a	0.42765266
89	0x3e85e633	0.2615219
90	0x3ea1873a	0.31548482
91	0x3eae3365	0.34023586
92	0xbda6657a	-0.08124824
93	0xbedf3484	-0.43594754
94	0x3e232f24	0.15935951
95	0xbe6f4c90	-0.2336905
96	0x3eca1688	0.39470315
97	0xbd428173	-0.047486734
98	0xbed5b7b4	-0.41741717
99	0x3eec6561	0.46171096
100	0x3eb41b85	0.35177246
101	0xbd0ef10c	-0.03489785
102	0xbec800e2	-0.39063174
103	0xbe9e8d0d	-0.30966988
104	0x3e0a408a	0.13501182
105	0x3f436969	0.7633272
106	0xbf020062	-0.50781834
107	0x3e02acd1	0.12761237
108	0x3e9a0150	0.30079126
109	0x3e46147a	0.19343749
110	0xbc128051	-0.008941726
111	0xbed8199a	-0.42207032
112	0xbda1e836	-0.07905619
113	0x3f004408	0.5010381
114	0xbf58ec62	-0.8473569
115	0x3e82f550	0.25577784
116	0x3d9942a3	0.07483413
117	0xbe52c771	-0.20583893
118	0x3e94aeb5	0.2903954
119	0x3e55b41b	0.20869486
120	0x3f0daf6f	0.55345815
121	0xbf245147	-0.6418652
122	0x3eff475c	0.4985913
123	0xbd6a6c43	-0.057232153
124	0xbe052729	-0.1300322
125	0xbeb7162a	-0.35759097
126	0x3ed5a7f4	0.417297
127	0x3ee81979	0.45331934
128	0xbe6af3c2	-0.22944549
129	0x3dbe2d10	0.09285939
130	0x3e8a673a	0.2703188
131	0xbe7fa517	-0.2496532
132	0xbd2b709e	-0.041855447
133	0xbd541026	-0.051773213
134	0x3ea5012c	0.32227457
135	0xbeaec404	-0.34133923
136	0xbdc5b119	-0.09652919
137	0x3eb0eb6b	0.3455461
138	0xbeb6b637	-0.35685894
139	0xbe0c95cd	-0.1372902
140	0x3edce30f	0.43141982
141	0x3bc847ae	0.0061120605
142	0xbf03957a	-0.5139996
143	0xbea3bd7f	-0.31980512
144	0x3e75d5b9	0.2400731
145	0xbda041f1	-0.07825077
146	0xbe0002c5	-0.12501056
147	0x3f0ec874	0.5577462
148	0xbee7c6f7	-0.45268986
149	0xbe90058f	-0.2812924
150	0xbadd1000	-0.001686573
151	0x3d486620	0.04892552
152	0xb9e95800	-0.00044506788
153	0xbf0f3e83	-0.5595476
154	0xbe47d4c3	-0.19514756
155	0x3ec43d76	0.3832814
156	0xbf1763bb	-0.5913655
157	0x3e5d0aa8	0.21586096
158	0x3edd4b86	0.43221682
159	0xbeef2f68	-0.46715856
160	0x3e7c4cc1	0.24638654
161	0xbe1cb9d8	-0.15305269
162	0xbedf886f	-0.43658778
163	0x3ea960c6	0.33081645
164	0xbe2d5ae9	-0.1692921
165	0x3d33fda4	0.043943062
166	0xbf0490f8	-0.51783705
167	0xbdaf56fd	-0.085615136

bias f4 [56]
0	0xbee3587a	-0.4440344
1	0xbe643c00	-0.22288513
2	0xbdeab0af	-0.11459481
3	0x3e00e411	0.12587
4	0x3eb457f0	0.3522334
5	0xbf11b2bf	-0.5691337
6	0x3eadf74d	0.33977738
7	0x3effda56	0.49971265
8	0x3e8ffb5c	0.2812146
9	0x3cc30f10	0.023810893
10	0x3cf035f3	0.0293226
11	0xbed36a18	-0.4129188
12	0xbec715d9	-0.38883856
13	0x3f1874bc	0.5955312
14	0x3d366c36	0.04453679
15	0xbf28c6e9	-0.6592851
16	0x3dd63a78	0.10460371
17	0x3f025e77	0.5092539
18	0x3d108586	0.035283588
19	0x3e79f46b	0.24409644
20	0x3cc4dd3d	0.024031276
21	0xbeb1b574	-0.3470875
22	0x3e9ac918	0.30231547
23	0x3f066551	0.52498347
24	0xbe8637a0	-0.26214314
25	0x3e148b68	0.14506304
26	0xbf28fc54	-0.6601002
27	0xbf1c88c5	-0.61146194
28	0xbef55192	-0.47913796
29	0x3e99c05b	0.30029568
30	0xbf249fca	-0.6430632
31	0xbe25b16b	-0.16180961
32	0x3cd9efff	0.026603697
33	0x3f153103	0.5827791
34	0xbf5d58fa	-0.8646389
35	0xbeb00522	-0.34378916
36	0xbd121313	-0.03566272
37	0x3f07bab9	0.5301929
38	0xbebb5a39	-0.36592272
39	0x3f1e3117	0.61793655
40	0xbedff5f6	-0.4374234
41	0xbf07026a	-0.5273806
42	0xbf2d60b7	-0.677257
43	0xbf041f4b	-0.5161025
44	0x3e206986	0.15665254
45	0x3ef09021	0.46984962
46	0x3efb4fb5	0.4908425
47	0xbf8a8051	-1.0820409
48	0xbe60632e	-0.21912834
49	0x3e00c6a5	0.12575777
50	0xbe958fe7	-0.2921135
51	0xbde29b0e	-0.110647306
52	0x3f1856b3	0.5950729
53	0xbef96828	-0.48712277
54	0x3d11bcbe	0.03558039
55	0xbf5a5368	-0.8528352

weight f4 [56, 56]
0	0x3b9c3b60	0.0047678202
1	0xbdc9a6ab	-0.098462425
2	0x3b35fb88	0.0027768333
3	0xbdbcabca	-0.09212454
4	0x3d01a02c	0.031646892
5	0xbe043bcb	-0.12913434
6	0xbd033415	-0.03203209
7	0x3b104767	0.0022015215
8	0xbd9dbeb4	-0.07702389
9	0xbe034eeb	-0.12823074
10	0xbd6ebd03	-0.058285724
11	0x3dbfa6ae	0.093579635
12	0xbc3a2ad0	-0.011362746
13	0xbdf4dffa	-0.11956783
14	0x3d08c527	0.033391144
15	0xbe2e1e11	-0.17003657
16	0xbd0a4771	-0.033759538
17	0x3de3b052	0.11117615
18	0x3d9f0406	0.07764439
19	0x3b4909b4	0.003067595
20	0xbc8d1126	-0.017220091
21	0xbdd7a86b	-0.1053017
22	0x3d9eb504	0.0774937
23	0x3d389311	0.04506213
24	0xbd515209	-0.051103625
25	0xbe2f25c6	-0.17104253
26	0xbde840ff	-0.11340522
27	0x3d73a870	0.059486806
28	0x3d6ce2ec	0.057833597
29	0xbd331370	-0.04371971
30	0xbc216e77	-0.009852997
31	0xbe2bb898	-0.16769636
32	0x3d54f856	0.051994644
33	0xbb96e590	-0.0046050027
34	0xbe721190	-0.23639512
35	0xbe17221e	-0.14759108
36	0xbd238b36	-0.039927684
37	0xbdb842d0	-0.089971185
38	0xbd39ef3c	-0.045394167
39	0xbdab6cdc	-0.08370373
40	0xbe418e4e	-0.18901941
41	0xbcf520c7	-0.029922856
42	0xbdb06983	-0.08613875
43	0xbaff6d3c	-0.001948751
44	0xbdea6b75	-0.11446277
45	0xbd8f6510	-0.07001698
46	0xbe2abd5c	-0.16673797
47	0xbe5a7783	-0.21334653
48	0xbb495480	-0.0030720532
49	0xbdcd8491	-0.10035051
50	0x3d6256e8	0.05525866
51	0xbdcee1be	-0.10101651
52	0x3cc0a09e	0.023514088
53	0xbd9e2a1a	-0.07722874
54	0xbe040ffa	-0.1289672
55	0xbd5d94d4	-0.05409701
56	0x3c52da24	0.012869392
57	0xbd5d1366	-0.053973578
58	0x3d64a972	0.05582566
59	0x3d432f43	0.047652494
60	0x3e25811b	0.16162531
61	0x3e86d383	0.26333246
62	0xbc8e9c19	-0.017408418
63	0x3d45a845	0.048256177
64	0x3bd5ea52	0.0065281773
65	0x3da9eb42	0.08296825
66	0x3d2cabfa	0.042156197
67	0xbd5f8e1a	-0.054578878
68	0x3dbb31f4	0.09140387
69	0x3e5c1256	0.2149137
70	0x3e15e407	0.14637767
71	0x3e0ca467	0.1373459
72	0xbc80a258	-0.015702412
73	0x3e34466f	0.17604993
74	0x3dbf8305	0.09351162
75	0x3dd001ff	0.10156631
76	0xbd9e7faa	-0.07739194
77	0xbeacdc6a	-0.33761913
78	0x3e0c2d14	0.13689071
79	0x3d56de2b	0.05245797
80	0xbcba832f	-0.022767631
81	0x3e18286d	0.14859171
82	0xbe9fec7d	-0.31235114
83	0xbd9f06b8	-0.077649534
84	0xbd63a000	-0.05557251
85	0x3d7bb73c	0.061454043
86	0x3d2047b5	0.039130885
87	0xbde9173a	-0.11381383
88	0x3dfab9e1	0.12242485
89	0x3e685a1d	0.22690625
90	0xbece82ef	-0.4033427
91	0xbd710164	-0.058839217
92	0xbd73eaff	-0.05955028
93	0x3e60f012	0.2196658
94	0x3e511e49	0.20421709
95	0x3d9e8665	0.077404775
96	0xbcd65e81	-0.02616811
97	0x3d63940a	0.055561103
98	0xbd8fc79b	-0.070204936
99	0xbc93adb2	-0.01802716
100	0x3c52f199	0.012874984
101	0x3dca5dfd	0.09881208
102	0x3dfd9426	0.12381773
103	0xbead4f5b	-0.33849606
104	0xbddcf437	-0.10788768
105	0x3d9b11c0	0.07571745
106	0x3dab716e	0.08371244
107	0x3d8048e5	0.062639035
108	0x3df7712a	0.12082131
109	0x3ce2bcbb	0.027677884
110	0x3e7e423c	0.24829954
111	0xbe5a4610	-0.21315789
112	0xbe229064	-0.15875393
113	0xbd27bd8c	-0.04095225
114	0xbd1cb0e4	-0.038254634
115	0x3d9a7a2d	0.075428344
116	0x3d1bbbbf	0.038020846
117	0x3e54f9c4	0.20798403
118	0x3d0ede72	0.03488011
119	0x3df0a44e	0.11750089
120	0xbde8c4ad	-0.11365638
121	0x3c0280f9	0.00796532
122	0x3db02f9a	0.08602829
123	0x3dbc853e	0.092051014
124	0xbd947412	-0.07248701
125	0x3d7f11b0	0.062272727
126	0x3e7e8e99	0.24859084
127	0x3cd20710	0.025638133
128	0xbdb12615	-0.08649842
129	0x3d80eb5f	0.062948935
130	0xbd7c428c	-0.0615869
131	0x3d4043f3	0.0469398
132	0xbe3a2b60	-0.18180609
133	0xbe955a7e	-0.29170603
134	0xbd841291	-0.06448854
135	0xbd579b31	-0.052638236
136	0xbda6ae1d	-0.08138678
137	0x3dd383ef	0.10327899
138	0xbead9a94	-0.33906996
139	0xbe4ca68c	-0.19985408
140	0x3d7f57ec	0.06233971
141	0x3e3919f3	0.18076305
142	0xbdc9e38f	-0.098578565
143	0xbe240edf	-0.16021298
144	0xbc8c37a6	-0.017116379
145	0x3de021b1	0.10943926
146	0xbea5db94	-0.32394087
147	0xbebdcf30	-0.37072134
148	0xbda84a27	-0.082172684
149	0x3d8dbf61	0.06921268
150	0x3ed84219	0.42237929
151	0xbd0a4343	-0.033755552
152	0x3b70a81a	0.003672129
153	0xbe2ea66c	-0.17055672
154	0xbda3f797	-0.080062084
155	0xbe85fa0d	-0.26167336
156	0xbd9eab6d	-0.077475406
157	0xbc06b5dd	-0.0082220705
158	0x3afb9db0	0.0019196775
159	0xbf2c64e9	-0.67341477
160	0xbe291207	-0.16510783
161	0xbe54c6b4	-0.20778924
162	0x3cdf7388	0.02727677
163	0xbdb66250	-0.0890547
164	0x3e57f5f2	0.21089914
165	0xbdec0a27	-0.11525374
166	0x3ebcf72e	0.36907333
167	0xbea5acc1	-0.32358363
168	0x3d402866	0.046913527
169	0x3dca8794	0.09889141
170	0xbd7849a6	-0.06061711
171	0x3dccc262	0.09998013
172	0x3da861e1	0.08221794
173	0x3ba56e53	0.005048552
174	0xbd18d7e9	-0.037315283
175	0xbd550511	-0.052006785
176	0xbd5a2d84	-0.053266063
177	0x3e0a101c	0.13482708
178	0xbdfd5323	-0.12369373
179	0x3d9b969c	0.07597086
180	0x3db46588	0.08808428
181	0x3d001e30	0.03127879
182	0xbd4882e1	-0.04895294
183	0xbe24feeb	-0.16112868
184	0xbd8f67cf	-0.07002222
185	0xbe26448e	-0.16237089
186	0xbe117efe	-0.142086
187	0xbd649e7a	-0.055815198
188	0x3d159ec8	0.03652838
189	0x3ee9269f	0.45537278
190	0xbd80e930	-0.06294477
191	0xbcde68c8	-0.027149573
192	0x3c5d8b04	0.013521913
193	0xbd2d1f80	-0.04226637
194	0x3e0f3cf0	0.1398809
195	0xbd7d0f0f	-0.06178194
196	0x3dde1f48	0.1084581
197	0xbe182ed0	-0.14861608
198	0xbe0422d9	-0.12903918
199	0x3d8047d7	0.06263702
200	0x3de925fc	0.11384198
201	0xbd3d9d17	-0.04629239
202	0x3ce68275	0.028138379
203	0xbe3fee11	-0.18743159
204	0x3c13cf8c	0.009021651
205	0xbdb7b3a9	-0.08969814
206	0xbe3fca54	-0.18729526
207	0x3daf2231	0.08551443
208	0x3d59ac85	0.053143043
209	0xbd4667a8	-0.048438698
210	0x3c23d5d0	0.009999707
211	0x3d15d4c9	0.03657988
212	0xbdd62d65	-0.10457877
213	0xbddf6f09	-0.1090985
214	0x3c933d3b	0.017973533
215	0x3df80574	0.12110415
216	0x3b99aad5	0.004689554
217	0x3ce1a75d	0.027545625
218	0x3c98b840	0.018642545
219	0x3c88ebf3	0.016714072
220	0x3e0324c0	0.12806988
221	0xbd54d8d9	-0.051964615
222	0x3dfec374	0.124396235
223	0xbd2e9386	-0.042621158
224	0xbd9bee27	-0.07613783
225	0xbcde9388	-0.027169958
226	0xbd18a26a	-0.037264265
227	0x3dfd98e1	0.12382675
228	0x3e1de653	0.15419893
229	0x3e3bdfb2	0.18347052
230	0xbd8849f3	-0.0665473
231	0xbcd974b2	-0.026544902
232	0x3d5ead13	0.054364275
233	0x3e465653	0.19368868
234	0xbd977e3f	-0.073971264
235	0xbde6230b	-0.11237153
236	0x3e084ba9	0.13310112
237	0x3dab1282	0.083531395
238	0x3e55c75c	0.20876831
239	0x3d3c2ac6	0.04593923
240	0x3ab13c16	0.0013521935
241	0x3d166fdb	0.036727767
242	0xbc84a39c	-0.016191296
243	0x3c82bc10	0.015958816
244	0xbda6d65b	-0.08146354
245	0xbeb11613	-0.34587154
246	0x3dc8a97a	0.0979795
247	0xbceeace8	-0.029135182
248	0xbe1e0f06	-0.15435418
249	0xbd0e60c0	-0.034760237
250	0xbeb2d9bd	-0.34931746
251	0xbe121581	-0.14266016
252	0xbd430552	-0.047612496
253	0xbc9a0535	-0.018801311
254	0x3b850a4c	0.0040600654
255	0xbd93af94	-0.07211223

bias f4 [56]
0	0xbd8d4e33	-0.06899681
1	0x3e5eae3d	0.21746154
2	0x3df4c73f	0.11952066
3	0xbc60ce6d	-0.013721091
4	0x3cdfea28	0.027333334
5	0x3e4d0b75	0.20023902
6	0xbc987104	-0.018608578
7	0xbb9ce94a	-0.0047885524
8	0x3c0497b9	0.008092814
9	0x3e2d50fa	0.16925421
10	0xbd92d4dc	-0.07169506
11	0xbb933b01	-0.004493118
12	0xbdd9cb96	-0.10634534
13	0xbe27ec37	-0.16398703
14	0xbe05aaa2	-0.13053373
15	0x3d854290	0.065068364
16	0x3d58e255	0.052950222
17	0x3e81dc4b	0.25363383
18	0xbd8ccb09	-0.068746634
19	0xbd9c2986	-0.076251075
20	0xbd8e7856	-0.06956546
21	0xbd715cba	-0.05892632
22	0xbdfdfab9	-0.12401337
23	0xbdae7e5c	-0.08520195
24	0xbe4c0222	-0.19922689
25	0x3cc8c0e1	0.024506034
26	0x3e665a29	0.22495331
27	0x3d3d38d6	0.04619678
28	0xbc2aad32	-0.01041727
29	0xbddd89bf	-0.108172886
30	0xbd223aff	-0.039607044
31	0x3d6beab6	0.057596885
32	0x3ce35753	0.0277516
33	0x3e869a05	0.26289383
34	0x3d90d412	0.07071699
35	0xbd87aaec	-0.06624398
36	0xbbd5d484	-0.006525578
37	0xbd1442ee	-0.03619664
38	0xbe21c99b	-0.15799563
39	0xbc87f0d2	-0.016594324
40	0xbdef08f4	-0.116716295
41	0xbdc161d9	-0.09442491
42	0x3e21b2a7	0.15790807
43	0x3d19cae6	0.037547015
44	0x3dec336d	0.11533246
45	0x3d1e2e84	0.03861858
46	0xbe2e8e2c	-0.17046422
47	0xbd3838e6	-0.044976138
48	0x3d830894	0.063981205
49	0x3e24b9b9	0.16086473
50	0x3cad1089	0.021126049
51	0xbe15d958	-0.14633691
52	0x3d010be1	0.03150547
53	0x3d946d2f	0.072473876
54	0x3dd7aed3	0.10531392
55	0x3daa0225	0.0830119

weight f4 [1, 56]
0	0xbc0778ba	-0.00826853
1	0x3e47162a	0.19442049
2	0x3d66d5a8	0.056356102
3	0xbc62d68c	-0.013845097
4	0x3d62f16f	0.05540603
5	0x3d2dad14	0.04240139
6	0xbd540f0e	-0.05177217
7	0x3ddbb215	0.10727326
8	0x3e0014b7	0.12507902
9	0x3dddfaec	0.10838875
10	0xbcf24470	-0.02957365
11	0xbd7314e4	-0.059346095
12	0x3da288fa	0.079362825
13	0xbd58128b	-0.05275206
14	0x3c9439f2	0.018094037
15	0x3e2fea41	0.17179205
16	0x3dfb0987	0.122576766
17	0x3e253d73	0.16136722
18	0xbd587d72	-0.05285401
19	0xbe80c9ca	-0.25153953
20	0x3cd3e2c4	0.025864966
21	0xbdb2ef62	-0.08737065
22	0xbd7f4291	-0.062319342
23	0x3ddda426	0.108223245
24	0xbde9166f	-0.11381232
25	0x3d44f85e	0.048088424
26	0x3de5283b	0.11189314
27	0xbc8931ae	-0.016747322
28	0xbf2ec334	-0.68266606
29	0xbd8a12f2	-0.06741895
30	0x3cd5e34c	0.02610936
31	0x3e009b1c	0.1255917
32	0xbda4353e	-0.08017968
33	0x3e33b47d	0.1754932
34	0x3ab2c182	0.0013637992
35	0xbd3f8ff3	-0.04676814
36	0x3d137d8b	0.0360084
37	0xbd114414	-0.035465315
38	0x3c36b7bb	0.011152203
39	0x3e25eed2	0.16204384
40	0xbd4a7d60	-0.049435973
41	0xbd4b8a4e	-0.049692445
42	0x3e064080	0.13110542
43	0xbcd268cf	-0.025684742
44	0x3dc9d9a9	0.098559685
45	0x3cce52d1	0.025185974
46	0xbd9fa4bf	-0.07795095
47	0x3e084bd5	0.13310178
48	0x3d953b87	0.072867446
49	0x3dbfe13d	0.09369133
50	0x3c6d6b86	0.014490968
51	0xbcc2c0b5	-0.02377353
52	0xbda7be86	-0.08190636
53	0x3d95bc59	0.07311315
54	0x3d78a52b	0.06070439
55	0x3e3ef6c0	0.18648815
