Backend/SavedModels/lstm_model_state_dict.pth (torch, 56252 bytes, 9 tensors)

lstm.weight_ih_l0 f4 [124, 9]
000000 24 5e fe 3f 46 90 9d 3f 91 1f 52 40 35 2a ad c0
       1.987248 1.2309654 3.2831767 -5.411402
000010 8b e3 59 be 64 da 4f 40 f6 08 2a 40 19 6c 2b 3f
       -0.21278207 3.2477045 2.656797 0.6696182
000020 dc 29 a1 c0 2b 86 a8 be 85 90 ca bd 6b c8 13 40
       -5.03636 -0.32914862 -0.09890846 2.3091075
000030 d4 1e a0 c0 06 f7 61 3f 27 ca e5 3f 09 c4 99 40
       -5.003763 0.8826755 1.7952317 4.80518
000040 bf c9 79 c0 f0 f9 18 c0 78 51 fe 3e 1c 8c 37 3f
       -3.9029386 -2.390255 0.4967153 0.71698165
000050 21 97 50 40 12 6f 80 c0 01 af 5a bf da 39 3a 40
       3.2592242 -4.0135584 -0.85423285 2.909781
000060 97 f3 58 40 e4 a5 a3 bf ee 18 33 bf 6a dd ba 3f
       3.3898675 -1.2785001 -0.69959915 1.459882
000070 34 ee 89 3f 81 ae 5b 40 21 75 05 c0 61 8a 0e bf
       1.0775819 3.4325259 -2.085274 -0.556799
000080 45 53 56 40 23 3a 72 40 f2 c7 fa bf 96 c9 49 3f
       3.3488324 3.7847984 -1.9592268 0.7882322
000090 6e 03 b6 be be e0 09 bf 72 1d 68 bf 34 22 0b c0
       -0.35549492 -0.53858554 -0.9066993 -2.1739626
0000a0 48 e3 55 3f 7e ee 78 bf 8c 2e 9b bf b7 e7 14 c0
       0.8354993 -0.9723891 -1.212358 -2.3266428
0000b0 f7 03 9a c0 e9 e8 12 3d dc e5 04 be e1 23 8a 3d
       -4.812984 0.03586665 -0.1297831 0.067451246
0000c0 0c 3c bc 3e a9 da e6 3e e2 f0 59 3e 4d 95 c1 bf
       0.36764562 0.450887 0.21283296 -1.5123688
0000d0 f8 1b 27 3f ad 1b 02 40 d2 19 44 3e c7 f5 06 bf
       0.6527705 2.0329392 0.19150475 -0.52718776
0000e0 f1 8f 8a 3f 5a 2f 5e c0 77 e9 9b be c0 9d 64 3f
       1.0825177 -3.47164 -0.30451557 0.8930321
0000f0 9b cc bd 3f d7 37 eb 3f b0 1a d4 3f 69 1c 97 3f
       1.4828066 1.8376416 1.6570644 1.1805545
000100 90 4e 58 3f b0 c6 bb 3f 59 93 91 c0 27 26 8b 3f
       0.84494877 1.467001 -4.549237 1.0871018
000110 0e c6 b4 3f 0e 6f 37 40 b8 29 1a c0 3f c5 83 bf
       1.4122941 2.8661532 -2.4087963 -1.029457
000120 01 36 0c 40 ec d2 05 40 aa 0a 0a 40 b7 f5 8f bf
       2.1907961 2.0909986 2.156901 -1.1246861
000130 37 3e 44 3f 98 83 0c 40 a3 43 fe 3f 74 87 8d bf
       0.7665743 2.1955318 1.9864391 -1.1056962
000140 b1 4d 1d c0 b5 a2 17 40 95 76 11 40 ea bc a7 40
       -2.457867 2.3693058 2.2728627 5.241811
000150 1e ba 32 c0 a4 d7 a8 3f d2 db a6 40 af cb 8a 40
       -2.7926097 1.3190808 5.2143335 4.3373637
000160 19 8f 45 c0 f0 09 25 bf 40 12 4e 3f 54 c3 c5 3f
       -3.086859 -0.6446829 0.804966 1.5450234
000170 52 e2 fd 3f 04 c6 f0 bf a3 7f 00 c0 c1 51 f3 3f
       1.9834692 -1.881043 -2.0077903 1.9009324
000180 77 29 ef 3f 5c 54 e6 be ec b4 68 c0 89 18 9a bd
       1.8684529 -0.44986236 -3.6360426 -0.07524211
000190 a3 f8 71 3d 06 f0 f5 3f bb 30 a6 c0 c3 52 9d 3f
       0.05907501 1.9213874 -5.1934485 1.2290882
0001a0 ef 89 f2 3f a7 a9 88 40 f6 e8 06 c0 72 2e e6 bf
       1.8948344 4.2707095 -2.1079688 -1.7982924
0001b0 53 f9 1e c0 4e b7 1a c0 5b 1d 02 c0 cd c3 9e 3f
       -2.4839675 -2.417438 -2.0330417 1.2403504
0001c0 24 6c 0c 40 68 49 dd bf ad f6 8d bf c1 d5 2d be
       2.1941004 -1.7288027 -1.1090904 -0.16976072
0001d0 ce 91 d5 be bf 59 84 3e 37 5c 8d 3f 1d fa 5f 3f
       -0.41712803 0.2584972 1.1043767 0.8749102
0001e0 4c 74 9d 3e e4 5b 44 40 3e 62 34 3f 78 98 06 40
       0.3075279 3.0681086 0.70462406 2.103056
0001f0 93 7b 77 c0 cd 14 5c bf 57 1a 2b 40 c0 eb 23 40
       -3.8669174 -0.8596924 2.6734827 2.561264
000200 db aa 6d 40 41 98 00 c0 cd 52 c2 be 6a 83 77 40
       3.7135532 -2.0092928 -0.37953797 3.8673959
000210 06 1e 22 40 d1 33 67 bd c5 06 bc 3f 96 e2 83 3d
       2.5330825 -0.0564459 1.4689566 0.06439702
000220 7e 97 e7 3e 2c d4 4b bf e3 41 41 40 50 ed 85 3e
       0.45232767 -0.79620624 3.0196464 0.26157618
000230 7b a6 23 bf 3c a6 98 bf f8 4f b0 bf fb e8 51 40
       -0.63925904 -1.1925731 -1.3774405 3.279845
000240 aa 6b 26 c0 96 fc 08 c0 ab 64 39 c0 1b 28 8c 3f
       -2.6003213 -2.1404166 -2.8967693 1.0949739
000250 c1 78 15 40 0e 96 32 c0 d3 3f 2b c0 53 7a ac bf
       2.3354952 -2.7904086 -2.6757705 -1.347483
000260 dc b2 e9 bf dd d1 6b c0 09 9a 9d c0 69 df 82 c0
       -1.8257709 -3.684684 -4.925053 -4.0897717
000270 81 a5 15 40 fe f7 3e 40 dd 76 85 c0 c7 44 60 c0
       2.3382266 2.9838862 -4.1707597 -3.5041978
000280 50 ea 2e 40 38 dd 3b 3e 76 0d 53 40 c3 55 44 40
       2.7330513 0.18346107 3.2976966 3.0677345
000290 98 d1 86 40 11 35 8b 40 3c 25 1c c0 b0 4a 80 40
       4.213085 4.350228 -2.4397726 4.009117
0002a0 cc af 1e 40 80 20 27 c0 0f eb 0e 40 b9 7e 23 c0
       2.4794798 -2.6113586 2.2330968 -2.5546095
0002b0 a9 57 1e c0 a3 a6 ea bf df 2c 91 c0 30 14 c2 bf
       -2.4741004 -1.8332103 -4.5367274 -1.5162411
0002c0 cd aa 08 c0 92 6e 01 bf 95 8c 31 bf 92 2c 0d c0
       -2.1354249 -0.5055934 -0.69355136 -2.2058454
0002d0 b0 3f 20 bf fc b8 94 be c4 4f c4 bf e1 48 50 be
       -0.6259718 -0.29047382 -1.5336843 -0.20340301
0002e0 b2 b9 80 bf 41 98 bb bf 01 7f 02 c0 44 27 81 bf
       -1.005667 -1.4655839 -2.0390017 -1.0090108
0002f0 48 06 83 40 32 a2 6c 3d 13 3a e4 be 84 8a 3b 3f
       4.0945168 0.05777187 -0.44575557 0.73258233
000300 b2 0b 97 c0 26 09 6a c0 20 d3 50 3f 48 6f 0a 3f
       -4.7201777 -3.6568084 0.8157215 0.5407605
000310 a4 ea 6d 40 89 42 20 3f b9 80 3f c0 9d 54 22 c0
       3.7174463 0.62601525 -2.9922316 -2.5364144
000320 08 c3 e2 bf a6 fe 04 3f 21 ba 9d 3f 65 7b f6 bf
       -1.7715769 0.5195106 1.2322427 -1.9256407
000330 0d 2d 97 be 8e 80 91 3e 95 ac 41 c0 d6 54 e3 3f
       -0.2952656 0.28418392 -3.0261586 1.7760265
000340 25 e6 07 40 13 99 dd 3f 15 2f 8f bd 95 b2 14 bf
       2.123422 1.731234 -0.06991402 -0.58084995
000350 79 f8 ce 3f 9a f9 97 3f b0 fc 95 bf 61 e3 1f 3d
       1.6169578 1.1873047 -1.1717739 0.039035205
000360 45 19 20 c0 26 0f 14 c0 b1 4e 2f c0 08 dc cf 3c
       -2.5015423 -2.3134246 -2.739178 0.025373474
000370 2e 2d cb bf ea 6e 28 c0 cd 70 24 c0 d7 ff da 3d
       -1.5873163 -2.6317697 -2.5693848 0.10693329
000380 c0 5a 96 3e 12 d7 0e 40 2a 5c fd 3f 55 78 fb 3f
       0.29366112 2.2318769 1.9793751 1.9646097
000390 73 bc 68 40 10 f5 2e 40 fc 0e e8 3f 1b 0a cc 3e
       3.636502 2.7337074 1.8129573 0.3985146
0003a0 ad 4e 87 be c6 7b b3 3f b2 85 06 bf f9 88 90 3f
       -0.26427212 1.4022148 -0.5254775 1.1291801
0003b0 10 7a 1a 40 d3 f5 ba c0 0b b5 48 3f 63 7b 17 40
       2.4137 -5.842508 0.7840125 2.366906
0003c0 6b b0 3a 40 43 45 23 bf 2c 1d 69 bf a2 5a 58 40
       2.9170177 -0.6377756 -0.9106014 3.3805318
0003d0 03 5e b6 3f ff 77 d3 3f 6d a7 8d c0 17 68 85 c0
       1.424744 1.6520995 -4.4266877 -4.1689563
0003e0 cb 28 e8 3f ed 15 09 c0 87 8b c5 40 35 24 90 3f
       1.8137449 -2.1419632 6.173282 1.126105
0003f0 83 51 57 3f 84 34 8f 3f fb 74 9a 3f 58 5f 12 c0
       0.8410875 1.1187901 1.206695 -2.2870693

lstm.weight_hh_l0 f4 [124, 31]
000000 37 33 b6 40 1c b1 8c bf 2a a0 8c 40 52 6f 94 bf
       5.693752 -1.099155 4.3945513 -1.1596472
000010 1d a2 ae be 9e 36 2b 40 90 0f 1f 40 06 6f 29 be
       -0.34108058 2.6752086 2.4853249 -0.16546258
000020 07 8e 9a bf 75 99 93 40 97 75 f9 bf b0 e8 6e c0
       -1.2074593 4.6124825 -1.948901 -3.732952
000030 bd 6d b6 3d e0 6e fc 3c 02 ab f2 3f 78 48 3c 3f
       0.0890765 0.030814588 1.8958437 0.7354808
000040 63 93 3c be de 16 aa 3f bf 7c 40 40 90 61 97 3f
       -0.18415599 1.3288229 3.007614 1.1826649
000050 a9 58 9f c0 3a 38 e0 be b0 b4 f4 3f ec 0d b3 c0
       -4.979573 -0.43792897 1.9117641 -5.5954494
000060 6d 50 63 c0 79 30 9b be 5e 13 28 40 25 42 01 41
       -3.5517838 -0.3031042 2.626182 8.078649
000070 ad ee b7 bf 21 e5 53 40 67 a3 50 c0 6b c6 b3 bf
       -1.4369713 3.31086 -3.2599733 -1.4044927
000080 13 9a 87 c0 1f 71 92 40 4b 57 13 c0 a1 5c 8f 3f
       -4.237558 4.5763087 -2.302203 1.1200143
000090 52 24 7b 3f cc 4e 08 3f 61 ad eb 3e b3 09 a2 3f
       0.98102295 0.53245234 0.46030715 1.265921
0000a0 ab 8d 1a 40 89 ea 6f bf 5c 39 2d c0 9c 9d 0c 40
       2.4148967 -0.9371725 -2.706626 2.1971197
0000b0 c4 83 fb bd f8 f1 b7 bf fa cf 00 40 21 cc 5c c0
       -0.12280992 -1.4370718 2.012694 -3.449959
0000c0 18 9c 47 3f 41 78 ee bd 38 2b 55 40 b7 49 25 c0
       0.77972555 -0.1164403 3.3307629 -2.5826242
0000d0 4f 38 89 c0 6e ce 0b 40 53 f3 01 c0 b3 78 14 be
       -4.2881236 2.1844745 -2.0304763 -0.14499168
0000e0 26 66 0b 3f 0a a5 6d 3d e2 8e 98 bf 76 24 ae bb
       0.5445274 0.05801872 -1.1918604 -0.005314405
0000f0 c7 30 1e bf 4b ad 72 3f 82 03 cc 3e 95 67 db 3e
       -0.6179318 0.94795674 0.39846426 0.42852464
000100 9a 23 ff 3f 51 e1 5b 40 97 d5 38 c0 bd 80 14 bf
       1.993274 3.4356272 -2.8880365 -0.5800894
000110 64 83 ee bf 49 ed 6c bf ec b4 d3 3d 73 02 d4 40
       -1.8633847 -0.9254957 0.103372425 6.625299
000120 b1 45 2a bf 3a de 95 bf 65 fa a9 3e d6 e1 27 3f
       -0.6651259 -1.1708443 0.33198848 0.65578973
000130 db 9c 13 40 39 08 9e 3f b9 11 ea bf 22 e0 13 3f
       2.3064487 1.2346259 -1.8286659 0.57763875
000140 00 4b ba 3f d1 86 18 c0 94 49 43 c0 76 41 93 c0
       1.4554138 -2.3832285 -3.0513659 -4.601741
000150 40 a5 75 40 e0 05 b6 c0 00 0d 10 c0 12 08 91 3f
       3.838211 -5.688217 -2.2507935 1.1330588
000160 ce 28 80 bf 9e 0d 0a c0 0d 58 50 c0 32 1b ea be
       -1.0012453 -2.1570811 -3.2553742 -0.45723873
000170 5b ff 9c c0 f2 b0 4a 3f e2 a4 b7 3f f8 08 0b bf
       -4.9061713 0.7917625 1.4347193 -0.5431056
000180 4d f1 9d 3f 93 b8 45 3f 1a fa d8 be 97 da ae 3f
       1.2339264 0.7723476 -0.42378312 1.3660458
000190 77 26 28 bf cb 29 83 be bf 0b 84 bf 8f 77 4e bd
       -0.6568369 -0.25617823 -1.0316085 -0.05040699
0001a0 99 dc 3b 40 85 91 f1 bf da 01 e6 be 27 4b 8f 3e
       2.9353392 -1.8872534 -0.44923288 0.27987024
0001b0 11 e5 61 c0 63 f1 0a 3f d4 d8 66 bf 10 be 1b c0
       -3.529606 0.54274577 -0.90174603 -2.4334755
0001c0 ef 2f 03 40 35 08 23 bf cf 7f 56 bf 52 ed 1b 3f
       2.0498006 -0.636844 -0.8378877 0.60909
0001d0 8a 08 d1 be 41 45 c9 3f 19 5b 12 40 d8 b5 8f 3e
       -0.40826827 1.572426 2.2868102 0.28068423
0001e0 80 09 75 40 ce 5b bb 3f 90 73 94 40 ed 35 a1 3e
       3.8287048 1.4637392 4.6391068 0.31486455
0001f0 2e 43 47 bf ad 2c cc 3f c0 83 e4 bf 1a 33 ed 3f
       -0.77836883 1.5951134 -1.7852707 1.853122
000200 7a 83 e9 3f a8 e7 f1 be 07 43 16 40 68 e1 83 be
       1.8243248 -0.47247052 2.347841 -0.2575791
000210 18 c4 82 be eb 07 1d c0 03 5b da 3f 2c de 12 be
       -0.25540233 -2.4536083 1.7059025 -0.14342564
000220 43 84 e1 bf 6a 63 39 40 d9 2b 01 bf b1 67 14 c0
       -1.7618488 2.8966928 -0.5045753 -2.3188288
000230 e5 67 d2 3f fe 9f e9 bf 92 6b 03 3f 82 9c 4f c0
       1.6437956 -1.8251951 0.51336014 -3.2439275
000240 9f 96 2b c0 81 0e fe 3f 1c 87 eb be ea 75 86 bf
       -2.6810682 1.9848176 -0.46001518 -1.0504735
000250 f8 0b 42 bf f3 b6 21 c0 86 f3 77 40 ac a2 ab 3e
       -0.7579951 -2.5267913 3.8742385 0.33522546
000260 cc 89 cb 3e 26 cc 72 3f fe 73 69 40 23 84 0a 3e
       0.39753568 0.94842756 3.6477046 0.13526969
000270 3e 00 03 40 bf b5 81 be 99 e3 7b bf a8 45 bd 3f
       2.0468898 -0.25333974 -0.9839416 1.4786882
000280 87 c7 49 c0 22 e3 75 40 3e 31 cb bf 86 25 2b c0
       -3.1528032 3.841988 -1.5874403 -2.6741652
000290 78 6f 46 bf 4a 14 f4 3e 8f 4f 87 3f 40 28 44 c0
       -0.7751384 0.4767173 1.0571154 -3.0649567
0002a0 4e 4e 2a c0 59 68 e7 bf ab dc 73 bf 2f 58 8d 40
       -2.6610293 -1.8078719 -0.9525859 4.4170146
0002b0 77 c2 0b c0 a0 2a 66 c0 bd 39 50 c0 5d 38 92 40
       -2.1837442 -3.5963516 -3.253524 4.5693803
0002c0 94 5a 29 40 53 c9 00 40 a2 c9 c1 3f d6 a4 b3 3e
       2.6461535 2.0122879 1.5139658 0.35086697
0002d0 0b 87 a2 40 9b 2a 81 3f 3e e8 09 3f 41 d1 8b bf
       5.0789847 1.0091127 0.5387 -1.0923234
0002e0 67 88 19 c0 b3 7b 2c 40 0d 18 03 40 df 04 67 bf
       -2.3989503 2.69505 2.048343 -0.9024181
0002f0 5c ae 80 3f 0e c8 8e 3f 2c f9 ab 3e 97 af 4a 40
       1.005321 1.1154802 0.3358854 3.1669672
000300 e2 41 16 be 3d 8a 10 c0 14 19 12 c0 56 4d 4c 40
       -0.1467357 -2.2584374 -2.2827806 3.1922202
000310 94 e4 8d be 68 af 62 c0 16 43 aa bf b0 96 44 bf
       -0.27713454 -3.541956 -1.3301723 -0.7679243
000320 2c 65 f4 3f 7b 2f 65 bf c7 b5 de 3e 6e 33 33 c0
       1.9093375 -0.89525574 0.4349806 -2.800014
000330 cc ef 68 3f b4 36 18 c0 90 96 3a c0 79 4e 9e be
       0.909909 -2.3783388 -2.9154396 -0.30919245
000340 5d 4d 2a 3f fc 78 94 bf df 6b ae bf cb ed 9b 3e
       0.66524297 -1.1599422 -1.362667 0.3045486
000350 53 4c ad 40 62 2b 31 40 3e 35 4f c0 83 44 20 3f
       5.415567 2.7682729 -3.2376246 0.6260454
000360 45 9f 11 c0 4a 68 fa 3f 78 7e f1 3d c2 ff de 3e
       -2.275346 1.9563076 0.117917 0.43554503
000370 2c 07 a4 be aa 00 1c be 0c f5 fb 3e 18 c3 0b 3f
       -0.32036722 -0.15234628 0.49210393 0.54594564
000380 ce cc 54 c0 07 f1 92 3e ac b3 af 40 cf 81 3e c0
       -3.3250003 0.28699514 5.4906826 -2.976673
000390 2e 75 51 3e 86 dd ea 3f bd df de 3f d2 4f b4 3f
       0.20454857 1.8348854 1.741203 1.4086859
0003a0 77 c6 37 3e ae d4 7b c0 fd 7e 39 3e 04 a4 92 3f
       0.17946802 -3.934856 0.18114848 1.1456304
0003b0 5c 78 3a c0 c1 b9 8a c0 e8 2c 7c c0 7c c2 07 be
       -2.9135962 -4.335175 -3.9402409 -0.13257784
0003c0 ca fe cb bf 71 37 3f 3f b0 a1 1f 40 c7 0d 75 40
       -1.593713 0.7469397 2.4942436 3.828966
0003d0 40 b1 b6 c0 47 c1 c5 be 70 96 dd 3f 78 fa a7 c0
       -5.709137 -0.3862402 1.7311535 -5.249325
0003e0 73 11 0d 40 79 a3 fe 3f f9 e3 bb bf d1 1b eb 3e
       2.20419 1.9893638 -1.4678947 0.4591966
0003f0 f6 57 85 3f 33 11 ab bf 2d 22 8d 3f 82 74 0b bf
       1.0417469 -1.3364624 1.1026055 -0.5447465

lstm.bias_ih_l0 f4 [124]
000000 d2 92 21 c0 2a 80 76 c0 c9 d4 ff bf f2 f5 06 c0
       -2.5245862 -3.8515725 -1.9986812 -2.1087613
000010 4f af 96 40 49 34 22 40 4f f5 49 c0 c7 f8 21 c0
       4.7089 2.5344412 -3.1555974 -2.5308092
000020 85 8c 95 bd 9e a7 2c c0 c1 ea 22 bf cd d7 91 c0
       -0.073021926 -2.6977305 -0.63639456 -4.557593
000030 24 ae 2e be 65 95 a6 3c 0b b2 bf bf 43 d3 e2 3f
       -0.17058617 0.020334909 -1.4976209 1.7720722
000040 70 b0 1a 40 0b 54 0e c0 5a e5 9d be 06 0b 1b c0
       2.417019 -2.2238796 -0.30839044 -2.4225478
000050 30 af 91 3f 78 f2 27 40 12 70 95 c0 18 68 53 40
       1.1381588 2.624174 -4.6699305 3.3032284
000060 1f 65 ae be df 82 13 3f 25 93 13 c0 55 f2 30 40
       -0.34061524 0.5762157 -2.305856 2.7647908
000070 07 3c ab 3e db 34 25 40 02 ec 4e 40 56 c1 92 bf
       0.33444235 2.581351 3.2331548 -1.1465251
000080 c1 c4 c7 bb 16 70 3c c0 6c b0 fc bf 58 27 8a bf
       -0.006096453 -2.9443412 -1.974134 -1.0793257
000090 30 9d da 3f a8 4e 02 40 40 78 b8 bf 50 f8 8e bb
       1.707922 2.0360508 -1.4411697 -0.0043630973
0000a0 9c 42 40 40 8c ed 18 c0 95 d9 c2 3f c9 65 e5 bf
       3.0040655 -2.3894987 1.5222651 -1.7921687
0000b0 57 4f 0c c0 04 c3 55 c0 28 3b 57 bf 5c ff 7b bf
       -2.1923425 -3.3400278 -0.8407464 -0.9843652
0000c0 ce 8f 10 40 53 8e 11 c0 9f aa 5f c0 7e ae 9d 3f
       2.2587771 -2.2743118 -3.494789 1.2318876
0000d0 02 6c 41 c0 3a 28 c4 bf 29 d4 1c 40 80 0a 76 3f
       -3.0222173 -1.5324776 2.4504492 0.9610977
0000e0 91 29 cb 3f 1e fc d9 bd 27 ea 05 40 71 7d ac bf
       1.587206 -0.10643791 2.0924165 -1.3475782
0000f0 d2 16 db bf 0f e7 08 c0 00 01 40 3f 8b c7 bb bf
       -1.7116339 -2.1391027 0.75001526 -1.4670271
000100 c4 ba 84 bf d8 70 4b 3e d6 11 cf 3e 61 7e 95 bd
       -1.0369496 0.19867265 0.40443295 -0.072994955
000110 e8 09 77 3f 1b ea 19 3f ed 69 90 3e 73 d6 a2 bf
       0.9649949 0.6012284 0.28205815 -1.2721695
000120 50 48 82 bf 60 34 be 3f 9a c5 31 3f e6 5b 15 40
       -1.0178318 1.4859734 0.6944214 2.333734
000130 a4 3b 17 3c 98 e8 21 c0 21 b2 0d 40 39 0e e9 bf
       0.009230528 -2.5298214 2.2139971 -1.8207465
000140 70 a2 ec bf 1f b3 a3 bf aa 03 97 40 81 32 e4 3e
       -1.8487072 -1.2789038 4.7191973 0.4456978
000150 32 45 03 c0 2e 77 1a 40 1d 96 bf 3f 6d ad 19 c0
       -2.0510983 2.4135242 1.4967686 -2.40121
000160 f8 ce 16 40 80 15 8a be 38 0a cc 3f 3a 33 ef 3e
       2.3563824 -0.26969528 1.5940619 0.4671877
000170 bd 59 34 40 bc 6e d9 bf ba 26 d3 bf 36 cc b2 3f
       2.8179772 -1.6986918 -1.6496193 1.396857
000180 0f 11 86 c0 98 63 89 40 8e 7e b9 c0 db 9e 8c c0
       -4.1895823 4.2934074 -5.7966986 -4.3943915
000190 dd 7d a7 bf ca 77 b5 bf 99 b4 93 be 6f bc 34 c0
       -1.3085285 -1.4177182 -0.28848723 -2.824001
0001a0 e6 67 29 40 e9 41 1c 3f 2c bb 87 c0 b6 77 57 c0
       2.6469665 0.6103807 -4.241598 -3.3666816
0001b0 72 20 d3 3f f3 bd 03 40 b8 a8 2d c0 fa 55 d8 3e
       1.6494277 2.0584686 -2.7134228 0.42253095
0001c0 11 fc 07 c0 95 02 2c 40 58 f9 60 bf 31 08 b4 bf
       -2.12476 2.6876576 -0.8788047 -1.4065
0001d0 64 19 8b bf 80 bf 9b c0 a9 c9 b9 bf a7 28 01 c0
       -1.0867124 -4.8671265 -1.4514667 -2.0181062
0001e0 d8 7e 9d 40 2f 40 21 40 30 b2 c4 3e 2b ca df 3e
       4.921734 2.5195425 0.38417196 0.4370893

lstm.bias_hh_l0 f4 [124]
000000 60 35 35 c0 ed 3d 78 c0 2c ea e7 bf 7b a5 00 c0
       -2.8313828 -3.8787796 -1.8118339 -2.0101001
000010 8e a4 99 40 06 61 26 40 5c 83 45 c0 be 0c 2c c0
       4.8013372 2.5996718 -3.0861425 -2.6882777
000020 bc 0d 06 3c c5 7c 29 c0 f7 5b 13 bf 01 b0 94 c0
       0.0081819855 -2.6482403 -0.575622 -4.646485
000030 6c 9b 5f be f2 e1 af bd 82 1e be bf 46 ed eb 3f
       -0.21836632 -0.085880175 -1.485306 1.8431785
000040 07 82 27 40 d0 a5 0c c0 a2 c9 c6 be 56 f8 11 c0
       2.6173112 -2.1976204 -0.3882571 -2.2807822
000050 58 01 99 3f 79 0f 32 40 c6 2e 92 c0 d2 7e 58 40
       1.1953535 2.7821944 -4.5682096 3.3827405
000060 6e c6 9a be 3c b7 ee 3e 21 7c 1c c0 05 f9 28 40
       -0.30229515 0.46624172 -2.4450762 2.640199
000070 8a c8 0b 3f 28 39 32 40 b2 ee 51 40 d6 b7 9d bf
       0.54602873 2.7847385 3.2801938 -1.2321727
000080 a1 45 74 3d fb 00 3f c0 39 a3 e3 bf 7c 23 85 bf
       0.059636716 -2.9844348 -1.7784187 -1.0401454
000090 db d2 df 3f 6e 72 f0 3f 74 9e 95 bf bb c2 1f 3e
       1.7486223 1.8784921 -1.1688981 0.15601628
0000a0 7e ef 34 40 16 b5 26 c0 51 68 c2 3f d7 a2 ee bf
       2.8271174 -2.6048026 1.5188085 -1.8643445
0000b0 47 e3 0d c0 1c 6f 48 c0 f4 dc 3f bf 11 d8 6a bf
       -2.216997 -3.1317816 -0.7494652 -0.9173594
0000c0 ae f9 0e 40 63 4d 0c c0 91 05 50 c0 59 11 a4 3f
       2.2339892 -2.1922233 -3.2503397 1.2817794
0000d0 0b b4 3c c0 32 14 c9 bf 2d 4a 15 40 a4 25 3a 3f
       -2.948489 -1.5709288 2.3326523 0.72713685
0000e0 75 9d c5 3f f3 51 b5 3c 0e 95 10 40 19 ce d3 bf
       1.5438677 0.022133803 2.2590976 -1.6547271
0000f0 c4 a2 e3 bf 81 c5 0a c0 0e c8 54 3f 27 74 d5 bf
       -1.7784047 -2.1683047 0.8311776 -1.6676072
000100 dc 7d 67 bf e6 9a 21 3e 91 71 05 3f 7c f2 30 3b
       -0.9042642 0.15781745 0.52126414 0.0027
000110 ad 89 83 3f 52 55 3a 3f 6f e6 de 3e 9b bc a6 bf
       1.027639 0.7278644 0.43535182 -1.3026308
000120 80 c3 85 bf 7a ed c7 3f a0 50 4f 3f 16 65 20 40
       -1.0450287 1.5619347 0.809824 2.5061698
000130 dd 4f 6b be c9 77 1f c0 b3 9e 0f 40 ad e8 f5 bf
       -0.22979684 -2.491686 2.2440612 -1.9211632
000140 74 10 02 c0 0a f7 96 bf 47 03 9c 40 dd f3 d0 3e
       -2.0322542 -1.179414 4.8754 0.40811053
000150 58 62 fe bf 1a 73 1f 40 07 cf ba 3f d3 14 21 c0
       -1.9873762 2.4914002 1.459443 -2.516896
000160 d0 ce 21 40 f2 72 d9 be 38 e4 c1 3f 1c db b5 3e
       2.5282478 -0.4247051 1.5147772 0.3551873
000170 41 6f 1f 40 3c 65 c6 bf df d7 f6 bf 52 75 b0 3f
       2.4911654 -1.5499644 -1.9284629 1.3785803
000180 58 56 86 c0 5b cc 8d 40 80 53 b3 c0 3e b0 95 c0
       -4.19804 4.4311957 -5.603943 -4.677764
000190 ea 65 83 bf 6c db b1 bf 77 b7 8c be 51 dd 35 c0
       -1.0265477 -1.3895087 -0.27483723 -2.841633
0001a0 cc 89 1f 40 4a c7 f6 3e 9b 31 8c c0 b5 b8 6d c0
       2.4927855 0.4819892 -4.3810554 -3.7143986
0001b0 e0 39 bf 3f 34 cf 02 40 ec dd 30 c0 11 a2 ea 3e
       1.4939537 2.0438967 -2.763545 0.45826772
0001c0 c3 69 fc bf bb c6 1d 40 e3 24 80 bf d6 b7 bc bf
       -1.9719776 2.4652545 -1.0011257 -1.4743602
0001d0 e2 97 92 bf ee f3 a2 c0 15 a9 bc bf 0f 58 04 c0
       -1.1452601 -5.0922766 -1.47391 -2.0678747
0001e0 c7 10 9e 40 08 d8 18 40 d8 9c 0e 3f 47 72 1c 3f
       4.939548 2.3881855 0.55708075 0.61111873

lstm.weight_ih_l1 f4 [124, 31]
000000 fd b6 50 3f 8c b5 fe 3f 17 69 c0 3f 9b 86 e5 bf
       0.8152922 1.9899154 1.5032071 -1.7931703
000010 e6 52 85 3f 94 f1 73 40 d1 61 76 bf 49 41 3f 40
       1.0415924 3.8116198 -0.96243006 2.9883597
000020 fc c1 ce 3f 8e 98 1e 40 1c 4a 70 3e 5e 43 03 bf
       1.6152949 2.4780612 0.2346577 -0.5127467
000030 a7 1f 26 40 37 a4 95 3f 56 0c 44 40 7e 64 61 40
       2.595682 1.1690739 3.063253 3.5217586
000040 01 93 f7 bf d4 f5 07 40 e1 74 c7 40 76 76 60 c0
       -1.9341737 2.1243792 6.2330174 -3.5072303
000050 f1 18 e2 3e af 16 c9 bf ca ec 12 c0 c4 1e 54 be
       0.44159654 -1.5710047 -2.2957025 -0.20714861
000060 16 58 77 c0 f1 b1 51 3f 42 04 2f bf d2 ef 9d 3e
       -3.8647513 0.8191214 -0.6836587 0.3084703
000070 89 2f e8 3e 56 23 3a 3f 5c 4f 07 c0 d8 70 e2 be
       0.45348766 0.7271017 -2.1142187 -0.44226718
000080 4b 47 f4 3f d5 fa f9 bf 1f 49 1f 40 bd d9 28 be
       1.9084257 -1.9529673 2.488838 -0.1648931
000090 68 c6 06 c0 e2 ed 8e bf 15 43 e2 3f 24 27 2a 3f
       -2.1058598 -1.1166346 1.7676722 0.66465974
0000a0 df ab cf bf 37 29 3a 3f 39 15 81 3f 89 39 0a 3f
       -1.6224326 0.7271914 1.0084602 0.5399404
0000b0 47 5d 3b 3f 67 b9 88 bf b0 e9 b6 be ab fa 3e c0
       0.73189205 -1.068158 -0.35725164 -2.9840496
0000c0 8f 1f b3 bf 3b 5f bc bf fb 9c 98 c0 b6 46 0f be
       -1.3994006 -1.4716562 -4.7691627 -0.13991818
0000d0 c0 5b 3c 40 25 9b 60 bf 53 88 0b be 0c 44 dc 3f
       2.9431 -0.8773673 -0.13626222 1.7208266
0000e0 17 24 04 40 72 ba 9b bf 8d 15 d3 3f 4e 8a 73 3e
       2.0647027 -1.2166274 1.6490952 0.23783228
0000f0 88 26 0b bf 5b d0 8b bf 67 79 2a c0 1a b2 9c bf
       -0.5435567 -1.092296 -2.6636598 -1.2241852
000100 c4 93 10 3f 7b 5b 6f 40 77 7c c1 3f 79 28 12 40
       0.5647547 3.7399585 1.5116109 2.2837203
000110 4f af 44 c0 80 40 f4 3f 2c de f7 3f f3 45 16 3f
       -3.0732 1.9082184 1.9364676 0.58700484
000120 3b 64 8a 3f 2a 1d 3e 3e 4d a9 3d 40 da b6 f2 3f
       1.0811838 0.18565813 2.9634583 1.8962052
000130 0d ad 57 40 85 39 30 40 7a 19 5c bd 63 9d d8 3f
       3.3699372 2.7535107 -0.053735234 1.6923031
000140 e0 db 26 40 07 40 3f c0 9d 4a bf bf 59 a3 a4 3f
       2.60717 -2.988283 -1.4944645 1.286235
000150 d2 cc bf bf e1 96 0a c0 02 b5 3a c0 21 44 2d c0
       -1.4984381 -2.165459 -2.9172978 -2.7072833
000160 b3 4b 1e c0 f2 90 2e bf d1 40 33 be 92 5e 5e 3f
       -2.4733703 -0.6818992 -0.17505194 0.8686305
000170 5b 7f b1 bf f2 46 e9 be 51 a6 13 bf 86 78 bc 3f
       -1.3866991 -0.4556194 -0.57675654 1.4724281
000180 88 ac b2 c0 1b 84 8c bf af 66 32 be ea 5e 66 bf
       -5.583561 -1.0977815 -0.17421983 -0.8998858
000190 59 65 10 3f 94 5d 8a bd 27 54 45 40 97 a6 37 3e
       0.56404644 -0.0675613 3.0832613 0.17934643
0001a0 66 07 7e bf 12 2b 16 c0 fe bc 09 3f d9 16 d1 3f
       -0.9923004 -2.3463788 0.53804004 1.6335098
0001b0 12 7e df 3f 1c 3b 0c 40 e2 60 01 40 b5 6d 11 3f
       1.7460349 2.1911077 2.0215383 0.56808025
0001c0 8e 8a 91 3f 7d c0 60 40 6f 0e 1d c0 2f 35 cf bf
       1.1370409 3.5117486 -2.454006 -1.6188105
0001d0 a2 a2 b7 3f e4 6f f9 3b 96 30 dc 3f 2e 55 aa 3f
       1.4346507 0.0076122154 1.7202327 1.3307245
0001e0 e1 eb a4 bf 4d e4 8a c0 29 27 ad be ed 34 de be
       -1.2884485 -4.3403687 -0.3381894 -0.43399754
0001f0 e3 64 99 bf 3d cb 87 3f 9c ec 03 c0 d1 43 3a 3f
       -1.1983913 1.0608898 -2.0613165 0.7275973
000200 c4 d2 59 3f 69 ec 60 3f 89 98 22 c0 ed 22 da 3f
       0.8508723 0.87860733 -2.54056 1.7041909
000210 be 6f 2a 3d 9f 5c 14 c0 52 d1 a0 40 c8 5b 32 3f
       0.041610472 -2.3181531 5.025552 0.696713
000220 21 ad 36 c0 4d 70 6f 40 93 fb 1e 3d 20 9e 68 be
       -2.854317 3.7412293 0.03881414 -0.2271657
000230 4b cf f8 3f d7 60 a5 bf 09 85 b0 be 27 7d 37 3f
       1.9438261 -1.2920178 -0.34476498 0.7167534
000240 fa 9b e5 3f 9e dd e2 3f 1b e2 8e 3e d1 f3 21 3f
       1.7938225 1.7723882 0.2790688 0.6326266
000250 44 a1 95 bf 41 b8 54 c0 32 df 8e 3e 27 9d 0e 3f
       -1.1689839 -3.323746 0.2790466 0.55708545
000260 64 5e 92 c0 ca 0c a5 bf 08 91 22 bf ce c3 18 c0
       -4.5740223 -1.2894528 -0.6350255 -2.386951
000270 38 b2 e0 bf e2 37 8b 3f 73 ab 93 3e cd fe 78 c0
       -1.7554388 1.0876429 0.28841743 -3.8905518
000280 11 54 10 40 68 ae 00 c0 f9 4b 64 bd b3 0d 5f 3f
       2.255131 -2.010645 -0.055736516 0.8713028
000290 73 ee 64 bf 93 e2 61 be b7 98 2c 40 da 7e 8e be
       -0.89426345 -0.22059087 2.696821 -0.27831155
0002a0 7c 4d a4 3f e8 e5 76 3f 73 87 c3 3f cb 8d c9 bf
       1.2836146 0.9644456 1.5275711 -1.5746397
0002b0 d1 46 19 40 93 31 18 3f 09 9e 82 bf b5 a4 33 c0
       2.3949473 0.59450644 -1.0204479 -2.806928
0002c0 a7 d3 1d 40 f0 d5 68 3f 3c 09 ec bf c8 26 1d bf
       2.4660432 0.9095144 -1.8440318 -0.613873
0002d0 50 9d af bf dc 87 89 bf 44 22 53 40 ce 5b 36 be
       -1.3719883 -1.0744586 3.2989664 -0.17808458
0002e0 55 89 80 c0 f7 67 9f bf 81 4b 3b 3f d1 f4 14 c0
       -4.016764 -1.2453603 0.73162085 -2.3274424
0002f0 25 46 8a 3f 46 0a 88 c0 42 26 bf 3e cc 17 f3 3f
       1.0802656 -4.251254 0.37333876 1.8991637
000300 97 04 04 bf 75 f4 60 3e 3f 07 2f bf 82 22 9e 3f
       -0.51569504 0.21968253 -0.6837043 1.2354281
000310 57 15 8d 3f 23 fd 2a c0 4b ae 96 3f 1d 9a c3 be
       1.1022137 -2.6717002 1.177194 -0.38203517
000320 fa 12 02 40 87 60 29 40 e1 71 79 3e b7 a1 84 3f
       2.0324082 2.6465166 0.24359848 1.0361851
000330 e6 01 3b 40 2d d7 02 bf 41 ae 41 40 a2 34 8d bf
       2.9219909 -0.5110958 3.0262606 -1.1031687
000340 18 ec f9 bf e3 0f 89 3e 23 fd 4c c0 22 cf b5 3e
       -1.9525175 0.26769933 -3.2029502 0.35509592
000350 7d 54 66 bf 6d 01 1c c0 a4 78 a0 bf e7 46 eb 3f
       -0.8997267 -2.437587 -1.2536817 1.8381013
000360 0f 04 0e c0 88 9c 4c 3e 6e b8 16 bf 13 30 cb 3f
       -2.2189977 0.19981587 -0.5887517 1.5874046
000370 33 65 9b bf d2 a7 16 c0 03 41 a6 3f 6f b8 04 c0
       -1.2140259 -2.353993 1.298859 -2.073757
000380 ea 48 a5 3f 67 57 18 3f 9e 66 60 3e 04 5b b0 bf
       1.2912877 0.59508365 0.21914145 -1.3777776
000390 5a d6 8b be 56 28 85 3e db e6 3a 40 5d c5 a3 bf
       -0.27311975 0.26007336 2.9203403 -1.2794605
0003a0 6c b7 95 bf 2f 4a e2 3f 4c 86 59 40 6d 9a 89 be
       -1.1696601 1.7678889 3.3988218 -0.2687563
0003b0 9b fd 04 40 8f 52 ef 3f 78 19 b5 be b6 54 cd bf
       2.0779788 1.869707 -0.35370994 -1.6041477
0003c0 58 f5 ae 3e b3 e8 0c c0 dc f6 7b c0 79 a4 29 c0
       0.34171557 -2.2017028 -3.936942 -2.6506636
0003d0 a8 30 37 c0 8e 39 5a c0 11 c0 1b bf 38 27 90 bf
       -2.8623447 -3.4097629 -0.60839945 -1.1261969
0003e0 df 93 2f be 83 60 34 c0 b9 f0 29 3f 50 7f f6 3f
       -0.17146252 -2.8183906 0.6638294 1.9257603
0003f0 0a dc 29 c0 30 16 51 40 6c f9 19 c0 d0 fd 1a 3e
       -2.654055 3.2669792 -2.4058485 0.15135884

lstm.weight_hh_l1 f4 [124, 31]
000000 a3 57 c9 bf d3 4b 3c be f1 1b 07 3f f5 bc 80 3e
       -1.572987 -0.183883 0.5277701 0.25144163
000010 ed 57 5a c0 44 ba 6c be ec 1b e8 bf c5 0b db bf
       -3.4116166 -0.2311793 -1.8133521 -1.7112967
000020 8d 8d 7f 3f 96 02 ac bf 7c 62 64 bf 00 cf 8c be
       0.99825364 -1.3438289 -0.89212775 -0.27501678
000030 ae db 6f 40 89 c7 32 3f f6 74 f7 3f 48 52 bb 3e
       3.7477832 0.69835716 1.9332569 0.36586213
000040 73 c9 bb 3f 93 83 26 40 b9 f4 47 bf cb 31 6a 3b
       1.4670852 2.6017807 -0.7810779 0.0035735245
000050 dc bb 8b 3f f3 a4 2b bf 2f 9b 80 40 dd 8c fe 3f
       1.0916705 -0.6704857 4.0189433 1.9886738
000060 d6 74 5e bf 4d 4e 4a c0 6e d9 43 c0 62 01 48 3f
       -0.8689703 -3.161029 -3.0601459 0.7812711
000070 05 cf 56 3f ae a4 b7 bf 0f 37 38 c0 44 20 89 bf
       0.83909637 -1.4347131 -2.8783605 -1.0712972
000080 62 43 12 40 bc df 58 3f 7a be 25 bf 3e 8f de bf
       2.2853627 0.8471639 -0.6474377 -1.7387464
000090 76 a6 2f c0 fc 37 d1 bf 36 4d fc 3e fa a0 e3 bf
       -2.744535 -1.634521 0.49277657 -1.7783501
0000a0 03 47 2f 3f ff bb 77 3f 66 db 9b 40 b4 f5 17 40
       0.6846773 0.96771234 4.870532 2.3743715
0000b0 bb 9f 4a c0 84 00 f1 bf 3f f1 ce be e3 90 52 40
       -3.1659992 -1.8828282 -0.4041843 3.2900932
0000c0 77 cb 31 40 2e 98 70 3f 9b ff 8d bf 92 28 a7 bf
       2.7780435 0.9398221 -1.109363 -1.3059256
0000d0 9b bc 05 c0 f4 a5 a0 3f d6 d9 88 bf 52 a5 dc 3f
       -2.0896366 1.2550645 -1.0691478 1.7237952
0000e0 05 c8 ca bf 1b e1 2c c0 97 79 60 be 43 8f 9c bf
       -1.5842291 -2.7012393 -0.21921383 -1.223122
0000f0 df ef b5 3f f3 12 c7 3f 02 ae 0d c0 ca d4 30 c0
       1.4213828 1.5552658 -2.2137456 -2.7629876
000100 11 88 52 c0 38 30 6c c0 5d ff 64 c0 fa 43 4c bf
       -3.2895548 -3.690443 -3.5780861 -0.79791224
000110 39 ae 23 3f a5 13 5f c0 92 8f 3e bf 56 4d 0b be
       0.6393772 -3.485574 -0.7443782 -0.1360372
000120 ff e7 5b 40 bc e5 03 40 6f 19 0f 3f aa c8 34 be
       3.436035 2.0608969 0.55898184 -0.17654672
000130 b1 8e ad bf 5a 60 49 40 dc 06 7d 40 6e 4b 35 40
       -1.3559171 3.1465058 3.9535437 2.8327289
000140 4c 85 1d bf 2b 68 98 bd 58 16 b8 3e 42 59 51 3e
       -0.6153152 -0.074417435 0.35954547 0.20444205
000150 9e 77 0c 40 23 20 49 3e 7a c9 59 3f 5b 25 78 bf
       2.1948009 0.19641165 0.85073054 -0.96932
000160 ec e3 e5 3e 59 a6 2c 40 c4 b3 1e 3f 7d f8 13 be
       0.44900453 2.697653 0.6199305 -0.1445026
000170 15 79 b5 3f c3 a7 60 3f 7f 1b 81 c0 25 75 85 bf
       1.4177576 0.87755984 -4.0346065 -1.0426375
000180 86 f2 98 bd ba 93 ac bd 6d 24 1a bf 56 df 83 bf
       -0.07468133 -0.08426614 -0.6021183 -1.0302532
000190 3c 78 03 c0 e6 cb ab be aa 4e 99 3f 6e a9 e9 be
       -2.0542135 -0.33554 1.1977131 -0.45637077
0001a0 ee 7b 38 c0 14 46 98 3f 6d a0 d4 be 34 05 dd bf
       -2.882564 1.1896386 -0.41528645 -1.7267213
0001b0 68 e4 55 40 8a 1f d3 bf b7 8f f4 3f 7b 54 9a bf
       3.3420658 -1.6494 1.9106358 -1.2057031
0001c0 72 4a 72 bf 3f 09 15 bf 1b 01 b5 3e a5 a9 a6 bf
       -0.94644845 -0.58217233 0.35352406 -1.3020521
0001d0 f3 fd 3b c0 e3 ea 07 bf 25 01 e6 3e 45 b0 c4 be
       -2.9373748 -0.53092784 0.44922748 -0.38415733
0001e0 7a 56 8d 40 e5 2a 02 c0 2f f5 c6 3d d6 0a d2 bf
       4.416806 -2.033868 0.09714734 -1.6409557
0001f0 b4 b4 06 40 b0 5e 20 c0 d3 f5 35 bf 7d c5 13 40
       2.1047792 -2.5057793 -0.71078223 2.3089287
000200 12 81 c1 40 49 8a a5 3f 71 e3 da 3f a0 d3 c0 bf
       6.0470057 1.2932826 1.710066 -1.5064583
000210 68 21 2b 3e 0f e5 0d 40 ad 4d ef bf 7a a3 29 bf
       0.16711962 2.2171056 -1.869558 -0.6626507
000220 9d 3f c4 3f 88 0d f5 3e 64 58 56 c0 33 64 72 40
       1.5331913 0.47861886 -3.349145 3.7873657
000230 f6 d7 b3 bd f1 23 fe 3f f8 1e 0a c0 57 44 2e 3f
       -0.08781426 1.9854718 -2.1581402 0.6807303
000240 20 a5 12 c0 f3 a6 29 3f 35 ec 0d 3f 32 57 19 c0
       -2.2913284 0.6627037 0.5543855 -2.395947
000250 30 37 f7 be 69 c6 c5 bf 6e 31 ea bd 47 97 db 40
       -0.48284292 -1.5451175 -0.11435209 6.8622165
000260 57 1f 05 c0 ac c5 29 40 e5 0f 80 bf a3 17 e2 be
       -2.0800378 2.65269 -1.0004851 -0.44158658
000270 c0 74 50 c0 8e 96 c3 bf 48 53 f4 bf 43 db 2a c0
       -3.2571259 -1.5280321 -1.9087915 -2.6696327
000280 67 78 08 40 b2 da 65 bf 6d 2c 44 c0 83 89 97 bf
       2.1323488 -0.8978683 -3.0652115 -1.183884
000290 8b bb af be 23 8b 4d bf 76 84 2b 40 3b 84 22 bc
       -0.3432277 -0.8029043 2.6799598 -0.0099192215
0002a0 9b 17 ff 3e 7f ad 67 3f 9d 9a c0 be c4 b8 cc 3f
       0.49822697 0.9049911 -0.3761796 1.5993886
0002b0 20 73 2e 3d 8d 23 2e 40 95 ca 8b bf a8 ca f0 3f
       0.04259026 2.7209198 -1.0921198 1.8811846
0002c0 4d c0 26 bf 92 09 49 40 37 aa 02 40 68 a8 44 3e
       -0.6513718 3.1412091 2.041639 0.19204867
0002d0 51 e2 9e be ed 53 90 be 88 1b 40 3f 69 a1 99 3f
       -0.3103204 -0.2818903 0.7504201 1.2002383
0002e0 ae 4f da bf a6 2c aa 3f e2 5b a6 3f 49 9f 42 bf
       -1.7055566 1.3294876 1.299679 -0.760243
0002f0 7c d0 d1 bf e4 e2 2e 3f 67 32 17 be 68 a7 7e bd
       -1.6391749 0.6831496 -0.1476532 -0.06217137
000300 36 f4 03 40 3f 05 da bf 0a ae d8 3f 2a 60 d7 3f
       2.0617805 -1.7032851 1.6928113 1.6826222
000310 e9 6c b9 bf 13 eb a3 3e e7 e5 dd bf 3d f5 be 3f
       -1.4486362 0.32015285 -1.7335786 1.4918591
000320 97 a0 d3 3e 65 bc 3a 40 ea c7 10 3e b7 cf cd 3f
       0.41333458 2.9177487 0.14138761 1.6079015
000330 71 d1 04 c0 c5 bd bf 3e ea 8a 09 c0 12 36 69 3f
       -2.0752833 0.3744947 -2.1491036 0.9109813
000340 cd 14 2e bf 19 46 1e c0 b6 41 cd bf ce 93 3c 3e
       -0.6800049 -2.4730284 -1.6035678 0.18415758
000350 f6 31 0f 40 b1 81 28 3f 7d 8f 30 3f 3a a7 a9 3f
       2.2374244 0.65822893 0.68968946 1.3254158
000360 f0 82 ea bf 0c cb 5c 40 45 95 ea 3e 03 95 2a be
       -1.8321209 3.449893 0.4581701 -0.16658406
000370 6c 4f 0e c0 a6 2e 7e 3f 38 06 31 c0 7a 9e 95 3f
       -2.2235975 0.9928993 -2.7660046 1.1688988
000380 84 05 f0 bf 3d b4 48 40 7b 1d 1f 40 4a 49 85 bf
       -1.8751683 3.1360009 2.4861743 -1.0412991
000390 5b a4 1f c0 43 31 57 c0 8d 2e 61 40 82 d9 07 40
       -2.4944065 -3.3623817 3.5184662 2.1226506
0003a0 e0 1c 19 bf e4 23 70 3f b0 38 2c 40 07 90 55 c0
       -0.59809685 0.93804765 2.69096 -3.3369157
0003b0 8c f8 5e bf a6 0e 6a c0 bb 88 58 40 eb 22 49 bf
       -0.87098 -3.657144 3.3833454 -0.78568906
0003c0 16 e4 20 c0 d1 be 7f c0 f1 9a 50 c0 3c 99 b3 3f
       -2.5139213 -3.9960215 -3.2594569 1.4031138
0003d0 c4 c9 bf 3f 73 d7 2d c0 3d 6d 1a bf e6 0e 54 bf
       1.4983449 -2.716275 -0.60322934 -0.82835233
0003e0 f1 c4 14 40 a9 fb de 3f 47 f8 7e 3f ec 83 67 3f
       2.3245203 1.742055 0.9959759 0.9043567
0003f0 02 01 a2 40 92 c8 11 40 8c 64 d5 be 6d f8 02 c0
       5.062623 2.2778668 -0.41678274 -2.0464127

lstm.bias_ih_l1 f4 [124]
000000 9f ec f9 bf a5 d7 eb 3f 64 d1 26 c0 ac 4d e2 bf
       -1.9525336 1.8425184 -2.6065302 -1.7679954
000010 19 32 52 40 e3 6c 08 c0 3e f4 e5 bf e7 7b 86 c0
       3.2843077 -2.131646 -1.7965162 -4.202625
000020 23 57 0f c0 21 c9 05 c0 4a 89 74 40 cd 02 30 c0
       -2.2396934 -2.090401 3.8208795 -2.750171
000030 52 fb 48 3e 18 6f 01 40 b7 b0 a2 40 53 71 11 c0
       0.19627121 2.0224056 5.0840716 -2.2725418
000040 96 77 33 be 38 d7 f8 bf 48 ee d9 3f 3c 58 c9 3f
       -0.17526087 -1.944068 1.7025843 1.5730052
000050 5d bb 31 c0 46 cc da 3f 42 6a 47 40 97 bd ff bf
       -2.7770607 1.7093589 3.1158605 -1.9979733
000060 c0 81 3d 40 83 46 49 c0 d4 aa 6d c0 3d 61 eb be
       2.9610443 -3.1449287 -3.7135515 -0.45972624
000070 c0 af bc bf f6 d2 76 bf 1d f2 d6 3f 36 e2 dd bf
       -1.4741135 -0.9641565 1.6792637 -1.7334659
000080 b8 b2 f6 bf e0 24 50 c0 99 34 3a bf 8c 35 00 40
       -1.9273291 -3.2522507 -0.7273651 2.0032682
000090 7e 27 01 3d 68 5f 8b bf 6d 4d b2 be 54 23 00 be
       0.031531803 -1.0888491 -0.34824696 -0.12513477
0000a0 27 af 10 bf fd e6 8b bf 94 45 bc be 88 15 ef bf
       -0.5651726 -1.0929867 -0.36771834 -1.8678446
0000b0 9a 78 16 be b3 0f fe 3f c2 dc d4 be 3d 85 10 c0
       -0.14694443 1.9848541 -0.41574675 -2.2581322
0000c0 0f ff 11 c0 6a c1 87 be ef fd 3d 3f 3a a9 da bf
       -2.2811925 -0.2651475 0.74215597 -1.7082894
0000d0 a5 54 14 40 ba 85 08 40 cf 29 d6 bf 8c 56 15 3f
       2.3176663 2.133162 -1.6731509 0.58335185
0000e0 d1 99 c5 bf ab ec c2 be 0e 4e c9 3f 4f 3b 5f 3f
       -1.5437566 -0.38071188 1.5726945 0.8719987
0000f0 b5 79 02 c0 a4 55 04 c0 19 56 f7 bf 3f 33 88 3f
       -2.0386784 -2.067727 -1.932315 1.0640639
000100 d3 fc 6a 3f 8f ab a6 bf c9 22 6b 40 ab 07 d9 bf
       0.9179203 -1.3021106 3.673998 -1.6955465
000110 af 10 30 3f e9 39 3f 3f ad 5d 8d 3f 68 1a b9 be
       0.6877546 0.7469774 1.1044213 -0.3615296
000120 02 18 b0 bf cc 38 17 40 1b ee 9e 3f e9 e4 37 3f
       -1.3757327 2.3628416 1.2416414 0.71833664
000130 c2 2a 4f c0 f5 1a 11 c0 14 b7 cd 3e 76 79 a5 bf
       -3.2369847 -2.2672703 0.4017874 -1.2927692
000140 7e d6 50 c0 df 2f b0 3e a4 4c d4 be d6 b0 3e 40
       -3.2630916 0.34411523 -0.41464722 2.9795432
000150 a6 bf 51 c0 7c 4f 81 3e 11 ce 3b 40 0f 07 1b 3f
       -3.2773223 0.25255954 2.9344523 0.60557646
000160 f0 97 7c bf e1 cf b9 3f 0e 8b cb bd 36 2b a8 bf
       -0.9866934 1.4516565 -0.09938632 -1.3138187
000170 ca 1d 2d c0 ab 18 4c c0 a0 f0 ca 3e 06 99 61 c0
       -2.7049432 -3.1890056 0.39636707 -3.5249648
000180 c8 c7 b8 be dc 7c 88 40 a4 e9 69 bf 87 96 62 bf
       -0.3608992 4.2652416 -0.9137213 -0.88510936
000190 62 08 65 3e aa 9f f2 bf 74 e3 e3 be ab 84 1b 40
       0.22366479 -1.8954976 -0.4450947 2.4299724
0001a0 8e de 89 3e a4 bd 9d c0 90 d8 ac 3f 4e 90 81 40
       0.26927608 -4.9293995 1.350359 4.0488653
0001b0 40 c2 4b 3f 42 2a 01 c0 1b 13 97 c0 18 2a d4 3f
       0.79593277 -2.0182042 -4.721082 1.6575346
0001c0 e9 11 f9 3f 64 70 bc 3e 32 e5 91 3e 3d a2 0b 40
       1.9458591 0.36804497 0.28495175 2.1817772
0001d0 42 e8 0a 3f 6b de 04 40 b0 71 91 c0 55 72 a6 bd
       0.5426065 2.0760753 -4.545128 -0.08127276
0001e0 90 e1 a8 3f 24 43 d3 be 21 ad b3 bf 4e 6d 26 40
       1.3193836 -0.41262162 -1.403721 2.6004214

lstm.bias_hh_l1 f4 [124]
000000 9b 7c 06 c0 89 06 eb 3f a8 3e 31 c0 bb 95 d3 bf
       -2.1013553 1.8361369 -2.7694492 -1.6530069
000010 e9 8f 58 40 eb f8 f5 bf 58 3b d7 bf a7 b2 85 c0
       3.3837836 -1.9216589 -1.6814985 -4.178058
000020 72 a3 1f c0 3b d1 1a c0 96 99 6f 40 39 51 1f c0
       -2.494351 -2.4190204 3.7437491 -2.4893324
000030 22 82 4e 3d 37 ab fe 3f 39 9f a1 40 a8 72 0a c0
       0.050417073 1.9896001 5.0506864 -2.163248
000040 91 66 85 be 12 ae 0a c0 57 ec dc 3f 84 7b c9 3f
       -0.26054814 -2.1668744 1.7259625 1.5740819
000050 a3 87 2b c0 1e 72 bc 3f 86 09 5b 40 8d 16 0d c0
       -2.6801536 1.4722326 3.4224563 -2.2045014
000060 c4 3c 42 40 36 63 3d c0 c0 92 68 c0 c8 95 0d bf
       3.0349588 -2.9591804 -3.633957 -0.55306673
000070 12 f7 ce bf 37 f9 90 bf 1a 1e fc 3f f5 35 f7 bf
       -1.616915 -1.1326054 1.9696686 -1.9313341
000080 aa 27 d9 bf ba b9 57 c0 a5 ee 44 bf 28 d5 00 40
       -1.696523 -3.3707108 -0.7692664 2.01301
000090 08 b4 87 3d 8b 5a 92 bf f2 0f 8c be 4c 5e 3e be
       0.06626135 -1.1433882 -0.27355915 -0.18590659
0000a0 9d 92 3a bf c3 f8 9b bf f4 36 d4 be 3d 24 ea bf
       -0.72879964 -1.2185291 -0.41448176 -1.8292309
0000b0 40 dc 35 be b1 02 06 40 4a 48 9f be d2 fb 07 c0
       -0.177598 2.0939143 -0.3110984 -2.124745
0000c0 12 94 0d c0 1f 94 cb 3c d7 6a 17 3f ce 90 d4 bf
       -2.2121625 0.024850903 0.591474 -1.6606691
0000d0 9c 09 10 40 e7 51 0c 40 c3 f4 c0 bf 2e 0c a3 3e
       2.2505865 2.192499 -1.5074695 0.3184523
0000e0 1b fd a7 bf 53 a5 31 be 27 4e ed 3f 1a f1 83 3f
       -1.3124117 -0.17348222 1.8539475 1.0307953
0000f0 6d 1e 10 c0 97 7b fa bf 67 15 d3 bf 0e 6c 8a 3f
       -2.251857 -1.9568967 -1.6490906 1.0814226
000100 92 18 83 3f 75 2b bd bf 1d 13 6e 40 79 2d ed bf
       1.0241873 -1.4778887 3.7199166 -1.8529502
000110 83 c0 55 3f e6 34 6c 3f 90 d1 92 3f 42 8a 86 be
       0.83496875 0.92268217 1.1470203 -0.26277357
000120 b5 1e a7 bf 36 35 12 40 f0 d6 81 3f dd 79 65 3f
       -1.3056246 2.2844977 1.0143719 0.89639074
000130 f9 9f 47 c0 a4 32 1c c0 f2 55 dc 3e f8 b9 a5 bf
       -3.119139 -2.4405909 0.4303432 -1.2947378
000140 66 38 4b c0 ec bf 64 3e be 90 c9 be 84 96 36 40
       -3.1753173 0.22338837 -0.39368242 2.8529367
000150 72 9e 4a c0 42 06 09 3e 36 a7 41 40 02 b0 f5 3e
       -3.1659207 0.13381293 3.0258307 0.47985846
000160 1e c9 8b bf 77 4a bf 3f 98 d5 57 be 90 c2 d0 bf
       -1.0920751 1.49446 -0.21077573 -1.6309376
000170 dd 49 3b c0 d5 c0 3e c0 17 af 3d 3e 30 37 5d c0
       -2.9263833 -2.9805195 0.18523823 -3.4564934
000180 08 0a 40 be eb f5 7e 40 96 c7 86 bf f1 5f 52 bf
       -0.18753827 3.9837596 -1.0529659 -0.82177645
000190 c2 c3 aa 3e 1e f9 e3 bf d0 32 0c be 67 b1 20 40
       0.33352476 -1.78104 -0.13691258 2.5108278
0001a0 ae 82 35 3e 92 9c a0 c0 6e e8 8d 3f 93 68 70 40
       0.17725632 -5.0191126 1.1086557 3.7563827
0001b0 5a 71 4f 3f 06 61 eb bf f0 8c 96 c0 24 c3 ed 3f
       0.81032336 -1.8388984 -4.7047043 1.8575177
0001c0 87 85 ef 3f 18 39 a5 3e 74 d1 ac 3e 5b 80 0c 40
       1.8712624 0.32270122 0.3375355 2.1953342
0001d0 01 8c f9 3e 42 48 08 40 cb bd 8c c0 05 9e 9b bd
       0.48739627 2.1294103 -4.398168 -0.07598499
0001e0 96 e9 a9 3f 28 6d cd be 01 55 d1 bf a6 43 1c 40
       1.327441 -0.40122342 -1.6354066 2.441629

fc.weight f4 [1, 31]
000000 cd c2 e1 3e 45 44 ff 3e a5 90 5b 3e d7 d3 60 3e
       0.44093934 0.49856773 0.21441896 0.2195581
000010 47 82 13 3f 30 05 55 3e ba 82 e4 3d 89 98 8e 3d
       0.5762066 0.2080276 0.111577466 0.069626875
000020 63 7b 36 3e 14 c0 79 3e ed 4b 4b bd 9f 67 a5 bc
       0.17820506 0.24389678 -0.049632955 -0.020191012
000030 cf 72 8a be 0a bb bb 3d 06 15 28 3e b9 17 f5 bd
       -0.27040717 0.09166534 0.1641427 -0.11967415
000040 13 06 4c 3d fd 64 6a be 69 71 82 bd 95 0e d6 3d
       0.04981048 -0.22890086 -0.063692875 0.10452
000050 78 d2 a0 bd b4 7b 20 3e 04 46 b3 be e6 c6 0c 3e
       -0.07852644 0.15672189 -0.35014355 0.13747749
000060 6a 6c 0b bf 00 fc 3e 3f 7c da 03 bf f5 6e 1c bf
       -0.544623 0.7460327 -0.51505256 -0.61106807
000070 ad 62 7e 3e 0a 86 99 3e fc 47 51 3e
       0.2484233 0.29985076 0.20437616
