Backend/SavedModels/lstm_model.pth (torch, 56034 bytes, 9 tensors)

lstm.weight_ih_l0 f4 [124, 9]
00000000: 8e53 d4bf 7874 50bf 14d1 e0bf 165b 8e3f
00000010: f954 4ebf c8f2 c0bf c527 12c0 9e5f 18c0
00000020: 6312 3cbf cf70 8c3f cc5e 173f 13df 973f
00000030: 639a 6040 fa3b 72be c3eb 903f 8933 5f3f
00000040: a1f7 83bf 209f 6ec0 651f f8be a74c 85be
00000050: b481 663d a971 a43f 4c0a f3be 50a1 bfbd
00000060: a8e9 0abe f803 2bc0 aeaf d1be f186 7f3f
00000070: b92a d43f ba3d ce3e 6b1f 95bf 1ad4 4a3d
00000080: abf7 103f 04a9 2f3f 8518 63bf 8844 b2bf
00000090: b37a abbf e9e5 c43e 2cca 24bf 1d09 6940
000000a0: 6149 cdc0 52ab 2ebf 61d2 d1bf c7af b140
000000b0: b35d d240 2177 6b3f f742 02be bf35 463f
000000c0: b9ec 94c0 98a2 a5c0 857f 0c3f 82c9 bf3d
000000d0: e056 443f 4d38 a73f fb23 a8be 3b71 2dbf
000000e0: 934e 7dbf b8c0 2d3f 5c10 4440 aac8 64bf
000000f0: bed3 a4bf 864b 9f40 302a 7ec0 8924 bd3f
00000100: be09 a33f c59c 9e3f fb21 febf abf2 873f
00000110: c6c7 8d3f 671a 943f 5418 2dbf ddfe 85be
00000120: 503e e2bf 1062 3cc0 0d76 e6bf 7599 373f
00000130: 3a35 b0c0 a609 cabf 51af d8bf 630b cd40
00000140: d6ec 94bf d243 a6bf a3a0 b5bf bb79 a1bf
00000150: 32b9 9bbf b55e 84c0 9763 bcbf 3ff9 11c0
00000160: 3097 4abc a8c6 dcbf ae39 dabe df5b 86be
00000170: ba27 62bc 5cd9 8cbf 6014 ae40 d987 9cbe
00000180: e375 603f ee91 99c0 3965 3640 51e3 dcbf
00000190: 9eaf 14c0 0045 1fc0 354d f2be 7d9b 8f3e
000001a0: 67cd 25c0 245c 86c0 0eb1 a4bf 0214 f1be
000001b0: f71c 6abf 90bf cc3c fccb 88bf fd86 8bbf
000001c0: 2129 693f 2b45 9fbf 5b87 6dbf 95b7 bfc0
000001d0: b0f3 c940 3fae 99bf b27e 89bf 56cd a1bf
000001e0: 2b01 cb3e 071d 87bf 1c14 98bf 1d65 88bf
000001f0: ec26 ae3f 3d80 b3bd 873a 6c40 1289 ac40
00000200: 63d8 c33f affa 8abe f30e 3340 236a dc3f
00000210: e670 913f 1659 86bd 6112 b43d 613c 5e40
00000220: edc3 7b40 cbb4 ea3f d2b6 0c3e e713 9f3d
00000230: aae4 fc3f 9876 ed3f 3bbd 8a3f d610 203e
00000240: 2eef acc0 5360 88c0 b03f 69c0 7826 71bf
00000250: 82c3 11c0 ab94 77c0 953c 7abf 383a 3740
00000260: b5fa 4740 83f0 e33e ded3 5e3f d430 823e
00000270: fef7 e33f 64ee b9bd 0076 c03e 9d0b de3e
00000280: 22cc b6bf a804 403f 7c4a 06c0 45c2 00c0
00000290: 4f19 b1bf 4c03 1f3f 5265 2f3e 22d1 c3bf
000002a0: b5a2 52bf 123b 55be 7bb2 673e 3bdc da3f
000002b0: 4415 0340 5729 e23f 4cc2 4340 65a7 6ec0
000002c0: 29a1 d53f a7ce f8be 0f60 a140 7d12 d93f
000002d0: e687 85bf 4291 c0bf c103 8abf 0501 b7bf
000002e0: 2d4e 1cbf 217c 9cbf 822d 87bf e00f 0a3f
000002f0: ba18 213d e96c a23f 3ee2 a23f b248 e43f
00000300: 653e 61bf ff8d efc0 4914 d33f 238a 3b40
00000310: ffd2 8f3f 90ed 5940 9142 00c0 c09b 44be
00000320: f594 a2bf 8ca7 59c0 2183 f640 ea41 bfbf
00000330: 465f b73f d262 8ec0 b975 9540 ea4d d3be
00000340: 8f99 ecbf 9b2d f0bc 4310 0dc0 4df0 793f
00000350: e7f8 debd 79cb 16bf fba1 0e41 95e5 c4bb
00000360: 443a aabf 5413 dabf 5e4b e6bf 8a1e f2bd
00000370: c38b 3740 1ed2 dcbf 69c0 02c0 2641 653f
00000380: 9dfc bfbf 1cc6 21c0 5de4 11c0 c37c 26c0
00000390: 80d7 d63f 16a0 4c40 bdee 27c0 f26a 25c0
000003a0: 4e63 c33e c403 af40 2237 efbf 3c66 83bf
000003b0: 085d d8bf dbff 603f 41e5 a840 09f6 dfbf
000003c0: ba5f a2bf 25fd 6c3d 5d36 b0bf e7c7 ccbf
000003d0: d95c edbf 8fd7 edbf 855b e33f 1322 d6be
000003e0: 8d6c e7bf da2c 00c0 ddce 0b40 1d75 7d3f
000003f0: fe21 1dbf e067 d4bf d919 463f 92c2 ab40
-1.6587999 -0.8142772 -1.7563806 1.1121547 -0.8059841 -1.5074091 -2.2836773 -2.380836
-0.73465556 1.0971926 0.59129024 1.1864952 3.509423 -0.23655692 1.1321949 0.8718801
-1.0309945 -3.7284622 -0.48461452 -0.26035044 0.05627604 1.2847186 -0.47468793 -0.0935694
-0.13565695 -2.6721172 -0.40954345 0.9981528 1.6575538 0.4028147 -1.1650213 0.049518682
0.5662791 0.6861727 -0.8870929 -1.3927164 -1.339682 0.38456658 -0.6437099 3.6411812
-6.4152074 -0.68230164 -1.6392328 5.552707 6.573938 0.9197865 -0.12720858 0.7742576
-4.653897 -5.176098 0.5488208 0.093646064 0.7669506 1.3064057 -0.3283995 -0.677509
-0.9894802 0.6787219 3.0634985 -0.8936869 -1.2877119 4.977969 -3.971325 1.4776775
1.2737348 1.2391592 -1.985412 1.0620931 1.1076591 1.1570557 -0.67615247 -0.26171008
-1.7675266 -2.9434853 -1.8004776 0.7171853 -5.5064974 -1.5784194 -1.6928502 6.40764
-1.1634777 -1.2989447 -1.4189647 -1.2615274 -1.2165892 -4.136561 -1.4717892 -2.2808378
-0.0123651475 -1.7248125 -0.4262213 -0.26241967 -0.013803417 -1.1003833 5.439987 -0.30572394
0.8767988 -4.7990637 2.8499281 -1.7256871 -2.3232188 -2.4885864 -0.4732453 0.28048316
-2.5906618 -4.1987476 -1.2866533 -0.47085577 -0.91450447 0.024993688 -1.0687251 -1.090057
0.9107838 -1.2442983 -0.9278466 -5.99116 6.310997 -1.2006301 -1.0741789 -1.2640789
0.3964933 -1.0555733 -1.1881137 -1.0655857 1.3605628 -0.08764694 3.6910722 5.391732
1.5300411 -0.2714438 2.7977874 1.721989 1.1362579 -0.065599605 0.08792568 3.4724352
3.9338334 1.8336424 0.13741615 0.07767468 1.9757283 1.8551817 1.0838999 0.15631422
-5.4041967 -4.2617583 -3.6445122 -0.94199324 -2.2775578 -3.868449 -0.9774869 2.8629284
3.124677 0.44519433 0.87042034 0.25427878 1.7810056 -0.090786725 0.37590027 0.43368235
-1.4281046 0.75007105 -2.0982962 -2.0118573 -1.3835849 0.62114406 0.17128494 -1.5298197
-0.8227952 -0.20823315 0.22626679 1.7098459 2.048173 1.7668866 3.058734 -3.728967
1.6689807 -0.48595163 5.042976 1.6958767 -1.0432098 -1.5044329 -1.0782396 -1.4297186
-0.61056787 -1.2225381 -1.0560763 0.53930473 0.03933022 1.2689487 1.2725294 1.7834685
-0.8798583 -7.4860835 1.6490566 2.9303062 1.1236266 3.4051247 -2.004063 -0.19200039
-1.2701708 -3.4008512 7.703507 -1.494199 1.432595 -4.449563 4.6706204 -0.4127038
-1.8484362 -0.029318621 -2.2041175 0.97632295 -0.10887318 -0.58904225 8.914546 -0.0060088136
-1.3299031 -1.7037148 -1.799175 -0.11822231 2.8679054 -1.7251623 -2.0429938 0.89552534
-1.4998966 -2.5277166 -2.2795632 -2.6013649 1.6784515 3.1972709 -2.6239464 -2.5846524
0.381617 5.4692097 -1.86887 -1.0265574 -1.6903391 0.87890404 5.277985 -1.7496959
-1.2685463 0.057858605 -1.376659 -1.5998505 -1.854396 -1.8581408 1.7762305 -0.41822872
-1.8080002 -2.0027375 2.184501 0.99006826 -0.6137999 -1.65942 0.7738319 5.3675013

lstm.weight_hh_l0 f4 [124, 31]
00000000: 74f8 1d40 2d12 0a3f 33b9 35c0 83ee cd3d
00000010: 4c56 11c0 77c1 c5c0 91fc 983f 02b7 a4c0
00000020: 8239 d03f 3a6c 0940 70da ccbf 737f 63c0
00000030: 5848 663f 6adc 9fbe 6f87 86c0 641c 91bf
00000040: e10b 1b40 f553 1e3f 36a9 883e 926f a8bf
00000050: 8940 e13f f7b1 2d3e 0af5 23c1 3c5a 1340
00000060: a7c1 2b40 d341 973f 822a 9040 9a8c f6bd
00000070: 99aa d83f a4d0 1940 9235 3e40 7b59 333f
00000080: c4f8 c0bf f064 e8bf 5411 a2be 0e79 8c40
00000090: bee9 01bd 4db4 22c0 4eb9 b0c0 147a 74bf
000000a0: ddb8 d43e 6443 0141 c0c9 8d3e 24de 60c0
000000b0: 5576 3640 7afd fbbe 2782 64c0 bbed e3bd
000000c0: 4c53 84bf f2fd 5740 ecda 5e40 9023 50bf
000000d0: 7a04 1ac0 04e7 9f40 7cd0 7040 e49b 4e3f
000000e0: 04d8 823e af19 ca3e c1e0 993f 78dc 2640
000000f0: 3390 1e3f 4de0 c840 f550 8740 b951 0040
00000100: 577a a03f cb59 573e 7653 0140 cc36 943f
00000110: 9b5d 1fbe 02c6 c0bc 0747 efbe 7857 84be
00000120: c199 733f 8314 bc3f 7d1d 80c0 6117 9fbe
00000130: 4ddb 1ec0 3aba 8440 2fb0 1840 dc59 ce3d
00000140: f7a9 fabf ecfb cc3f de56 063f 7eae 8bbf
00000150: 87e7 2440 d1a5 d7bf 2e92 2cbf caf7 d2bf
00000160: 63d7 bd3c 2151 d1be a744 9a40 f098 0fbf
00000170: ba02 643f 1036 5abc d05f 193f e718 3fc0
00000180: ba73 1ebf a067 d7bf 4d7c 3140 e838 32c0
00000190: e986 dcbf a1f0 4ec0 aa14 bf3e 9598 a33e
000001a0: 56dd 903e 47cd f73f 4143 c5be 34a8 e5bf
000001b0: b5fd e2bf ab79 a0c0 cfea 16c0 8dd4 dc3f
000001c0: 8a4a dfbf 759f 3b3f 968b a3bb f347 1c3e
000001d0: 34bc 85c0 55e5 0f3f 4f04 b43f bff6 37bf
000001e0: df4a 98be f5a1 3a3f 1759 8140 deb4 4cc0
000001f0: 296e 25bf 1bd6 34c0 70a2 1c3f f74f 8abc
00000200: 1446 203f 80f2 c83d 24a2 5c40 c555 09c0
00000210: 07d2 db3e b156 8dbd 98da 80c0 95c9 8840
00000220: cd15 d9bf 9d6b e3bf b8bb 80bf 3b3b 3f3f
00000230: 2775 783e 7406 ab3f d7b9 d23d 227d e53f
00000240: d808 cfbf 6669 17bf 8a39 73c0 32b6 47c0
00000250: 6602 2ac0 3dee 92c0 9c1f 29bf bb55 0940
00000260: 62e4 0c40 1c8d babf 2065 6cbf 5b78 803f
00000270: 7eea c6bf 6324 36c0 758d 2dbf e547 0740
00000280: 2ad3 44bf 40c3 46c0 6b17 3640 9379 97be
00000290: 5bda 86c0 595a 10bf d904 073e f399 7bc0
000002a0: cd65 cb3d 33ca 46c0 0700 a440 a9cd 6bc0
000002b0: 16cf a2c0 0de6 853d 16df 4ec0 4c84 5640
000002c0: 680d 53bf 4a3e 78be f25b a53e e7cf 5ec0
000002d0: d1d0 9bbf e426 51c0 c5cc 7d3e e4fe 4f40
000002e0: c8ad a7bf 7514 2ec0 5cf8 cac0 cae2 4fbf
000002f0: 5f86 8dc0 eb86 0f3f 6e2f a2c0 d615 dcbe
00000300: 9d83 8940 b356 78c0 512e 643e dfbb 7c3f
00000310: 9801 00bf 6ea4 02c0 07fc 5140 2120 f4be
00000320: 73f5 39bf 5260 523f d104 893d 4236 4f40
00000330: 135f 6d40 8843 9ebd 5679 5cbf e353 d73f
00000340: d2d3 153f 3ca9 5f40 2ef0 8140 1a21 3340
00000350: 4b79 ad40 9a9e f03d a7a1 a7bf 3157 7040
00000360: 8e6a 2640 428c b2be 5843 e6bf 02e0 0a3f
00000370: 0af4 b33f a1c7 5e40 1345 0840 0ffc e3c0
00000380: 22c2 afbf c6c1 6a3f d121 07c0 3384 45bf
00000390: d127 4640 a833 6fc0 bdd5 3bbe 09e7 14c0
000003a0: e078 0040 aff9 4ebe 238f c0bf 8506 91bf
000003b0: 4c45 99bd 1357 143f 375b d53e d4eb 453e
000003c0: ddd1 d1bf d024 2ec0 f0f4 24c0 078e 3dc0
000003d0: b10f b83f b6ff 3ebf 4d60 fabf af15 60bf
000003e0: efe0 8340 78ff b840 6bf4 11be ec09 eabf
000003f0: 0909 79bf 54ea 9bbf f52a 9cbe dd21 a640
2.4682894 0.53933984 -2.8394287 0.10055258 -2.2708921 -6.1798663 1.1952077 -5.14734
1.626755 2.1472306 -1.6004162 -3.554654 0.8995414 -0.3122285 -4.2040324 -1.1336789
2.4226 0.6184686 0.26691598 -1.3159049 1.759782 0.1696242 -10.247324 2.3023825
2.6836946 1.1816963 4.505189 -0.12038536 1.6927062 2.4033594 2.9720197 0.7005841
-1.5075917 -1.8155804 -0.31653845 4.389777 -0.031717055 -2.5422547 -5.52262 -0.95498776
0.4154729 8.078953 0.27692986 -3.5135584 2.8509724 -0.49216825 -3.5704439 -0.11129328
-1.033792 3.3748746 3.482112 -0.81304264 -2.4065232 4.99695 3.7627249 0.8070662
0.25555432 0.3947272 1.2021714 2.6072063 0.6193878 6.2773805 4.2286325 2.004988
1.2537335 0.21030347 2.020719 1.1579223 -0.15563051 -0.023531917 -0.46733877 -0.25847983
0.95156485 1.469376 -4.0035996 -0.31072524 -2.482135 4.1477327 2.3857534 0.10075733
-1.9583119 1.601438 0.524763 -1.0912626 2.5766313 -1.6847478 -0.6741055 -1.6481869
0.023173993 -0.4088221 4.8208804 -0.5609274 0.8906666 -0.013318554 0.59911823 -2.985895
-0.61895335 -1.6828499 2.7732117 -2.7847233 -1.7228671 -3.2334368 0.37320453 0.31952348
0.28293866 1.9359521 -0.38527873 -1.7941957 -1.7733675 -5.014852 -2.3580816 1.7252365
-1.7444623 0.7329019 -0.004991005 0.15261821 -4.179224 0.5620931 1.4063815 -0.7186088
-0.29744622 0.72903377 4.042125 -3.1985393 -0.64621216 -2.825568 0.6118536 -0.016883833
0.6260693 0.09811878 3.4473963 -2.14586 0.42933676 -0.06901301 -4.026684 4.274607
-1.6959778 -1.7767216 -1.0057287 0.74699754 0.2426344 1.3361344 0.102893524 1.7928813
-1.6174574 -0.591452 -3.800387 -3.1204953 -2.6563964 -4.591582 -0.6606386 2.1458576
2.2014394 -1.4574313 -0.92341805 1.003673 -1.5540311 -2.8459709 -0.6779397 2.113763
-0.7688471 -3.105667 2.8451793 -0.2958494 -4.2141547 -0.5638786 0.13185443 -3.9312713
0.09931526 -3.1060913 5.1250033 -3.6844275 -5.087779 0.06538019 -3.232366 3.3518248
-0.8244233 -0.24242511 0.3229671 -3.4814394 -1.2173101 -3.2679987 0.24785145 3.2499323
-1.3099909 -2.7199986 -6.3428173 -0.8120543 -4.4226527 0.56065243 -5.0682898 -0.4298541
4.297316 -3.8802917 0.22283293 0.9872417 -0.5000243 -2.041286 3.2810075 -0.47680762
-0.7264015 0.82178223 0.06690372 3.2376866 3.7089279 -0.07727724 -0.86122644 1.6822475
0.5852634 3.4947042 4.060569 2.7988954 5.4210563 0.11749001 -1.3096207 3.7553217
2.6002536 -0.34872633 -1.7989302 0.5424806 1.405885 3.4809344 2.129216 -7.124519
-1.373112 0.91701925 -2.111439 -0.77154845 3.0961802 -3.7375278 -0.18343253 -2.3266013
2.0073776 -0.20212434 -1.5043682 -1.1330115 -0.074839205 0.57945365 0.41671154 0.19328243
-1.639217 -2.7209969 -2.5774498 -2.9617937 1.4379789 -0.74608934 -1.9560639 -0.87533087
4.1212077 5.781185 -0.14253394 -1.8284278 -0.9727941 -1.2180886 -0.30501524 5.1916337

lstm.bias_ih_l0 f4 [124]
00000000: 38ac d7be eecc bdbf cdf7 ddbd 01a8 c2bf
00000010: b154 733f 98e9 ee3f 30dc f0be 3fdc a3bd
00000020: e545 dfbf 682f 39c0 0db3 703f 8ec4 f73f
00000030: e50c 9d3f 1666 12c0 3193 9c3e dd2b debe
00000040: caf3 d9bf 48d5 a43f d61f bcbf 29c0 3440
00000050: 2838 98bf eba2 55bf 001a 40c0 1948 4b3f
00000060: db0a 253f 27b4 a2bf af1c 1fbf a038 0ac0
00000070: 98f2 c6bf 8216 353f 890e 06be 8c51 f6be
00000080: 152a 63be 1a1f 51be 3157 3abf 4c46 66bf
00000090: 4b0b 3240 6467 06c0 bbd5 ce3f cba6 1040
000000a0: b3e6 0240 bdb5 40c0 29fe cd3f 17db 7e3f
000000b0: 387d 85bf 0b99 8d3f 72d2 1e3d 5ae4 cfbe
000000c0: 14ca 3cc0 2b8b 92be 80ad d43e 76de 13bf
000000d0: f228 12c0 4549 a2bf 0593 2f3f 999b b03e
000000e0: 4e86 453f 2fa6 233f 2367 bdbf e4f4 833f
000000f0: 093c 233f 0407 9a3f 20bd 11bf c75b e6be
00000100: f210 853f 4466 6fbe 659b 1940 2101 c8bf
00000110: 14bf 15bf ba0f 8a3f 0483 f33f 15a8 debf
00000120: affe 1a40 ce8e 953f bf5d eebf 9e91 c93d
00000130: d6dc 373e f8da 59bf 6dee 8abf 61f2 0bbf
00000140: f768 30be 59d6 823f ecac 793f 5d53 a1bf
00000150: 1af2 9d3f 6859 8e3f 7529 77bf 7ad4 57bf
00000160: 9c60 5bbf d8ba 073e 9cc0 37bf 0ff2 5abf
00000170: 04d8 0540 288a d9bf 23e3 02c0 86c2 dabf
00000180: 0c70 c0be 1bae 133e fe79 aebf 95f2 cc3f
00000190: 0086 38bf d99a d43f 6012 68bf 175c 4fc0
000001a0: e03e aabf 537a 17bf ecfc d7bf 7ef9 dcbf
000001b0: 1d0b ac3f d592 c43f d588 ebbf 0f1a b2bf
000001c0: f64e 123f 7344 eebf cd84 0dbf 08df f6bf
000001d0: 910e 3ebd dbd4 99bf 7f9d a2bf b259 89be
000001e0: 17b6 29c0 2900 38bf a3f5 c2bf e1e5 87bd
-0.4212358 -1.4828165 -0.1083828 -1.5207521 0.95051104 1.8665037 -0.4704299 -0.08000993
-1.7443205 -2.8935184 0.9402321 1.9356859 1.226956 -2.2874808 0.30581048 -0.4339284
-1.7027524 1.2877588 -1.4697216 2.8242285 -1.1892138 -0.8345172 -3.001587 0.7940689
0.6446969 -1.2711228 -0.6215314 -2.159706 -1.5542784 0.7073747 -0.13091482 -0.4810909
-0.22184022 -0.2042202 -0.72789294 -0.89951015 2.7819393 -2.1000605 1.6158975 2.2601802
2.0453308 -3.0110924 1.6093189 0.99553055 -1.0428839 1.106233 0.038774915 -0.40603906
-2.9498339 -0.28621802 0.4153862 -0.57761323 -2.283749 -1.267861 0.6858371 0.34493712
0.7715806 0.6392545 -1.47971 1.030911 0.6376348 1.2033391 -0.56929207 -0.44991896
1.0395796 -0.23378855 2.4001095 -1.5625345 -0.5849469 1.0786049 1.9024358 -1.7395045
2.4217947 1.1684206 -1.8622359 0.098422274 0.17955336 -0.85099745 -1.0854012 -0.54666716
-0.17227541 1.0221664 0.9752948 -1.2603565 1.2339509 1.1121035 -0.96547633 -0.8430859
-0.8569429 0.13254869 -0.71778274 -0.855256 2.0913095 -1.6995287 -2.0451133 -1.7090614
-0.37585485 0.14421885 -1.3630979 1.601153 -0.7207947 1.6609756 -0.9065304 -3.2399957
-1.3300438 -0.59171027 -1.6874061 -1.7263639 1.3440892 1.535731 -1.8401133 -1.3914202
0.57151735 -1.8614639 -0.5528076 -1.9286814 -0.04640061 -1.2018083 -1.2704314 -0.26826245
-2.651739 -0.71875244 -1.5231212 -0.06635643

lstm.bias_hh_l0 f4 [124]
00000000: 2c16 04bf 6098 b5bf 0ffa 9dbd c51f c4bf
00000010: c465 823f 10b7 d93f 876f 0cbf 3742 be3d
00000020: a62c c2bf 50db 37c0 8927 8a3f cc8d fb3f
00000030: 6b31 973f 005f 0cc0 c27e 203f db93 c4be
00000040: 1025 eebf 102e bc3f 90e0 aabf 9e05 3840
00000050: 3087 a8bf 2cbc 74bf c67c 34c0 cac5 123f
00000060: 2534 3b3f ff45 a1bf 0b72 13bf 130a 1ac0
00000070: 8a6c d7bf 1837 3c3f 104a e0bc 313b 10bf
00000080: bf79 c0be 4ca2 d8be 6562 45bf 3683 67bf
00000090: cd24 3540 160f 0dc0 c14c c13f d4be 0640
000000a0: f14e db3f b1a7 48c0 0dcb bc3f 7200 843f
000000b0: eb6f 95bf 1237 743f 9da7 f23d 8737 0dbf
000000c0: 0ebd 42c0 a44b d7be 3282 f53e 6be7 22bf
000000d0: b9b8 1ac0 9f39 bcbf 0901 513f 2d38 9b3e
000000e0: 4213 fb3e 938f e83e c3d3 babf 288b 483f
000000f0: 2e43 f43e c1e6 a93f f619 4cbf a56d 6fbe
00000100: e348 a93f f9b0 d7be f4e3 0640 aa21 ddbf
00000110: 4278 37bf 17dc 613f 93f7 f53f 255b e7bf
00000120: 41f8 1f40 5b90 8d3f beea f6bf 4de3 8a3c
00000130: 6712 523e b8da 74bf 4acf 86bf e146 18bf
00000140: 88a1 dcbd b95b 863f eacc 673f 0e5e 86bf
00000150: 33e9 b13f 0673 a23f 15fe 54bf 30f3 76bf
00000160: a8c1 54bf 9d5b 14be 1ffe 0bbf 47e3 7dbf
00000170: 21ab 0140 68b1 b1bf c109 0ac0 8a53 efbf
00000180: 22ed 90be 6f70 343d 3682 bbbf 1967 b53f
00000190: 12fb 62bf fb46 d23f c279 3bbf 1fe7 4ec0
000001a0: 1334 adbf 5596 d8be e818 e8bf 27a6 b9bf
000001b0: f921 af3f fd97 b93f f940 e4bf ef75 d0bf
000001c0: d057 003f 53ee e0bf b489 f1be 1669 e8bf
000001d0: f3e1 acbe 2dee 92bf 4251 9ebf 5c41 17be
000001e0: c33e 27c0 fe3e 0dbf 833d dabf 6f69 a23d
-0.5159633 -1.4187126 -0.077137105 -1.5322195 1.0187306 1.7008991 -0.5485768 0.09289973
-1.5169876 -2.8727608 1.0793315 1.9652648 1.1811956 -2.1932983 0.6269342 -0.38394055
-1.860506 1.4701557 -1.3349781 2.8753428 -1.3166256 -0.9559963 -2.8201156 0.5733305
0.7312644 -1.2599486 -0.5759589 -2.406865 -1.6829998 0.73521566 -0.027379066 -0.5634032
-0.37592885 -0.42311323 -0.77103263 -0.90434587 2.8303711 -2.2040458 1.5101548 2.1053972
1.7133466 -3.135235 1.4749466 1.0312636 -1.167478 0.9539653 0.11848376 -0.55162853
-3.042789 -0.42049897 0.47950894 -0.63634366 -2.4175246 -1.4705085 0.81642205 0.30316296
0.4903813 0.45422038 -1.4595875 0.78337336 0.47707504 1.3273546 -0.79727113 -0.2338167
1.3225368 -0.42127207 2.1076632 -1.7275898 -0.71667874 0.88226455 1.9216179 -1.807469
2.4995272 1.1059679 -1.9290388 0.016954089 0.20514832 -0.9564624 -1.053201 -0.5948315
-0.10772997 1.0496742 0.9054705 -1.0497453 1.3899292 1.2691352 -0.832002 -0.96464825
-0.83107996 -0.14488073 -0.54684633 -0.9917492 2.0260699 -1.3882265 -2.1568453 -1.8697369
-0.28305918 0.044052538 -1.4649112 1.4172088 -0.8866435 1.6427912 -0.7323266 -3.2328565
-1.3531517 -0.42302194 -1.8132601 -1.4503831 1.3682243 1.4499508 -1.7832328 -1.628599
0.5013399 -1.7572731 -0.47175372 -1.815707 -0.33766136 -1.1478935 -1.2368548 -0.14771026
-2.6132057 -0.55174243 -1.7050022 0.07930266

lstm.weight_ih_l1 f4 [124, 31]
00000000: 4676 f3be 8d24 ef3f e563 84be c996 7e3e
00000010: f8e3 78bf f684 1140 3d9a efbf d7db f1be
00000020: 3007 3a3f 6f65 e83f d855 e3bf 01bc 54be
00000030: 242f 963e 1cc1 81bf 3e29 133e 563c 903e
00000040: 37bd b6be 5376 8fbf 8851 7c3e 916f 24bf
00000050: 5fe0 0bbf c0a2 f83e f8e5 03c0 0db5 56be
00000060: cf1d 933e 4d26 f23f 3775 933e 3ce5 6e3f
00000070: 7c93 83bf 931d dd3e adea 85bf 146e 84be
00000080: 4688 fb3f 3440 f43e 09f8 6b3e 51ba fe3e
00000090: 84e1 62bd 7b0f 8fbd eb4f 1f3f 0efc 803e
000000a0: b269 6f3f e4a5 943e 069e c13e e72d 4cbf
000000b0: 71d1 7a3e 32af 1fbe 6b57 7ebf 82f4 023f
000000c0: 6ee2 36bf 45a4 923e 971f d93e 9f7e b4bc
000000d0: d392 4f3f 101d a43f 37fd 613f b92f cbbe
000000e0: fae0 9d3d fd16 cbbe 4994 f13c 830a bf3e
000000f0: 67fa e7be f8d4 493f dc3f 9ebd 62cf 6640
00000100: 5cf4 eb3e b189 4d3e 59e9 0740 4f77 8dbf
00000110: e92e ebbe 925f 153f 31a7 04be 7f4c 69bd
00000120: 17a2 49bf b6c8 f43e 68d8 31bf 0dfa 103f
00000130: 268a 4bbd 92eb 91bf 7c0a e23e 58a5 fabf
00000140: 03d9 e63e 1243 cb3e 4271 19bd 5792 e23e
00000150: f24a 183f 4443 bf3f 0265 10bf 3bc1 a9bf
00000160: 7fbf 05bf 7e85 863d 2a75 913e 88ea 0bbf
00000170: 1e99 b8bb d5bd 86bd c20a e03f 330f 9b3e
00000180: 9735 a83e bb39 ee3d 917a 56bf 4ab4 2f3e
00000190: 3769 a03e e3d1 c33e 196d 053f 5450 8e3f
000001a0: f590 193e 52ac edbe 9aa9 1b3e 0596 d53d
000001b0: 579c 17be 9205 943e 6fbf 0ebf 8edb 9dbe
000001c0: 4208 9f3e f736 4dbd 76ed 893f 16ba ce3f
000001d0: 0661 8f3f 3b60 d0be 173c ad3e e05a 5bbe
000001e0: 9e30 3c3e 90b4 363e 189a b0be 2fe5 da3f
000001f0: e0a7 a03d 822f 923f b0c3 323e 1122 d23e
00000200: aa38 fc3f d47c b53f 0f78 07c0 59f8 84bf
00000210: 7e8e 58bf b510 26bf a87f dabe 3161 383f
00000220: 64c3 0b3f f8e0 06bf bdf8 dcbe 5e06 f63f
00000230: 098a 103f 1f5f 593f 506f 353d 9ab6 10bf
00000240: 41d9 cf3c 7dc7 4abe b5bc 76bf 22d5 c4bf
00000250: a77e 543f 5f76 44bf 9fcb 523f 83e7 a9bf
00000260: 099d f1bf aea5 0b3d 299a 31c0 929b 5c3e
00000270: 3432 1fc0 48ba d0bc 78ff 2b3e 357f 91bf
00000280: e836 8f3f 1e50 82bf 5b95 e1bf 7ee1 8dbf
00000290: 4331 b13f 82bc cfbf cda4 e9be 13f7 5a40
000002a0: cb95 9c3e 3d3e 0e3f 41fd 8e3f 2f99 58bd
000002b0: 15eb eebf 66ef 833f 823d adbf d3f4 dcbe
000002c0: 40b9 12c0 547e 20c0 9505 d3bf 85c8 2b3f
000002d0: a30b 0840 b9d8 1b3f 6cc9 943f 10af a1bf
000002e0: 637e 8c3f e39c 2cc0 eecc c5bc 3722 953f
000002f0: 8cc6 dc3e 9d91 bc3e d8c3 c3be 8626 6ebf
00000300: a2e3 e23e 7aba 173f 3c45 943e d595 513f
00000310: 1e9c a53f 77ee 333e 2282 39bf 9386 b43e
00000320: 885c 0fbf 7d1f 89be 48ab 983e 54b2 e1be
00000330: 8f3d eb3b 49d0 e73e a8c8 93bd 64f7 a43f
00000340: e58b cc3f 142e c53f f1fc cdbe 8870 e23e
00000350: 8ae7 b6be 20d9 e93c 5ab8 f93e fd96 b7be
00000360: b14a f73f e5cb b5be df47 a03f fd3b e33e
00000370: aea3 053f 86f3 063f eb11 91bf fb31 05bf
00000380: 29cd 393f 8ec9 c63d fe1f 3fbe 3218 a3bf
00000390: c816 9b3e 4d87 08bf 586f f63e 3ce3 c3bd
000003a0: e1b4 89bf bdfc 6c3e 1a72 62be cf93 48be
000003b0: af21 f93e b93a 073f 061c a83f b7d9 bc3f
000003c0: 20de 513f 1a85 d1be 0d91 bcbe e655 82be
000003d0: 403d 413d 38d7 2d3e f35d a4be 4d8f 3e3f
000003e0: 9355 653d 28fe fcbf feef 5ebf f41e e63d
000003f0: c592 b2bf 36d4 92bf 9ea9 c0bf 8ca2 02bf
-0.47551173 1.868303 -0.25857463 0.24862207 -0.9722285 2.2737403 -1.8718945 -0.47238037
0.7266722 1.8155955 -1.7760572 -0.20774843 0.2933284 -1.0137057 0.14371201 0.28171033
-0.35691234 -1.1207985 0.24640477 -0.64232737 -0.5463924 0.48561668 -2.0609112 -0.20967503
0.2873368 1.8917938 0.28800365 0.93318534 -1.0279384 0.43186626 -1.0462242 -0.25865233
1.9650962 0.47705233 0.23043837 0.49751523 -0.05539085 -0.069853745 0.6223132 0.25192302
0.93520653 0.29032815 0.37815875 -0.7975754 0.24493958 -0.15594175 -0.9935214 0.5115434
-0.71439254 0.28640953 0.42406914 -0.022033034 0.8108341 1.2821369 0.88277 -0.39684847
0.077089265 -0.39665976 0.029489653 0.37312707 -0.4530823 0.7884059 -0.07727024 3.6064076
0.4608487 0.20072056 2.1236174 -1.1052035 -0.45934227 0.58348954 -0.12954403 -0.056957718
-0.78762954 0.4780938 -0.69470835 0.5663155 -0.049692295 -1.1400015 0.44148624 -1.9581709
0.45087442 0.39699608 -0.037461527 0.44252273 0.5948936 1.4942403 -0.56404126 -1.3262094
-0.52245325 0.0656843 0.28409702 -0.5465474 -0.0056334874 -0.06579176 1.7503283 0.30285034
0.32853386 0.11632105 -0.8378077 0.17158619 0.31330273 0.38246068 0.52119595 1.1118264
0.14996703 -0.46420532 0.15201417 0.104290046 -0.14805733 0.289105 -0.55760854 -0.3083157
0.31060988 -0.050101247 1.0775592 1.6150539 1.1201484 -0.40698418 0.33834907 -0.21421385
0.18377921 0.17842317 -0.34492564 1.7101191 0.078445196 1.1420748 0.17457461 0.41041616
1.9704792 1.417872 -2.1167028 -1.038829 -0.84592426 -0.6486924 -0.4267552 0.720233
0.5459502 -0.52687025 -0.43158522 1.9220693 0.56460625 0.8491077 0.04429561 -0.5652863
0.02537215 -0.19802661 -0.96381694 -1.5377543 0.83005756 -0.7674312 0.8234195 -1.3273777
-1.8876048 0.03409355 -2.7750342 0.2154372 -2.4874392 -0.02547945 0.16796672 -1.1366946
1.1188631 -1.01807 -1.7623705 -1.108444 1.3843158 -1.6229403 -0.45633546 3.4213302
0.30583033 0.5556372 1.1171037 -0.052880462 -1.8665491 1.0307434 -1.3534396 -0.43155536
-2.2925568 -2.5077105 -1.6486079 0.67102844 2.1257102 0.6087757 1.1623969 -1.263155
1.097607 -2.6970756 -0.02414557 1.1651067 0.4312023 0.36829844 -0.38235354 -0.9302753
0.44314295 0.59268916 0.28959072 0.8186925 1.2938268 0.17571436 -0.7246419 0.35258922
-0.56000566 -0.26781836 0.29818177 -0.44081366 0.007178969 0.45276096 -0.072160065 1.2887998
1.5980192 1.5404687 -0.4023204 0.4422648 -0.35723525 0.028545916 0.48773462 -0.35857382
1.9319669 -0.35507122 1.2521933 0.44381705 0.5220288 0.5271534 -1.1333593 -0.5202939
0.72578675 0.09706412 -0.18664548 -1.2741759 0.30290818 -0.5333145 0.48131824 -0.09564826
-1.0758325 0.23143287 -0.22113839 -0.19587635 0.4865851 0.5282398 1.3133552 1.4753941
0.8197956 -0.4092186 -0.36829415 -0.2545616 0.047177553 0.1697663 -0.32102928 0.7443741
0.055989813 -1.9765062 -0.8708495 0.112363726 -1.395104 -1.1471012 -1.5051763 -0.51029277

lstm.weight_hh_l1 f4 [124, 31]
00000000: 28c8 cfbf c3d4 0040 5bcd 0dc0 f44e ecbf
00000010: bd88 0940 362f 923f 0724 da3f c79d 213f
00000020: d111 0640 5951 ffbf 60d8 c3be c886 d0bf
00000030: ab73 98bf ad30 19c0 939e 0940 0526 27c0
00000040: 22d9 db3f c271 ee3f 42ce 3d40 91ab 0d40
00000050: ead2 26c0 4f7b 1ec0 307c a0bd 3fd5 f23f
00000060: f61d 5040 e2d5 01c0 f7dd b13f d275 17c0
00000070: 0e03 0abf 43b3 ae3f 9b54 eebf 8a7d 2f40
00000080: 614a 4a3f 9164 f4bf c9b4 80bf ee42 0140
00000090: 614a 18c0 a31d 8f3f 7d9c d03f fd60 89bf
000000a0: cced e03f 8456 a7bf aa42 dfbf bbf3 c3bf
000000b0: a92e 13be 6be3 5abf 573b 17c0 c68e 563d
000000c0: 2bb4 c53f ec1b 373f 304c 313f 7f32 cfbf
000000d0: 1c56 09bf 5fab ed3e a01f d33f a098 2b3f
000000e0: c303 6fbf d56c ef3f b2e8 ecbf 5e48 513d
000000f0: b811 0140 d325 bdbf aff6 6c40 36d4 433f
00000100: 1560 d9bf 5ce8 0fbf e844 c13f cb79 30c0
00000110: fc53 193f 41c5 c33f 16a0 56bf 1b7c 3140
00000120: 0a10 63bf 0dbe bfbf c18f 3bbf b003 39bf
00000130: abb9 d7bf 7742 3ac0 1c64 51be e496 693f
00000140: 33e6 ff3f dedc 803f e52d a4bf 22d8 57bf
00000150: 27e4 97bd 8749 f03f bab5 a43f 2063 21bf
00000160: e91b cc3f f12a ffbf 3f43 92bf 1580 433f
00000170: 3530 ddbf 596f 0140 a79f 033f a211 49bf
00000180: 1e35 5ebf 15ff 973f 9a10 06c0 7f8f 383f
00000190: c2be 093f 1ec8 84bf 7de6 f63f 2e6e 52bf
000001a0: a88f 5cbf e37a 8dbf 1409 253f bb41 cfbf
000001b0: 59c8 e3bf 4f03 edbe d29b 973f c6b6 15be
000001c0: 031a 123f e587 a13e dffc 3c3f 772a 5a3f
000001d0: a218 d73f 6ced 31bf 2c4d 44bf e4d2 e13f
000001e0: 93cd 6ebf a3f5 6e3f 6646 cd3f f8f0 64bf
000001f0: 79df 893f e54a c5bf ee15 b33f b77d d43f
00000200: de80 f4bf c8c9 d1bf 6da2 f7bf 60d3 85bf
00000210: ec6b d6bf e1aa a93f bc2a 1abf 2ff0 0f40
00000220: 8560 dc3f 27c2 0b40 c646 babf 798d b7bf
00000230: 04f9 04bf a006 85bf 180e 90bf 93ea 01bf
00000240: cdc4 da3f 7365 e13f f8bd df3f 4a13 c0bf
00000250: 2107 e8bf 6243 2f3f 8f4c ae3f 60cc 0540
00000260: 02b0 ec3f a707 f5bf 22bb 0f40 61c1 0ac0
00000270: 1e53 a0bf fbad c2bc b617 5740 582f 6a3f
00000280: 4793 2f3f 9c12 c6bf 0481 c93e 713a a13f
00000290: 80fa e2bf 5846 a33f 2414 033f aa06 2340
000002a0: 9af7 a6bf 26a8 d73f 83f8 0340 f41c cbbc
000002b0: 3db6 3bc0 fd76 9f3f 5fc4 89be 2413 96bf
000002c0: 8a7f b6bf 5cd1 aebf 32b8 dbbf 280e b43f
000002d0: e147 bd3f d603 0fc0 322d b33e de06 bdbf
000002e0: 6a98 c3bf f3ed 5d3f 3d3b 0d40 5d21 403f
000002f0: 6833 c7bf f23c a1bf 6ce4 d23f 53a7 0bc0
00000300: 5be7 a73f bfaa 123f 4e25 c1bf 1433 0240
00000310: 8c3c a1bf cc43 c1bf 9898 ebbf 7f6a 7d3f
00000320: 4c7f b6bf c2bf f6bf 6603 86be 5b1f e63f
00000330: 3053 5fbf f90a 373f acc7 773f 009c 8a3f
00000340: 5a42 9e3f 3ac4 d33f c88c 97bf 0437 8dbf
00000350: 2730 e63f 94e7 debf 5f78 9a3f 6758 ee3f
00000360: 2663 e4bf ac07 6640 7dc7 e93e d77e 0ebf
00000370: 8486 98be af6b 193f 919f 20bf e582 b33e
00000380: ef0b 103f 3652 b53e 1c57 d83f 1869 8abe
00000390: 0c43 cfbe 75ca d1be 4985 01bf 54f2 5abe
000003a0: 93b8 0ebf 1523 c6be 87a7 1f3e 1aec b03f
000003b0: 71d4 ce3e c606 11bf 7be1 a4be e6f1 bebe
000003c0: 858e c23f 60e8 423f f935 f3be e4b2 c63e
000003d0: 9d6a 0dbf e037 8cbf cf48 58be e3a2 bcbe
000003e0: 8d13 743f e698 e03e 812d 55bf 311c 183f
000003f0: debf d33f 36d6 1b3f 6714 0c3f 2fa2 74be
-1.6232958 2.012986 -2.215659 -1.8461595 2.1489708 1.1420658 1.7042245 0.63131374
2.0948374 -1.99467 -0.3825102 -1.6291132 -1.1910299 -2.393596 2.1503036 -2.6116955
1.7175639 1.8628466 2.965714 2.2135966 -2.6066232 -2.4762762 -0.07836187 1.8971328
3.2518287 -2.0286794 1.3895863 -2.3665662 -0.5391091 1.3648456 -1.861957 2.7420373
0.79019743 -1.909319 -1.0055171 2.01971 -2.3795397 1.118092 1.6297756 -1.0732723
1.757257 -1.3073277 -1.7442219 -1.5308756 -0.14373268 -0.8550326 -2.3629968 0.052382253
1.5445608 0.7152698 0.6925688 -1.6187285 -0.5364702 0.46419808 1.6494026 0.6702976
-0.93365115 1.8705088 -1.8508513 0.051094405 2.0167065 -1.4777168 3.7025564 0.76495683
-1.6982447 -0.5621393 1.5099154 -2.7574337 0.59893775 1.5294572 -0.8383802 2.7731998
-0.8869635 -1.4979874 -0.73266226 -0.7227125 -1.6853536 -2.9103067 -0.20448345 0.91245866
1.9992126 1.0067403 -1.2826506 -0.8431417 -0.074165635 1.8772439 1.2867959 -0.6304188
1.5946018 -1.993498 -1.1426772 0.7636731 -1.7280337 2.0224211 0.51415485 -0.7854253
-0.867998 1.187472 -2.0947633 0.7209396 0.538067 -1.0373571 1.928909 -0.8219937
-0.861567 -1.1053127 0.6446698 -1.6191934 -1.7795516 -0.46291587 1.1844428 -0.14620504
0.5707094 0.31548992 0.7382335 0.85221046 1.6804392 -0.695029 -0.76680255 1.7642484
-0.9328243 0.9334356 1.6037109 -0.8943019 1.0771323 -1.5413481 1.3991067 1.6600865
-1.9101827 -1.6389704 -1.9346443 -1.0455132 -1.6751685 1.3255273 -0.6022146 2.2490346
1.7216955 2.183725 -1.4552848 -1.4340049 -0.5194247 -1.0392647 -1.1254301 -0.50748557
1.7091309 1.7609085 1.7479849 -1.5005887 -1.8127176 0.68462193 1.3617114 2.090599
1.8491213 -1.914296 2.2457967 -2.168053 -1.2525365 -0.023764601 3.3608222 0.9147849
0.685841 -1.5474429 0.39356244 1.259596 -1.7732697 1.2755842 0.5120261 2.5472817
-1.3044312 1.684819 2.062043 -0.02479408 -2.932998 1.2458187 -0.26907632 -1.1724591
-1.4257672 -1.3657641 -1.7165587 1.406682 1.4787561 -2.2346091 0.3499542 -1.4767721
-1.5280888 0.86691207 2.2067406 0.7505091 -1.5562563 -1.2596724 1.6475959 -2.1820877
1.3117479 0.5729179 -1.508951 2.0343676 -1.2596602 -1.5098815 -1.8405943 0.98990625
-1.4257598 -1.927727 -0.26174468 1.7978319 -0.8723631 0.7150112 0.9678905 1.0828857
1.2363999 1.6544259 -1.1839838 -1.1032414 1.7983445 -1.7414422 1.2067984 1.8620728
-1.7842758 3.5942183 0.4566001 -0.5566229 -0.29790127 0.5992994 -0.6274348 0.35060802
0.5626821 0.35414284 1.6901584 -0.27033305 -0.4048084 -0.40974775 -0.50594 -0.21381503
-0.5575039 -0.3869864 0.1559125 1.3822052 0.40396455 -0.5665096 -0.32203278 -0.3729393
1.5199744 0.76135826 -0.47502115 0.38808358 -0.55240804 -1.0954552 -0.21121524 -0.36843023
0.9534233 0.43866652 -0.8327256 0.59418017 1.6542928 0.60873735 0.5471863 -0.23889993

lstm.bias_ih_l1 f4 [124]
00000000: 1242 563e f98a ca3e 4003 793f 282e 7a3b
00000010: 7ba3 3f3f bda6 223f 19d0 c7be c245 003f
00000020: fcad a9bf b40d 7cbf a743 f8be d1a8 183f
00000030: 7d65 95bf 0cd4 6c3f 6016 8b3f b84a 1a3d
00000040: 10f6 823e ae59 0a3f f86b 6b3f f103 f03e
00000050: f2e8 3c3f 06fe 123e b49e 073f 8b55 adbf
00000060: b473 793f 8725 5abe c069 a33f c402 063f
00000070: a7a8 79bd ed62 babf 254b 923f 0a44 05c0
00000080: 4fed 1dbd 74c1 233f c2c9 943d 1e00 fabf
00000090: f599 13c0 4966 07be a08e 2b3f b541 b9bf
000000a0: 8fed 4abf 3e35 b5bd 8845 47bd a0dc 6fbf
000000b0: 9da6 debc 12ad e7bf ea50 9fbe 83cf 5ebb
000000c0: ad42 cebd 1273 5cbf 221e 9e3e 6456 e0bf
000000d0: 96a3 70bf 2726 3bbf c4c2 0b3f c724 273f
000000e0: fc20 f03d ebf2 66be 0810 dd3e e854 99be
000000f0: a929 b8bf 19c3 9f3e ed4a e53f 4bf5 843f
00000100: ddb9 41bf 3474 81bf 82be dd3f 301c 63bf
00000110: a92a b83f 3f61 473f 789e 97bf 776a 243f
00000120: 94d0 293d c2e5 35bf ba67 52bf e542 c2bf
00000130: ac1b 05bf b9a7 1abf bc9f 943c 77d2 9d3f
00000140: 5cd3 413e 5955 a23e e283 d0bf 81c2 80bf
00000150: ec6d 1fbf 8a81 923f 6f28 ae3f dcaf 07c0
00000160: 64be 89be 8bd3 81bf faaa 7cbf c303 0540
00000170: d924 18bf 18d5 5e3f 3a5a d63e 21d5 56bf
00000180: eecb ccbd f23c 973f 7423 8d3f 666c 4dbd
00000190: 27b2 cfbe 7272 cbbf fa82 43bf 3a94 b3bf
000001a0: 1782 b4bd f9a8 84bf c22d 513f 67ed 833c
000001b0: f3da 1cbf dcdd 0abf 25ce 963e 249d 633d
000001c0: 2dfc 6abf a29e 813f d83c 233f b83b ee3e
000001d0: 07d4 e9be 4d28 513f adbf 07be 0796 e5bf
000001e0: 8dc8 bdbe d945 6a3f f99b a4bf eb6f 133e
0.20923641 0.39559153 0.97270584 0.0038174484 0.74858826 0.6353567 -0.39025953 0.5010644
-1.3256221 -0.9845841 -0.48489115 0.59632593 -1.1671597 0.9251106 1.0866203 0.037668914
0.25578356 0.5404309 0.9196162 0.46878007 0.73792946 0.14354715 0.52976537 -1.3541731
0.97442174 -0.21303378 1.2766647 0.5234797 -0.060951855 -1.456144 1.1429182 -2.0822778
-0.038556393 0.6396706 0.07265045 -1.9531286 -2.3062718 -0.13222612 0.67014503 -1.4473177
-0.79268736 -0.08848046 -0.048650295 -0.9369602 -0.027179057 -1.8099692 -0.3111642 -0.0033998198
-0.10071311 -0.86113083 0.30882365 -1.7526364 -0.9399961 -0.7310509 0.54594064 0.6529049
0.11725041 -0.22553603 0.43176293 -0.2994759 -1.4387714 0.31203535 1.791349 1.0387357
-0.7567423 -1.0113587 1.7323763 -0.88714886 1.4388019 0.7788276 -1.1845236 0.6422495
0.04145868 -0.7105371 -0.82189524 -1.5176665 -0.5199535 -0.60412174 0.018142574 1.2329854
0.18928283 0.3170574 -1.6290247 -1.0059358 -0.622771 1.1445782 1.3606089 -2.1201086
-0.2690307 -1.0142683 -0.9869839 2.0783546 -0.59431225 0.87043905 0.41865712 -0.8391896
-0.09999834 1.1815474 1.1026444 -0.050152205 -0.40565607 -1.5894301 -0.7637173 -1.402961
-0.08813875 -1.0364066 0.81710446 0.016104413 -0.6127159 -0.5424478 0.2945415 0.055569783
-0.9179104 1.0126536 0.63764715 0.46529937 -0.45669577 0.8170212 -0.13256712 -1.793641
-0.3706707 0.9151283 -1.2860099 0.14398162

lstm.bias_hh_l1 f4 [124]
00000000: 90e5 b63e 8064 da3e 5786 863f 8a67 4ebe
00000010: b8e4 5b3f 3ebc fc3e e715 ecbe c2ec d03e
00000020: b8c9 a2bf 74df 6fbf 0f20 aebe 7931 203f
00000030: fc53 9abf 4aed 643f f75b 8e3f 7238 53be
00000040: 7b01 483e 16a5 ba3e 6125 603f b71a 363f
00000050: 3d4e 683f add4 983e 6ef0 d83e b25b b1bf
00000060: 6a9c 813f 1b43 39be c6c8 aa3f 2b74 193f
00000070: ba6c 633e f110 b8bf 856f 703f 2d0b ecbf
00000080: 8684 943e 5310 c93e c956 273c 09d8 02c0
00000090: 183b 0ec0 1e9e 85bb b288 0a3f c6f8 acbf
000000a0: b3a0 1cbf ac1c 693d 2215 39be 6a23 61bf
000000b0: 5b19 d13c 3bee dcbf d0a1 99be b387 6f3e
000000c0: 682f 85be 88c3 7bbf 86d3 923e c7fd e3bf
000000d0: b16d 63bf 47c1 23bf c951 413f 4740 143f
000000e0: 69ef eabc 9fce 19be 4a2f d73e 5165 83be
000000f0: f548 c3bf 6a12 373e adb2 ef3f f9c0 7a3f
00000100: 0c9f 2fbf 6840 8dbf 5a6d c53f 66ab 79bf
00000110: bce1 aa3f 3ea9 ee3e a868 83bf 78fa 0b3f
00000120: f5de 543e 45ec 52bf f5d3 83bf 359d cabf
00000130: 460b 43bf 1af3 51bf 322a 873d 2d0f 853f
00000140: d145 2cbd 8bb2 9e3e 477b c0bf a51d 87bf
00000150: 9c69 5abf 442a 913f 4de3 bb3f 9333 03c0
00000160: 8a06 97be e544 76bf 855a a3bf 66d8 fa3f
00000170: 2552 4dbf 8c68 1c3f 2467 7b3e 6da9 37bf
00000180: be2e 76be dd63 933f 48fa 883f 0d7e 70be
00000190: c8d5 12be 11bf eebf c9a1 0abf 0e5e b4bf
000001a0: 306a cabc b701 7fbf 6e9e 4e3f 88cd 683c
000001b0: 5b06 1ebf 5274 2fbf 55ce e73c 3862 423e
000001c0: 0d04 97bf e096 6f3f e1fa 143f 0fbd 353f
000001d0: a139 9bbe f564 463f 0b4a 29be d901 cfbf
000001e0: e603 b1be 514d 8e3f 99ac b3bf 89ab 1f3e
0.35722017 0.426548 1.0509747 -0.20156685 0.8589587 0.49362367 -0.4611046 0.40805632
-1.271781 -0.9370034 -0.34008834 0.6257549 -1.205688 0.89424574 1.1121815 -0.20627001
0.19531815 0.36454076 0.87557036 0.71134514 0.9074438 0.2984976 0.42370933 -1.3856108
1.0125859 -0.18092005 1.3342521 0.59942883 0.22209445 -1.438017 0.93920165 -1.844091
0.29007357 0.39270267 0.010213562 -2.0444357 -2.2223568 -0.004077687 0.5411483 -1.351342
-0.6118271 0.05691211 -0.18074468 -0.8794466 0.025524786 -1.7260202 -0.30006266 0.23391609
-0.2601273 -0.9834523 0.28677005 -1.7811822 -0.8883925 -0.6396679 0.7551542 0.5791058
-0.028678613 -0.15020226 0.42028266 -0.25663236 -1.525664 0.17878118 1.8726403 0.979507
-0.6860206 -1.103528 1.5423996 -0.9752716 1.3350139 0.46613497 -1.0266314 0.5467906
0.20788176 -0.8239177 -1.0299059 -1.5829226 -0.76189077 -0.8201157 0.06599845 1.0395256
-0.04205877 0.30995592 -1.5037621 -1.0555922 -0.853174 1.1341023 1.4678742 -2.0500228
-0.29497176 -0.96198875 -1.2761999 1.959729 -0.8020347 0.61097026 0.24551064 -0.717429
-0.24041268 1.1514851 1.070138 -0.23485585 -0.14339364 -1.8652059 -0.54153115 -1.4091203
-0.024708837 -0.9961199 0.80710495 0.014209159 -0.6172845 -0.68536866 0.028296629 0.1898278
-1.1798111 0.9358959 0.5819531 0.70991606 -0.30317405 0.774978 -0.16532151 -1.6172439
-0.34573287 1.1117345 -1.4037048 0.15592779

fc.weight f4 [1, 31]
00000000: c30b 183f e850 d53e e504 b7bd ef4b cbbe
00000010: c09d 883e 0b42 a6be 1c67 2b3e 976a e93d
00000020: aed3 de3d 0d96 f93e c6b5 45be a4da 423c
00000030: 01aa a93e 5e97 0e3e fe83 403e 8f59 2b3f
00000040: 12dd e1bd a38b be3e 85f1 1e3e 6269 f63d
00000050: 2816 a13e 9081 1c3e 4e50 00bf 4c1b 28bf
00000060: 0626 ac3e f78a 1dbe f729 7c3e 282d 8cbd
00000070: db2f 7b3e 210a 3c3e 61a4 4ebe
0.59392947 0.4166329 -0.089364804 -0.3970637 0.26682854 -0.32472262 0.16738552 0.113972835
0.108802184 0.48747292 -0.19307622 0.011892948 0.33137515 0.1392493 0.18800351 0.6693353
-0.11028494 0.3721591 0.1552182 0.12031819 0.31462216 0.15283799 -0.50122535 -0.6566665
0.3362276 -0.15385042 0.24625383 -0.0684455 0.24529974 0.18363239 -0.20179893
