Backend/SavedModels/lstmmodel.pth (torch, 56034 bytes, 9 tensors)

lstm.weight_ih_l0 f4 [124, 9]
00000000: d5f1 bc3e 7a53 38ba 1c4a 06bf 630a 873f
00000010: 3e19 b73f 86d9 30bf 2a70 cfbf 1d9e f6bf
00000020: eca2 d93f 6d5f 3a3e 7fe0 b03f 818a dbbf
00000030: 3bd1 18c1 a080 d93e c562 debf 4caf 15c0
00000040: af4e 0140 b230 9fc0 5b5e b3bf 62b0 5ebe
00000050: 2c9f 8f3f 00e0 9c40 8176 fd3f 825e 503f
00000060: 1f9c 1540 800a 4ec0 3320 7a3f aa7d 8340
00000070: 1c7a 5440 56a1 933e 14a0 a7bf c31b 36c0
00000080: 05f2 093f 8747 19c0 fb98 9b40 4c55 0dc0
00000090: 918d 0940 3e79 2440 c84f 4f40 f0ae 80c0
000000a0: cf28 873e 9a82 3f40 b0e0 8f40 cc6b 093f
000000b0: 5aef a4c0 c596 98c0 b856 a0c0 da62 95c0
000000c0: 9732 8240 2fad 91c0 c918 92c0 3603 94c0
000000d0: 93da 8e40 3818 5c40 0f4f 763f 6bc0 2a3e
000000e0: 0454 0940 a19d 95be 798d dcbd d787 1440
000000f0: b1c2 9840 6377 b13d 93b1 a33f a08f 25c0
00000100: c5f7 24c0 e5e5 dabf 017c 9dc0 e888 9a40
00000110: c7cc 01c0 425e 14c0 c972 d43e 3351 d4c0
00000120: 2268 823f 6b33 ad3f 507d ae3f a5de 31c0
00000130: 11b5 cf3f a2a3 a83f 8400 7d3f e666 23c0
00000140: 2eba 69c0 0dd2 d33f d53a d23f f819 cd3f
00000150: b5d2 cdbe f54c 82c0 c8b3 ba3f 375a e03e
00000160: 8713 af40 e93c 3d3f 8a89 0f40 d3f7 2240
00000170: 52c1 8540 28a1 84c0 90b9 633f cffa 7c40
00000180: 1614 ae40 2c91 42bf ca99 a8bf 0aab 29c0
00000190: 79ef 31c0 9895 52c0 2a21 6240 98e6 5cc1
000001a0: 54f0 3bc0 68be 93c0 741f 1940 100b 77bf
000001b0: 4611 9ac0 cfc6 9ac0 5ff9 94bf 1bb0 d53f
000001c0: 8327 bb3e d2a6 95bf ba2f 2abe f992 abbf
000001d0: 88bd ce3e d564 0fc0 2ccb 10c0 6eac 81c0
000001e0: 8b9a 963f 91fe 5340 3fe4 7fc0 a1d0 81c0
000001f0: 9eba 913c 8905 a7c0 2bb4 5b3f 8cec 0c3f
00000200: 05f7 b43d 28ec fd3f ad59 9140 05a0 d4bd
00000210: 1451 c9be df69 aebf d458 ebbf 4212 56c0
00000220: 6d4a a3c0 6ee6 70c0 6c2f 8740 b4b8 9040
00000230: 8753 84c0 dbbc 69c0 3e46 22be 0fe7 55c0
00000240: ae2c 2b3f 13fb 0cbf dec4 3b3f 40dc a1c0
00000250: 755f d0c0 5a1a 7e3f 5e77 71bf ad18 0c41
00000260: 0a20 89bf e1ef 2040 a05f 8c3f 4199 603f
00000270: 5f95 9140 d520 16c0 63ba 773f bff5 e4bf
00000280: ce1d 713f a776 7abe 0150 d03f b9ed d43f
00000290: 85e7 3e40 09d1 e7c0 ba90 353f eb86 3740
000002a0: 544f 9a40 ed00 6040 ff80 00c1 9d4d e240
000002b0: 7958 b440 fa4f e640 d4a2 a63f c3c0 e6c0
000002c0: 2a4a e540 1efb a940 6bb8 e4bf 2ae9 b53f
000002d0: eb2a 0cc0 e4e0 8ac0 f20a 85c0 9054 1040
000002e0: 74eb c6c0 085d 78c0 3679 d5c0 59cc ba3f
000002f0: 0a2a a140 94d0 e93f 588d dc3f e122 be3f
00000300: c0fa b740 f7d6 5ac1 cd08 d63f 6459 a03f
00000310: 501c a340 7c77 bd3f b08d ba40 4ae5 9740
00000320: 9520 c340 1d0a db3e 7653 24bf 24c9 c040
00000330: d8e7 a440 1e35 9bbf 7e6a 3840 2041 1fc0
00000340: e9e9 67c0 6dc1 2e3f d2d1 5a40 a693 213f
00000350: 314c 333f c335 64be 2785 ba40 8288 cb40
00000360: 6532 3940 cc7c 4140 6f98 4940 d930 b2bd
00000370: bd6a 12c0 27bc 5040 8f90 5540 6923 a9bf
00000380: 6575 0640 e660 27bf 69a1 e9be ad32 573d
00000390: 4ca7 42c0 c5ad 0e41 fa7e 9b3d fbf7 59be
000003a0: 2b90 9fc0 9c9f 90c0 6e5b 21c0 b746 48c0
000003b0: 8084 b3c0 d5f7 8240 a908 2640 0187 b3c0
000003c0: f5c0 c5c0 30e8 1e40 0e6c 4740 8b6f 5640
000003d0: 48e4 0d40 5314 4440 17e1 0641 dd7d a7bf
000003e0: 1a05 3d40 fa73 3f3f 9a5b f8c0 f552 bd40
000003f0: 0781 8ec0 7263 5ac0 4c28 68c0 5b57 28c0
0.36903253 -0.0007031482 -0.5245683 1.0550045 1.4304578 -0.69081914 -1.6206105 -1.9267002
1.7002845 0.18200465 1.3818511 -1.7151643 -9.551082 0.42480946 -1.7373892 -2.3388243
2.0204275 -4.9746943 -1.401317 -0.21746972 1.122045 4.9023438 1.980179 0.8139421
2.3376539 -3.2193909 0.9770538 4.10909 3.319953 0.28834027 -1.3095727 -2.8454444
0.5388492 -2.3949907 4.8624244 -2.208331 2.1492655 2.5699 3.2392445 -4.0213547
0.26398322 2.9923463 4.4961777 0.5368011 -5.1542177 -4.7684045 -5.010586 -4.668317
4.0686755 -4.5523906 -4.5655255 -4.625392 4.4641814 3.4389782 0.96214384 0.16674964
2.145753 -0.29221824 -0.10769171 2.320791 4.773766 0.08665349 1.2788566 -2.5868912
-2.5776227 -1.7101408 -4.921387 4.829212 -2.0281236 -2.318253 0.41493824 -6.634912
1.0188029 1.3531317 1.3631992 -2.7792141 1.6227132 1.3174937 0.9882891 -2.5531554
-3.6519885 1.6548477 1.6424204 1.602355 -0.4019982 -4.071894 1.4586115 0.43818828
5.4711337 0.73921067 2.2427697 2.546376 4.1798487 -4.1446724 0.8895502 3.9528081
5.439952 -0.76002765 -1.3171933 -2.6510644 -2.7802413 -3.2903805 3.5332742 -13.806297
-2.9365435 -4.616993 2.3925447 -0.96501255 -4.8146086 -4.8367686 -1.1638602 1.6694368
0.36553583 -1.1691535 -0.16619769 -1.3404227 0.40378976 -2.2405293 -2.2624006 -4.0522985
1.1765913 3.3124125 -3.998306 -4.0567174 0.017789181 -5.2194257 0.8582179 0.5504844
0.08836178 1.9837694 4.5421968 -0.10382084 -0.3931967 -1.3626059 -1.8386483 -3.3448644
-5.102835 -3.7640643 4.224539 4.522547 -4.135196 -3.6521518 -0.15847108 -3.3422277
0.6686505 -0.5507061 0.7334727 -5.058136 -6.5116525 0.9925896 -0.94322765 8.756024
-1.0712903 2.514641 1.0966682 0.87733847 4.549484 -2.345754 0.9676878 -1.7887496
0.94186103 -0.24459325 1.6274415 1.6635047 2.9828808 -7.244267 0.7092396 2.8676097
4.8221836 3.5000565 -8.031493 7.0719743 5.6358 7.197263 1.3018441 -7.2110305
7.165303 5.311904 -1.786878 1.4211781 -2.1901195 -4.3399525 -4.157586 2.2551613
-6.216242 -3.8806782 -6.6710463 1.4593612 5.0363817 1.8266778 1.7230635 1.4854394
5.749359 -13.677482 1.6721436 1.252728 5.097206 1.4802089 5.829796 4.7467394
6.0977273 0.42781153 -0.6418985 6.0245533 5.1533012 -1.2125585 2.8814998 -2.48835
-3.6236517 0.68263894 3.4190564 0.6311592 0.70038134 -0.22286133 5.828754 6.3604136
2.8937008 3.023242 3.1499288 -0.08700723 -2.2877648 3.261484 3.3369482 -1.3213931
2.1009152 -0.6538223 -0.4563096 0.052538563 -3.041461 8.917424 0.07592578 -0.21286003
-4.9863486 -4.5194836 -2.5212054 -3.129316 -5.6099243 4.092753 2.5942786 -5.61023
-6.1798043 2.4829216 3.1159701 3.350558 2.2170582 3.0637405 8.429954 -1.3085285
2.9534364 0.7478634 -7.761182 5.9163766 -4.4532504 -3.4123197 -3.6274595 -2.6303318

lstm.weight_hh_l0 f4 [124, 31]
00000000: 77bb 2340 eaf8 6a40 592e 713f eff3 06c0
00000010: 394c 203f f4e0 5c3d 5eea 9b3e 1938 cdbe
00000020: 0508 6c40 477a cf40 d0c5 32c0 b143 b23f
00000030: 25c4 023f 7522 25c0 c3be a13e ccf3 1dc0
00000040: 92cc 633d 6ba2 84be 2d6b 293f 8c53 593f
00000050: 9553 3440 f86f b93f 2655 7dc0 6292 3dbf
00000060: fc0d ed3f 38ba 21bf 4553 393f 3e20 9c3e
00000070: 2c7e ccbf d75b 813f 3e70 b2c0 8224 343f
00000080: b6e9 7e40 a072 3bc0 a44c 6bc0 29ce 8ebf
00000090: 2b23 2ec0 c0e5 b23f e9b5 fe3f e774 81bf
000000a0: 83da 31c0 a355 843e ecf5 8d40 fb8b dfc0
000000b0: ff44 e1c0 8cfb 63be cb85 43c0 c5aa 2e40
000000c0: 8e4c d540 171e 1841 6cf7 7d40 7178 26c0
000000d0: 0865 8b40 6a08 82bf e026 80bf 9d13 2141
000000e0: ecd1 86c0 e213 3ac0 3369 84bf 74c9 3040
000000f0: 1750 943f 0157 6b3e c110 34c0 6628 b63f
00000100: 2d20 c9bf 34a6 4e40 cbb0 513f 8218 44c0
00000110: 2b1a 5e40 a24e 9fbf 8f85 953f b2f0 c53f
00000120: 52a6 35bf babc 283f ba36 7dc0 0744 f140
00000130: a764 0c41 9c6e 9640 9b76 94c0 d0a7 3940
00000140: 6418 b2c0 f3be c63f 2b7f 70c0 a965 2740
00000150: 9fc6 8540 15a8 bf3e 0cfd b9bf 3555 00c0
00000160: 0a3c 30c0 0a5e 0ac0 1511 3dbf 8d27 80c0
00000170: 5bc4 b740 a776 e4bf fbd1 e3c0 8641 56bf
00000180: 1540 1640 5aa8 773f 38de 6c40 9fdb 2140
00000190: 6e16 f63f 1a9d abc0 760a 8940 8e04 4540
000001a0: 09be 9e3d 85ce bebe 825c 023f 9246 b8bf
000001b0: 0efb 70c0 f12d 0040 141c 09bf 3c80 b83f
000001c0: fa44 0940 d4de 2cc0 ba28 ecbf 02b1 83bf
000001d0: 1c5a e0bf 7ee5 7340 052e 01bf 56b9 7740
000001e0: 3dd1 28bf 0d04 efbf dc00 913e 9ec8 55bf
000001f0: 9a27 503f c00d 4340 ccdc 20bf 1a71 37c0
00000200: f7a0 bdbf 1d65 3e3f a785 dbbf e3ee b83c
00000210: b1a1 c2bf bf0d c3c0 1876 b6c0 96c2 723f
00000220: d6cc bd3f 7535 c240 1c68 c83f 2910 a6bf
00000230: c3b5 6bc0 e328 3840 84df 00c0 2ed3 9cbf
00000240: fc23 9a3e 5152 09be 8c29 303d d625 cb3f
00000250: ea8c 0d3f fa6a a03e 7fe0 5940 cfbe 983e
00000260: ba7f 4bbf c712 0b40 bad8 0e40 f841 c03f
00000270: 54c0 82c0 c86e 1940 a412 f1bd fd73 8440
00000280: f70d 543e e633 37c0 79e6 4ebf 39ec c0c0
00000290: f828 d93e f31a 54c0 bfd7 67c0 c1ca 50bf
000002a0: e5e9 8540 4f75 3040 b413 0ac0 ed52 cbbc
000002b0: 8a72 86bf 520b d0c0 6e7d 8d40 3c25 e7bf
000002c0: 924c 8bc0 8428 ab40 b69c a3bf de92 94bf
000002d0: 46b8 afc0 ffba b43c d110 c43e 499a f8bf
000002e0: 91c9 a3bf e922 35c0 9c08 69c0 f346 fbbe
000002f0: 016e 50c0 5722 d03f deca 13bf ebfb a7bf
00000300: 661e a83d d133 2ec0 5974 66bf 4c99 303e
00000310: 1b6a 8f3f 6b6b adbf dab5 febe 3fbd 0341
00000320: e148 afbf c0db e13e a3d1 1ec0 51d9 81c0
00000330: 8a44 243f 27fe 35c0 a5a8 2bbf 0e6a 0bbf
00000340: 1c75 68c0 c87c f53e 47f2 9bc0 6a1d 3e40
00000350: fda2 1640 f648 26c0 ae47 c6be 0c01 bb3f
00000360: 8081 813e a0ee fec0 a0e0 dd3f 019f 84c0
00000370: 25a4 a2c0 c82f 453f 7426 a33f 9168 fbbf
00000380: 3cad 2c40 0d5c acbf cdf0 5ec0 77d9 1bc0
00000390: d05f 3c3b 97fc 01c0 4e9e bd3f b49a f9c0
000003a0: 000f 453f a29f 9f40 3c59 c13f 8db3 32bf
000003b0: 9590 6ec0 574c c73d 73bc 2040 48aa 19c0
000003c0: b8ab 8dbf 3d7d 483e 91f4 063f c8ac d540
000003d0: a34a 2bbf 56be 06be c12c e73f e8be 4140
000003e0: 54f1 1a3f 6509 0e40 3121 213d eab4 29bf
000003f0: a56e 823f 70ab b3c0 9db8 bcbe 9876 5c40
2.558317 3.6714425 0.94211346 -2.1086385 0.62616307 0.05392547 0.30452245 -0.40081862
3.6879895 6.4836764 -2.7933235 1.3926908 0.5108054 -2.580228 0.31590852 -2.4680052
0.055615015 -0.25905165 0.6617916 0.8489311 2.8176014 1.4487295 -3.958322 -0.7405149
1.8519893 -0.6317477 0.72392684 0.3049335 -1.5976005 1.0106152 -5.5762014 0.70368207
3.9830146 -2.9288712 -3.6765528 -1.1156665 -2.7208965 1.3976364 1.9899265 -1.0113801
-2.778962 0.25846586 4.4362698 -6.9858375 -7.0396724 -0.22263926 -3.055041 2.729173
6.665595 9.507346 3.9682264 -2.6011012 4.356083 -1.0158818 -1.0011864 10.067288
-4.213125 -2.9074636 -1.0344604 2.7622957 1.1586941 0.22982408 -2.8135226 1.4231079
-1.5712944 3.2288942 0.8191039 -3.0639958 3.4703472 -1.2445872 1.1681384 1.5464079
-0.7095691 0.65912974 -3.9564652 7.539554 8.774573 4.701002 -4.639478 2.9008675
-5.5654774 1.5527023 -3.7577617 2.6155798 4.1804957 0.37432924 -1.4530349 -2.0052006
-2.7536645 -2.1619897 -0.7385419 -4.004828 5.742719 -1.784871 -7.1193824 -0.8369373
2.3476613 0.9674126 3.7010632 2.5290296 1.9225595 -5.3629274 4.282527 3.078403
0.0775109 -0.37266937 0.50922406 -1.4396536 -3.7653232 2.002804 -0.5355847 1.4414134
2.144835 -2.7011003 -1.8449929 -1.0288393 -1.7527499 3.810882 -0.50460845 3.870687
-0.6594427 -1.8673111 0.28320968 -0.8350924 0.8131043 3.0477142 -0.6283691 -2.8662782
-1.4814748 0.74373037 -1.7150162 0.022574848 -1.5205594 -6.095428 -5.7019157 0.94828165
1.4828136 6.0690255 1.5656772 -1.2973682 -3.6829689 2.8774955 -2.0136423 -1.2251947
0.3010558 -0.13410307 0.043008372 1.5870922 0.5529314 0.31331617 3.4043272 0.29833075
-0.7949177 2.173021 2.231978 1.5020132 -4.0859776 2.3973866 -0.117711335 4.1391587
0.20708452 -2.8625426 -0.80820423 -6.028836 0.4241407 -3.3141448 -3.622543 -0.8155938
4.1848016 2.75716 -2.1574526 -0.024819816 -1.0503705 -6.501382 4.4215612 -1.8058238
-4.353097 5.3486958 -1.2782199 -1.160732 -5.4912443 0.022061823 0.3829408 -1.9422084
-1.2795888 -2.8302557 -3.6411505 -0.49077567 -3.256714 1.626048 -0.57731426 -1.3123754
0.08208923 -2.7219126 -0.9002128 0.17245978 1.1204256 -1.3548406 -0.49748117 8.233703
-1.3694116 0.44112968 -2.4815452 -4.057778 0.6416708 -2.8436372 -0.67054206 -0.544587
-3.6321478 0.47946763 -4.873325 2.9705453 2.353698 -2.5982032 -0.38726562 1.4609694
0.25294113 -7.966629 1.7334175 -4.1444097 -5.082537 0.77026033 1.274611 -1.9641286
2.6980734 -1.3465592 -3.4834473 -2.435148 0.0028743632 -2.0310419 1.4813936 -7.8001347
0.76976013 4.9882364 1.5105357 -0.6980522 -3.7275746 0.097313575 2.511502 -2.4010181
-1.1068029 0.19579025 0.5271693 6.6773415 -0.6691076 -0.13158545 1.8060533 3.027277
0.6052449 2.2193234 0.039338294 -0.6629168 1.0190016 -5.6146774 -0.368596 3.4447384

lstm.bias_ih_l0 f4 [124]
00000000: 83be 9340 45c4 2d40 957a 02c1 9bc4 9840
00000010: 3f92 693c 85e2 0240 29bf 85bf d423 93bf
00000020: fadb 8740 09b8 b440 9ec8 2dc0 1bf6 b3bf
00000030: a2ec 2ac0 c021 9b3f e739 2a40 8798 d73e
00000040: 7d1a 1c40 803e a940 4108 90be 3861 7abe
00000050: db0f 753f dc9e b6bf fcaf e3bf bf37 51c0
00000060: e17d bcbf 32c1 013f 196c 1e40 c9db 963f
00000070: a0a9 023f 8b2c 653f 6845 d43f 395e 0a3f
00000080: 1c65 8ec0 5a52 e4bf 3f2d 883f b4fd 04c0
00000090: 8df5 96c0 ce70 debe 7290 0e40 8aa3 b4be
000000a0: cc77 22be f27d 373f 2caf 01c0 d0a9 d2bf
000000b0: dc36 8840 96b0 ecbe 69da 1040 1cde 47c0
000000c0: 7586 4a40 1e4b 0540 8869 0840 4b98 32bf
000000d0: 5a56 073f 7e62 843f 1a55 3240 d837 7abe
000000e0: 24ad 773e 0d90 24bf 19fc 42bf f1aa ef3d
000000f0: 7820 aabf 7bfc 7240 d8d9 4c3f caf6 92c0
00000100: b289 bb3f 269f 6340 1ad2 4ec0 1bb7 3c40
00000110: a93f 84bf bcf0 513f c8cf 9240 b1db 52bf
00000120: fcc0 cabf b535 d3bf 77b6 a03f 12e3 08c0
00000130: f697 923e 837e 1140 7291 26c0 ae48 ebbf
00000140: 87e2 c73f 9e90 0340 d27a 5840 00b7 a5be
00000150: 7679 0cc0 dbf3 58c0 8134 73c0 1f54 9f40
00000160: 4ccc 81c0 1ef8 743e 8297 7f3f 1ffc 1540
00000170: 3761 14c0 9534 2dbf b2d7 4e40 c050 a53f
00000180: 8e25 8940 7d05 86c0 0ca1 52c0 1638 6ec0
00000190: a5e8 fcbf 4d37 44c0 2cd9 c9bf 902a 0fbf
000001a0: c63e 0240 94b6 3dc0 e74b 8b40 4d6c 79c0
000001b0: d668 cfbe 1096 3dbf 6e73 dbbf 0cc7 3040
000001c0: 74f3 113f 8ad4 b93f 3b9e 1f3f 1f51 5740
000001d0: d4d1 c93f b62e 85bf fa0f bcc0 41cd 9e3f
000001e0: a600 503f 410d 5c40 1375 2440 5ff2 1740
4.617006 2.7151043 -8.154927 4.7739997 0.014256059 2.0450757 -1.0448962 -1.1495309
4.2456026 5.647465 -2.7153697 -1.405948 -2.670693 1.2119675 2.659784 0.42108557
2.4391167 5.2888794 -0.28131297 -0.24451149 0.9572732 -1.426723 -1.7788081 -3.2690275
-1.4725915 0.5068542 2.4753478 1.1785823 0.5104008 0.8952109 1.6583681 0.5405002
-4.4498425 -1.7837632 1.0638808 -2.0779848 -4.7174745 -0.43445438 2.2275662 -0.3528102
-0.15866011 0.7167655 -2.0263166 -1.6458073 4.2566967 -0.46228474 2.2633307 -3.1229315
3.1644566 2.0827098 2.131441 -0.6976363 0.5286614 1.0342557 2.7864442 -0.24435365
0.24187142 -0.64282304 -0.7616592 0.11702526 -1.3291159 3.7966602 0.80019903 -4.5926256
1.4651396 3.5565886 -3.2315736 2.9486759 -1.0331928 0.82007957 4.587864 -0.8236647
-1.5840144 -1.6500765 1.2555684 -2.1388593 0.28631562 2.2733467 -2.6026273 -1.8381555
1.5616006 2.0557017 3.3824964 -0.3236618 -2.1949134 -3.3898838 -3.8000796 4.9790187
-4.0561886 0.23922774 0.9984056 2.3435133 -2.3184335 -0.6765836 3.231915 1.2915268
4.2858343 -4.18817 -3.2910795 -3.7221732 -1.9758497 -3.0658753 -1.5769401 -0.5592432
2.0350814 -2.9642687 4.3530154 -3.8972352 -0.4050967 -0.740571 -1.7144601 2.7621489
0.57012105 1.4517987 0.62350816 3.3643262 1.576716 -1.040488 -5.8769503 1.2406389
0.8125099 3.438309 2.5696456 2.3741682

lstm.bias_hh_l0 f4 [124]
00000000: badb 8c40 0561 3840 7c55 07c1 6b40 9e40
00000010: 9e0e fabd 34de 0440 921a 96bf f542 92bf
00000020: 6d05 8140 a1aa b140 fe84 35c0 5173 cfbf
00000030: 5074 3bc0 5eea ad3f 11ab 1c40 3e73 883e
00000040: 7f37 1e40 ae23 ab40 d5e7 1bbe f179 01bf
00000050: af5d 6f3f 1561 acbf fed7 e4bf 1da6 49c0
00000060: 25e8 d6bf f809 103f a9f6 1d40 dd8a 8e3f
00000070: 70a4 313f aa52 6d3f 3246 e63f 3181 173f
00000080: be69 97c0 d04a f6bf 295b 943f 10ff f5bf
00000090: 6555 95c0 c4a4 86be c7df 0540 0fae 26bf
000000a0: 269a 783d 6a39 4e3f 3885 11c0 fa84 e1bf
000000b0: 842c 8540 9ef3 d4be 2736 2740 fcc8 42c0
000000c0: 83a1 5e40 3b3a f03f 5fb6 0740 e38d 13bf
000000d0: dee9 063f 5a10 933f 2399 2b40 a292 c8be
000000e0: 1fc1 9e3d ec2e 57bf 715d 3cbf 153a 6d3e
000000f0: 3aa4 b8bf 9cbd 7640 af79 873f 7bb1 96c0
00000100: 0c19 c53f a420 7140 a8cd 5bc0 5e80 2f40
00000110: b42b 90bf 290b 463f c3b7 8f40 60a9 73bf
00000120: ad64 e3bf 9ef2 b6bf e2e2 963f 4449 0bc0
00000130: 7ba1 803e 31f7 0e40 84f7 21c0 84a4 fcbf
00000140: 7140 c13f 65dd 0840 f2cb 5b40 a761 4fbe
00000150: 3247 12c0 5cb8 61c0 4ffb 73c0 1af3 9e40
00000160: 24e9 80c0 e84d 863e eb88 6a3f 7b31 1240
00000170: f749 0ec0 1215 1fbf ac73 4e40 1ef5 af3f
00000180: 15fd 8640 753a 80c0 fecb 5bc0 4c21 7bc0
00000190: 4702 09c0 5766 45c0 1257 cabf 3f1c 26bf
000001a0: fff5 e93f d7a7 38c0 9481 8640 3b63 7ec0
000001b0: a7dc e9be 33b0 7ebf 00c3 f0bf 916e 3c40
000001c0: 9d01 f83e 620b da3f 5468 9c3e 4741 5940
000001d0: ac08 c33f cb8a 9ebf dd02 b9c0 6f85 9b3f
000001e0: 62a1 463f 636e 5440 8205 2840 1de9 1440
4.401822 2.8809216 -8.45837 4.9453635 -0.12209819 2.0760622 -1.1726859 -1.1426684
4.0319123 5.5520787 -2.8362422 -1.6207067 -2.9289742 1.3587148 2.447941 0.26650423
2.4721372 5.3481054 -0.15225156 -0.5057669 0.93502325 -1.3467127 -1.7878416 -3.1507638
-1.6789595 0.5626521 2.46818 1.1136128 0.69391537 0.9270426 1.7990172 0.59181505
-4.731658 -1.9241581 1.159032 -1.9218464 -4.666674 -0.2629758 2.0917833 -0.6510934
0.060693882 0.80556357 -2.273756 -1.7618706 4.161684 -0.41592115 2.6126802 -3.043517
3.478608 1.876777 2.120506 -0.57638377 0.52700603 1.1489365 2.6812217 -0.39174372
0.07751679 -0.8405597 -0.7358008 0.23166688 -1.4425118 3.8553228 1.058401 -4.709165
1.5398269 3.7676172 -3.4344273 2.74221 -1.1263337 0.7736078 4.491182 -0.9518032
-1.7765099 -1.4292791 1.1787989 -2.1763468 0.251232 2.2338374 -2.5307322 -1.9737706
1.5097791 2.1385128 3.4343228 -0.20252095 -2.2855954 -3.5268774 -3.8122137 4.9671755
-4.0284595 0.26231313 0.9161517 2.28427 -2.2232645 -0.62141526 3.22581 1.3746679
4.218394 -4.007136 -3.4343257 -3.9239073 -2.140764 -3.0843713 -1.5807822 -0.6488685
1.8278197 -2.8852441 4.2033176 -3.9748065 -0.45676157 -0.9948761 -1.8809509 2.9442484
0.4843873 1.7034724 0.30548346 3.3946092 1.5237021 -1.2386106 -5.7815995 1.2150096
0.7759 3.3192375 2.6253362 2.326728

lstm.weight_ih_l1 f4 [124, 31]
00000000: d741 96c0 9e3c 63c0 ff3f 29c0 01e2 ad3f
00000010: 526b 43bf b7a6 dc3f ebc2 563e 13a6 ec3f
00000020: 1c05 0cc0 28c3 e9c0 3bd2 0c40 f3c2 5540
00000030: 2029 6bc0 770f 1940 3639 61c0 c02a a8bf
00000040: 3ee1 2ebf a9a5 2e40 0769 b43f f5ad 283b
00000050: 84e1 4dbf fac1 3140 dfb0 adbf 6dbc ca3d
00000060: 33fa 4740 5bef 8540 5078 bcbf f38e 38bf
00000070: dae1 b2c0 7fa9 2bbf ebae a0bf a981 e8bf
00000080: ddc7 c0bf dbef aabe bb22 debf 7b52 b83f
00000090: 6101 bbbf 23cb 06bf 4baa bf3f 28e0 bd3f
000000a0: f777 c2be 5760 673e 58eb bc3f fc3d 5fbf
000000b0: 8c71 2340 e34d ddbf 17fd ca3f 9eec 8ebf
000000c0: 0c13 823f b957 0b40 69db dd3e f151 3f40
000000d0: 9f6b f33f ddc0 b8bf f219 28bf 0a8c 2bc0
000000e0: 3795 763e ff87 343f 58fa 8bbf 8e61 10bf
000000f0: 2cbd 09bf 61b5 53bf 6494 64bf 9f3f dd3f
00000100: 2d9a 2b3e a23f 9cbf 2135 093f bfda 60c0
00000110: d52d 5ec0 97b1 2c40 bf27 a13f db1b 453e
00000120: 31e6 2bc0 8f4d 1f40 5d3c 25c0 ac3f b73f
00000130: d656 a3c0 1e5e d83f 44c5 423f b231 5140
00000140: beb9 6640 b353 cdbf cb6a 85bd 17e7 5b3f
00000150: 0309 d9be 0c5c 223f e3fe ae40 8d8d bdbf
00000160: 2985 edbe f262 3fbf b7a3 7ebf b792 13c0
00000170: 2523 1b40 c8d2 37be 8b51 2ebe 7b2f 56bf
00000180: 573a 5ac0 1b1e 0740 ea66 4dc0 3617 913d
00000190: eae4 bbbe efb0 3e3f acc4 1440 fb6f 1ac0
000001a0: d44d b1be bb96 f6bf 4482 3440 6a24 fbbe
000001b0: 2710 d43f 927c b4bf db6b b340 9c1a c7bf
000001c0: 865d 6740 212a 923f 29fa 0240 b2a0 08be
000001d0: 5f66 9bbf b295 8f3f dae6 343e 247c 04c0
000001e0: b6a4 f0bf 3bce f13f 6c0b edbf e648 f73f
000001f0: 2616 4440 ed22 8b3d 0563 59be 84ae 213e
00000200: cd35 1d40 4ea8 b5c0 49cb dcbe 27c6 d53f
00000210: f650 893f 1222 cbc0 925a df3f 2980 44c0
00000220: a369 91c0 359e 923f 3820 fcc0 3ddb 4b40
00000230: 6541 6540 2736 3441 1154 763f f60b 4dc0
00000240: bbb4 0340 fa62 f53f c7e1 b540 c15f 1ec0
00000250: 4efb 4c40 da79 9340 7cb5 6cc0 b0b2 2040
00000260: f0b3 d8bf 2ae8 31bf 01f5 493f 23a7 87bf
00000270: 1a0c b1bf bba4 3dbf cedc 31c0 ecca c63e
00000280: 6496 ff3f bdb2 afbe 9150 bf3f 7cdf 9bbf
00000290: 4f65 32c0 73e2 803d cc7a 43c0 403f 103e
000002a0: 40b2 0540 9ccc e33f c35d 0a40 6431 4f40
000002b0: c831 95be 54cb 4f3f 3eaa 2340 daf0 0c41
000002c0: 3d50 c03f 7d5c 84c0 adef b9bf 6884 9b3f
000002d0: cf53 923f 147d a7bf 6f02 1ac0 8ccd d8c0
000002e0: 81bc 9cbf a66f 9e3e bbbf 33bf a6ce 02c0
000002f0: 6021 303f cf15 28c0 9fc2 cc3f 740a 9cbf
00000300: 05ea debe d57a 173f a317 dd3f f8de 8d3f
00000310: 2913 1f3f 55e7 f6be 3855 95be 3786 373f
00000320: 5dce 56bd d8ce a7bf f0b2 c8bf e381 da3f
00000330: f399 f53f 25fd 76be 49eb b33f 9fe2 a7be
00000340: 237c f4bf b746 ecbe 10d4 42bf 2984 ea3e
00000350: 534c 7d3e 671f d1bf 670f c7be d347 11be
00000360: ce50 10c0 a5ef 9c3c 44d6 913f ffe6 153d
00000370: c9c1 d63f d263 60bf bc4c 53bf 2469 1a40
00000380: 5ac8 bebf 511b 11bf f3e2 293e 52e0 1ebf
00000390: 1968 113f eeb0 b93e d0e2 ddbf 5ed3 f03f
000003a0: 4f0c 7e3f 399a 08c0 b53d aebf d2b0 fbbf
000003b0: ab53 ea3e e88b 713f dcc5 c03d 80d6 1240
000003c0: e201 ae3f 7ff7 9bbe 18ae 42bf c80b 833f
000003d0: d5a0 1dbe 1ec1 393f 9b55 af3e a213 bc3f
000003e0: 2f08 84bf 1791 97c0 520f 7e3e de13 663e
000003f0: 82b8 0e3f 84a9 28c0 5199 cb3e 8065 62bf
-4.695537 -3.5505748 -2.644531 1.3584596 -0.7633563 1.7238377 0.20972793 1.8488182
-2.1878119 -7.305073 2.2003314 3.3400238 -3.674385 2.391569 -3.5191169 -1.3138046
-0.6831244 2.728861 1.4094552 0.0025738452 -0.80422235 2.7774644 -1.3569602 0.098992206
3.124646 4.185468 -1.4724216 -0.72093123 -5.59007 -0.67055506 -1.2553381 -1.8164569
-1.5060993 -0.3338612 -1.7354349 1.4400171 -1.4609796 -0.5265371 1.4973844 1.4834032
-0.3798215 0.22595344 1.4759321 -0.87203956 2.5538054 -1.7289394 1.5858487 -1.116596
1.0162063 2.1772292 0.4333146 2.9893763 1.9017218 -1.4433857 -0.6566459 -2.6804223
0.24080358 0.70520014 -1.0935774 -0.56398857 -0.5380428 -0.8269864 -0.89288926 1.7285041
0.16758032 -1.2206919 0.53596693 -3.5133512 -3.4715474 2.6983392 1.2590255 0.19248907
-2.6859248 2.4891088 -2.5818093 1.4316306 -5.10435 1.6903722 0.76082253 3.2686582
3.6050868 -1.6041168 -0.0651451 0.8589949 -0.42389688 0.634217 5.468614 -1.4808823
-0.46390656 -0.74760354 -0.9946856 -2.3058298 2.42402 -0.179515 -0.17023294 -0.836662
-3.4098108 2.1112125 -3.2094064 0.07084505 -0.36698085 0.7448873 2.324504 -2.4130847
-0.3462969 -1.9264749 2.8204508 -0.4905122 1.6567429 -1.4100516 5.606916 -1.5554996
3.6150832 1.1419107 2.0465186 -0.1334255 -1.2140616 1.1217558 0.17666188 -2.070077
-1.8800266 1.8891062 -1.8519111 1.9319122 3.0638518 0.06793771 -0.21229179 0.15789229
2.4564087 -5.676795 -0.43123844 1.6701096 1.0727832 -6.347909 1.7449515 -3.0703223
-4.544145 1.1454531 -7.878933 3.1852562 3.5821164 11.263221 0.96222025 -3.203855
2.057906 1.917083 5.6838107 -2.4745944 3.2028384 4.6086245 -3.698577 2.5109062
-1.6929913 -0.6949488 0.7888947 -1.0597881 -1.3831818 -0.74079484 -2.7791018 0.38826692
1.996777 -0.34316054 1.4946462 -1.2177577 -2.7874334 0.06293192 -3.05437 0.14086628
2.0890045 1.7796817 2.1619728 3.2373896 -0.29139543 0.8116963 2.5572658 8.808802
1.5024487 -4.13629 -1.4526268 1.2149782 1.1431826 -1.3085046 -2.4063985 -6.775091
-1.2245027 0.30944556 -0.7021443 -2.0438628 0.68800926 -2.626331 1.5996894 -1.219069
-0.43537918 0.591718 1.7272838 1.108367 0.6213861 -0.48223367 -0.2916658 0.7168917
-0.052442897 -1.3109999 -1.5679607 1.7070888 1.9187607 -0.24120004 1.4056178 -0.32790086
-1.9100384 -0.461477 -0.7610483 0.45803955 0.24736147 -1.6337708 -0.3887894 -0.14187555
-2.254932 0.01915724 1.1393514 0.03659725 1.6777889 -0.87652314 -0.8253896 2.4126673
-1.4904892 -0.56682307 0.1659048 -0.62061036 0.56799465 0.362678 -1.7334843 1.8814504
0.9923753 -2.134413 -1.3612581 -1.9663336 0.4576696 0.94354105 0.09412739 2.294342
1.3594325 -0.30462262 -0.76046896 1.023797 -0.15393384 0.725603 0.34245 1.4693491
-1.0314997 -4.736461 0.24810532 0.22468516 0.55750287 -2.6353464 0.3976541 -0.88436127

lstm.weight_hh_l1 f4 [124, 31]
00000000: f11f 2dc0 46fd 18be 4b15 763f 4d44 1abf
00000010: f757 c33e 689c d73f d85c 6fbe 0dec 1240
00000020: f080 873f c33c 0940 d986 16be c612 9b3f
00000030: d27f d8bf e583 153f 0d96 1ac0 5800 673f
00000040: be03 573f 8ac6 a83f e0af ba3f 0970 91bf
00000050: 1fad c9bf 1f0b 51bf 11b0 913f 0d5a 1a40
00000060: 6431 77bf c491 8abf 1255 d73f 2b81 2cbf
00000070: c647 f73c d40a 1abf 9cf2 2ebd 8b06 493f
00000080: aa4e 98bf 3eb6 a93f 3ad7 a4bf 6715 563c
00000090: bbe5 273f e0c3 07bf f1c1 b33e c301 b23f
000000a0: 5f13 5a3f 400d 9a3e e127 f13f af4f e0bf
000000b0: 1bfa 283f 94ab cb3f 462f 7b3f b8af 633f
000000c0: ef20 39bf 64d3 cd3f 14f3 7d3d bf4b eebe
000000d0: b89f 13bf 5308 bf3f 7bf4 3f3f 8ed6 68be
000000e0: 52dd 09c0 7215 46bf c76f 8dbe cfe0 34be
000000f0: e0c3 a0bf 93c3 813e c639 8bbf 19ca acbd
00000100: bf6b 55bf 2e01 ee3e 07d0 06bf aca9 d83d
00000110: 9f00 82bd 128a e73e 297c fcbd 3a5f 10be
00000120: b183 463d 3eb6 d53f 6953 6abe d70f 9cbf
00000130: 2374 983f 9f3a 1940 8d70 4b3f 0c0d 9fbe
00000140: 951c 9f3f b5b5 a43f 8b9e 1dbe 7d96 b33e
00000150: 422a b23e 2a3b 553f 3151 5740 b611 5cbe
00000160: 6efc 3f3f 6d4d ae3f 0995 a83d 9e0f e5be
00000170: 6baa 2140 1394 a9be 24da cebe 645b 823f
00000180: 99c2 b43f c586 0e40 e351 0e40 0da9 f53e
00000190: 5ecc 0abf 78e4 c63f 5b5e 92bf b184 423e
000001a0: 5d13 8cbf ba75 a9bf c794 1cc0 b1c2 1840
000001b0: 1f8c 083f 28a9 f7bf 96de 1d3e 515b 783e
000001c0: c882 31c0 0f3d 91bf 4aea c8bf d47b c1bf
000001d0: 2e6c 4340 6a92 9b3f a202 25c0 ea5e b1bc
000001e0: b689 d53f 3cf8 e2bf 081e 90bf c82d 8c3f
000001f0: 2f0a 3440 645f 69c0 c370 ce3e 1d2e a43f
00000200: 1824 bdbf 61d2 38bf ab81 9fbf bc02 873a
00000210: d10a 2040 3fda fdbf 6c5d 2ebe 4a74 1440
00000220: 786c ffbd 4171 ea3f 7376 e13f a026 14bf
00000230: 6490 cb3f 15d2 8dbf b282 55c0 45e5 c63f
00000240: 8cfc 30c0 d60b 463f 78a5 2c40 172b 8e3f
00000250: 3d20 a13e 278e babf d6ab 0e40 4d02 93c0
00000260: c59a 05c0 a57b e1bf 197c ed3f 759a 0240
00000270: 2643 8bbf 5216 c83f 2a4c ad3e 54a8 0fbe
00000280: e61c 27c0 b3ee 78bf 5aeb b43e e24d b53f
00000290: 193e 95bf b5d4 c83d da42 1340 2cbc 973e
000002a0: 226a 09be 7ac5 de3f 9e0e 083f 9cc2 713f
000002b0: e813 8abf 8750 7abe 8e99 0440 4243 593f
000002c0: 8f13 1640 3af7 b73f b8be 563f f5a8 78be
000002d0: d03e f6bf 07c1 e63f 2825 89bf d8d2 7b40
000002e0: f6be d6bf 5789 f63f 315d 803f 0e9f c8bf
000002f0: 15a6 8b3f 562e 60bf 6bb6 333e f671 b9be
00000300: 849f 6bbe 5621 8b3f 4942 1a40 ae02 c0bf
00000310: 0abc 913e 9604 ff3f de20 12c0 e510 d53e
00000320: 6b6b ec3f 95d2 a53f e6cd de3c 11ab 45be
00000330: ea02 ea3f d011 943e 4195 613e 4ddc d5be
00000340: 34e7 e63f 898e 43bf 372f 22bf fdc3 29c0
00000350: fa17 ae3f aa05 d1bf 4bd1 d03e 1d8d 01c0
00000360: 06c7 e1be 3af8 8ebf 1578 7e3f 3b49 2bbf
00000370: b7bb 9abf 38d7 ecbf 677d 0940 24f4 b13e
00000380: d16a 933e 3207 52c0 2eba 4f40 b6f1 8abe
00000390: a14e 12c0 b6f0 2a3f 2061 31c0 afa1 50c0
000003a0: 891c f7be 9cf0 f03f 8374 79bf 95b0 1f3f
000003b0: cec0 0e40 6d00 e9bf e05d 31c0 3d72 aabf
000003c0: 6ec4 d63f 17b4 f33f c8dc c03f e4ca 0ec0
000003d0: b4c6 0540 83d6 efbf 00eb 2440 3474 1440
000003e0: a7fe 3a40 67df bfbf ffcf 933f 0142 36bf
000003f0: df74 1bc0 98fd e13f 3292 c5bf a203 913e
-2.7050745 -0.14940366 0.9612624 -0.6026047 0.3815305 1.6844606 -0.23375261 2.2956574
1.0586224 2.1443336 -0.14699878 1.2115104 -1.6914008 0.5840438 -2.4154084 0.902349
0.83990085 1.3185589 1.4584923 -1.1362315 -1.5755957 -0.81657594 1.1381856 2.4117463
-0.9655974 -1.0825734 1.6822836 -0.67384595 0.030185591 -0.6017277 -0.04271184 0.7852561
-1.1899006 1.3258741 -1.2878182 0.013066626 0.65584916 -0.53033257 0.35108903 1.3906788
0.8518581 0.30088234 1.8840295 -1.7524318 0.6600663 1.5911736 0.9811901 0.8894
-0.7231588 1.6080136 0.061999395 -0.46542165 -0.57665586 1.4924415 0.7498242 -0.22738096
-2.1541333 -0.7737647 -0.27624342 -0.17663883 -1.2559776 0.25344524 -1.0877006 -0.084369846
-0.8336753 0.46485275 -0.52661175 0.10579237 -0.06347775 0.45222527 -0.12328369 -0.14098826
0.048465434 1.6696241 -0.22883381 -1.2192334 1.1910442 2.394203 0.79468614 -0.3106464
1.2430598 1.2867953 -0.1539251 0.3507575 0.34797865 0.832934 3.3643305 -0.21491131
0.7499455 1.3617378 0.08231551 -0.44738477 2.5260265 -0.33120784 -0.40400803 1.018414
1.4121886 2.2269757 2.223748 0.47980538 -0.5421809 1.5538473 -1.1435045 0.1899593
-1.0943409 -1.3239052 -2.4465806 2.386883 0.5333881 -1.9348497 0.15416941 0.24253584
-2.7736073 -1.1346759 -1.5696499 -1.5115914 3.0534778 1.2154057 -2.5782857 -0.021651704
1.6682651 -1.7732005 -1.1259165 1.0951471 2.8131216 -3.6464472 0.40320405 1.2826573
-1.477664 -0.7219601 -1.2461447 0.0010300498 2.5006602 -1.9832228 -0.17027825 2.3195977
-0.12471861 1.8315812 1.7614273 -0.5787144 1.590344 -1.1079737 -3.336102 1.5538718
-2.7654142 0.7736181 2.6975994 1.11069 0.31469908 -1.4574631 2.229238 -4.594031
-2.0875714 -1.7615858 1.8553497 2.0406773 -1.0879867 1.5631812 0.3384717 -0.14029056
-2.6111388 -0.97239226 0.3533581 1.4164393 -1.1659576 0.09806196 2.3009553 0.2963575
-0.13419393 1.7404015 0.53147304 0.94437575 -1.0787325 -0.24444781 2.0718722 0.8486825
2.3449438 1.4372323 0.83884764 -0.24283202 -1.9237919 1.8027657 -1.0714464 3.934744
-1.6777027 1.9260663 1.002844 -1.567354 1.0910059 -0.87570703 0.17550056 -0.36219758
-0.23010069 1.0869548 2.4102957 -1.5000818 0.28463775 1.9923275 -2.283256 0.41614452
1.8470281 1.295489 0.02719779 -0.19303538 1.8282139 0.2891984 0.22029592 -0.4176964
1.8039308 -0.76389366 -0.63353294 -2.6525872 1.3601067 -1.6329854 0.40784678 -2.0242379
-0.44097155 -1.1169503 0.9940198 -0.66908616 -1.2088536 -1.850318 2.148279 0.34756577
0.28792432 -3.2816892 3.2457385 -0.27137536 -2.2860491 0.66773546 -2.771553 -3.2598684
-0.48263958 1.8823428 -0.9744341 0.6237882 2.2305179 -1.8203255 -2.7713547 -1.3316113
1.6778696 1.9039334 1.5067377 -2.2311335 2.0902529 -1.8737339 2.5768433 2.3195925
2.9217927 -1.4990052 1.154785 -0.71194464 -2.4290082 1.7655516 -1.543524 0.28323084

lstm.bias_ih_l1 f4 [124]
00000000: fa5f 253f 74c8 f53f 95a8 65bf 2dc9 4cbf
00000010: f0fa dd3f 6c39 393e 005a be3f 57dc 15c0
00000020: a2b7 95bf 71f6 a3bf 0dea c2bf c362 b9bf
00000030: 6faf 2cc0 752c b63f 6451 1ac0 d920 6b3f
00000040: a4d6 a83f d243 30bd 6690 ce3f e6b2 e73f
00000050: 41d4 ba3f add5 e83f 6d48 223f 1bd7 af3f
00000060: dca5 b13f e559 13c0 b2e7 bebf 2c26 f4bf
00000070: 73cf 1a3f e4f3 35c0 ad21 053e b7fe a2be
00000080: 3e5a a63f 5745 ebbf 8aae 13bf bea6 9cbf
00000090: d5a5 e0be b87a 553f d553 08c0 5ebe 61bf
000000a0: 47e7 18c0 0428 2cbf d7bd dfbf 392a e7bf
000000b0: cd6c ad3f 56a6 ffbf c4cc 653f 1dd7 ea3f
000000c0: 5a37 653d 9715 8abf 11ed 803f b061 e53e
000000d0: a87b b6bf 0737 ba3f 74d0 eabe 77de b43f
000000e0: c2c9 09c0 9b1e 0ec0 6866 d5bf 96bc 98bc
000000f0: d191 01c0 60b9 343e 1cbe 9cbf b61f bf3e
00000100: 27d6 3fbf ed3a 0dbd 5f0f c33e 582b f8bf
00000110: 6679 3c3f 91a3 bebc 2930 bbbe 9222 acbf
00000120: 85fd 423f bdfd d73f 36ea 113f 0f09 d33f
00000130: f3f1 0d3f 2cf7 013f 91fa 793f 2589 803f
00000140: a5ec b4be 183a 71bf 32bb 973f ddac 943f
00000150: a060 ad3f 9427 24bf 7852 dabf 0d6b e03e
00000160: 92e4 fa3d af38 1dbf 0619 d73f 4158 86bd
00000170: 6922 21bf be11 fabf 09fd c5bf 6337 9ebf
00000180: d945 97bf c293 bfbf bf17 83bf 02b5 aabf
00000190: 26db 3ac0 d577 a7bf 8ee7 e8bf 4ae9 e7be
000001a0: 4e17 053f c4f8 3bc0 e1ea e63f e861 b5bf
000001b0: b73f 97bf 6e46 143f 9c46 efbe a705 eabf
000001c0: 73da 363e 75f6 77bf 9f02 cebf 9073 e9be
000001d0: 0c91 643e e66f 4a3f b9ca 61c0 7e9e b6bf
000001e0: fbf8 8f3c 6083 86bf fc61 3ac0 3df3 cf3f
0.64599574 1.9201798 -0.8971036 -0.7999447 1.7342205 0.18088311 1.4871216 -2.3415735
-1.1696665 -1.2809583 -1.5227677 -1.4483265 -2.6982076 1.4232317 -2.4112177 0.91846997
1.3190503 -0.04303343 1.6137817 1.810147 1.4596025 1.8190209 0.6339176 1.373752
1.3878741 -2.3023617 -1.4914458 -1.9074149 0.6047279 -2.843011 0.13001128 -0.31834957
1.299629 -1.8380536 -0.576882 -1.2238386 -0.4387652 0.8339038 -2.1301167 -0.881811
-2.389116 -0.6724856 -1.747981 -1.805976 1.3548828 -1.9972637 0.8976557 1.8346897
0.05596099 -1.0787839 1.0072347 0.44801092 -1.4256487 1.4548043 -0.45862162 1.4130391
-2.1529393 -2.220618 -1.6671877 -0.018644612 -2.024525 0.1764884 -1.2245517 0.3732888
-0.74936146 -0.034480024 0.38097665 -1.9388227 0.7362274 -0.023271354 -0.3656018 -1.344805
0.7616809 1.687431 0.56998 1.648714 0.5544731 0.5076778 0.9764796 1.0041853
-0.35336795 -0.9422927 1.1854002 1.1615254 1.3545113 -0.6412289 -1.7056417 0.43831673
0.122506276 -0.6141462 1.6804512 -0.06559802 -0.6294313 -1.9536664 -1.5467845 -1.2360653
-1.1818191 -1.4966967 -1.0241622 -1.3336489 -2.9196258 -1.3083445 -1.8195665 -0.45295173
0.51988685 -2.9370584 1.8040429 -1.4170504 -1.1816319 0.5791997 -0.46733558 -1.8282975
0.1785677 -0.9686044 -1.609455 -0.4559598 0.22320956 0.79076993 -3.5279982 -1.4267118
0.017574778 -1.0508842 -2.9122305 1.6246105

lstm.bias_hh_l1 f4 [124]
00000000: 66a8 173f 3e6d eb3f 9a5f 60bf 038d 75bf
00000010: 5d1f d93f 93c5 a93d 3300 a43f b8e1 0fc0
00000020: d737 8cbf faba cabf 135e c4bf 61c9 9ebf
00000030: 5fd6 31c0 5922 cb3f 9796 10c0 ce67 943f
00000040: 934f b43f ecfd 383b 96db e43f a5cb 0040
00000050: 5c9b dc3f d9dd ef3f e4c3 3a3f 2d3b af3f
00000060: 1441 a23f a84d 0bc0 0c3c bebf 34fb debf
00000070: ed0b 0e3f aa5e 27c0 52bb b4bd d3ac bdbe
00000080: 1a4d b73f 5f1a 04c0 8db8 ecbe 8ed7 b9bf
00000090: bdae eebe ab58 7f3f 315a febf 6e10 84bf
000000a0: f090 0ac0 db27 4ebf cbba b9bf f104 c1bf
000000b0: 5774 a93f 1e19 fbbf df66 6b3f d93a cf3f
000000c0: ad68 bd3d cd48 a7bf 9a96 4f3f 8c0e 1b3f
000000d0: ff9d b8bf bd5e a83f 7431 90be a21d c13f
000000e0: a00e 09c0 d9e6 05c0 df97 cebf 2d33 583e
000000f0: 1b92 06c0 8c91 c13e db09 b7bf 5ac7 1e3f
00000100: a7ee 4cbf 1ae7 03be 699d 1c3f e9f7 ffbf
00000110: d286 123f b377 b9bd ed9c adbe d5d8 9ebf
00000120: cb0f 593f 6745 d13f 08cf c73e 9530 d83f
00000130: f3ee c73e 5934 3c3f afae 643f 773f 6f3f
00000140: faaf 30bd 9456 40bf 801b 993f d343 823f
00000150: 7f67 a73f 4a7f 56bf 5560 e0bf 522b 0c3f
00000160: cddd 2b3e fb12 16bf 9bd0 cf3f 9fb4 b4bd
00000170: 2589 44bf 72c2 f6bf bfa1 c0bf 3004 6dbf
00000180: 1d63 97bf 72ed b5bf d587 8ebf c8f2 83bf
00000190: 76b2 42c0 ab44 96bf 4caa eebf f71f 13bf
000001a0: 77b3 1b3f 792a 45c0 968a ed3f ae96 b8bf
000001b0: 13ea 9cbf de06 393f 6ee4 31bf e884 c4bf
000001c0: 27f0 713e 2115 85bf 29c7 f3bf 4f69 8dbe
000001d0: 96e7 343e ae87 413f 9b80 67c0 66dc c3bf
000001e0: d7ad 66bd 3f04 78bf 29b9 4ac0 2b4a f43f
0.5924133 1.8392713 -0.87645876 -0.9591829 1.6962696 0.082896374 1.2812561 -2.2481518
-1.0954541 -1.5838311 -1.5341209 -1.2405206 -2.7787092 1.5869857 -2.2591913 1.1594179
1.4086784 0.002822752 1.7879512 2.0124295 1.7234912 1.8739578 0.72955155 1.3689934
1.267611 -2.1766148 -1.4862075 -1.7420411 0.5548695 -2.6151528 -0.08824791 -0.37045917
1.4320405 -2.0641096 -0.4623455 -1.4518907 -0.4661769 0.9974467 -1.9871274 -1.0317514
-2.1650963 -0.80529565 -1.451013 -1.5079633 1.3238629 -1.961704 0.91953844 1.6189834
0.09248481 -1.3069092 0.81089175 0.6056907 -1.4423217 1.3153912 -0.2816273 1.5087168
-2.1415176 -2.0922148 -1.6140097 0.21113272 -2.1026676 0.37806356 -1.4299883 0.62022936
-0.80051655 -0.12881127 0.6117769 -1.9997531 0.5723697 -0.09056034 -0.33908787 -1.2409922
0.84789723 1.6349305 0.3902514 1.6889826 0.3904949 0.73517376 0.89329046 0.93456215
-0.043136574 -0.7513211 1.1961517 1.0176948 1.307846 -0.8378798 -1.7529398 0.547536
0.16783829 -0.5862271 1.6235536 -0.08823513 -0.76771766 -1.927809 -1.5049361 -0.92584515
-1.1827122 -1.4213088 -1.1135203 -1.0308466 -3.0421424 -1.1739706 -1.864572 -0.5747065
0.60820717 -3.0807173 1.8557918 -1.4420984 -1.2258934 0.72276103 -0.6948918 -1.535306
0.23626767 -1.0397073 -1.9045154 -0.27619407 0.17666468 0.75597656 -3.6172245 -1.5301635
-0.05631813 -0.9688148 -3.1675513 1.9085134

fc.weight f4 [1, 31]
00000000: a569 b23d 7e9a a3bc e3d6 863e 2d00 0abd
00000010: f905 a8be 2cf6 0ebe 2453 a73c 3b63 8bbd
00000020: a1c6 fdbd d547 ee3e fd8e 2fbe a51d 18be
00000030: 100d 553d 676a 113f 53b5 963e d4f6 11bf
00000040: d121 0bbc f68f 183e 09eb 08be a244 8e3d
00000050: 8610 a23e 98e1 263e 8d41 cb3d b349 dbbe
00000060: 8cd6 adbe d6e4 dd3b a4bc 5bbd 0f68 e03d
00000070: 61ee 163e da80 1f3f 0b8e 75be
0.08711556 -0.019971129 0.2633582 -0.033691574 -0.32817057 -0.13961095 0.020425387 -0.06806036
-0.12391401 0.46539178 -0.1714439 -0.14855058 0.05201441 0.5680298 0.29435214 -0.57017255
-0.008491949 0.14898667 -0.13370909 0.069466844 0.3165323 0.16296995 0.09924612 -0.42829666
-0.3395275 0.006771664 -0.0536467 0.109573476 0.14739372 0.62305987 -0.23979966
