Backend/SavedModels/lstm_model_state_dict.pth (torch, 56252 bytes, 9 tensors)

lstm.weight_ih_l0 f4 [124, 9]
00000000: 2119 7cc0 9519 75c0 ad34 29c0 c8c7 26c1
00000010: 233f 8e40 267b 40c0 1208 84c0 ed73 cbc0
00000020: f91e 81c0 3649 273e a5a5 b13e 68f7 89bf
00000030: 71fa d740 3f38 6a40 36da 84bf 7675 dfbf
00000040: b50c 61c0 955d de40 5730 d340 1948 f240
00000050: 89eb 7540 01a7 2f40 55d8 43c0 d8d6 8040
00000060: 0ea4 5540 a02e e9bf d728 dcbf 916c afbf
00000070: a1dc a0bf 037b e0bf 1e10 4e40 2227 34bc
00000080: 58dd dbbf a81f 24c0 c216 dcbd a03f 4f3e
00000090: 55dc ad3f 7396 2b40 8169 03bf a194 6540
000000a0: 5c39 3440 d32b cebd deb0 49bf 2d01 8f40
000000b0: ed32 a53f 6a54 e33f 481f dc3f ac5e b93f
000000c0: 819e 043d 6853 edbe eaef c13f 23a0 ba3f
000000d0: 27dc f0bf b900 0d40 5fe5 3dc0 b0db 2fc0
000000e0: cf9e 52c0 1573 7040 4c63 36c1 aa8e 3cc0
000000f0: 4159 38c0 d624 1a40 6a8a 4cbf e956 c040
00000100: e615 a240 5ba6 ab40 5598 44c0 f1c1 cd3f
00000110: 67a7 aa40 cafd 8540 7359 7e3e be7f 1ebf
00000120: 4f46 15c0 8d79 b1bf c6e6 81c0 2626 bc40
00000130: 9108 b940 c3c3 64c0 3d9c d6c0 1ee6 6e40
00000140: c0e7 d4bf b9f6 06bf 9f81 97bf ef8c 7bc0
00000150: 5309 ab40 b1e7 53bf dc27 6ac0 da0e c6c0
00000160: 195b 1440 1574 833f 8018 10bf 9264 4dbf
00000170: ebd9 00be b1e5 0e40 61d3 d6c0 54e4 c8bb
00000180: 86d7 a3bf c597 a040 20df 85bd e81b bf40
00000190: 5d45 2a41 2a09 b63f 258b 9240 5f9b 503f
000001a0: 67de e23f 7b25 213e bbb7 58bf 74d3 853f
000001b0: 2968 813f c882 863f 924e 5b3f f88c 42be
000001c0: 7a3a b33f d211 5d3f cb79 3b3f d846 b6bf
000001d0: e515 cf3a ad6a 59bf ab2f dc3e 80f2 f4be
000001e0: 6906 a540 7860 a8bf ae5b d1be 4411 863f
000001f0: c073 70c0 051a f240 fe63 9a3f b9d2 163f
00000200: ac44 df3e 8683 c6c0 c679 2d41 583b ac3e
00000210: 2ca2 9bbf 93b3 5d40 c3d1 d9bf a5d8 e840
00000220: 5d6e e040 77d1 c640 6e88 1bc0 2d42 2440
00000230: 4194 c040 738e a040 0d74 56c0 d942 803f
00000240: 7eb2 3abf e9b6 14bf 3079 30bf a2e8 92bf
00000250: 9433 853f af48 2abf e1c4 69be 6d0b 993e
00000260: 74e7 b4bf 95c3 01c0 6461 fabf cd17 00c0
00000270: c64d 0340 db31 3f3f 430b e3bf 33ca b6bf
00000280: 5f71 5c40 d607 03c0 7b38 a93f 0242 3e3f
00000290: eb60 843f 2506 c03b 2cf2 7dbf 58bc 793f
000002a0: a9bb 533e d5b7 fcbe 7f5d d43f 4e46 e3bf
000002b0: 6781 b7bf 7e6e 41bf 8b90 35bf 4d3c bd40
000002c0: 2e09 5abf 8396 0640 b8bf 39c1 0337 cb3f
000002d0: 6681 ad3f f626 873e ad96 98be 0534 f63f
000002e0: 227d 0fc1 59f1 b3be 5f58 adc0 2b59 ad40
000002f0: e57d 8040 4a95 30bd 8d56 a73c 874b 12bf
00000300: a1d6 f83e 5d7f 22c1 68ff 21bf 06c2 32c0
00000310: 9470 e440 2a98 0dc0 e14d 2d40 814c 2440
00000320: 8485 7640 df8d b140 1fd2 fdbd 3f6e 7240
00000330: d91f bd40 eb61 abbf 475d ee40 8e34 00c0
00000340: e788 2fc0 a45c 39c0 7118 7540 6a41 543f
00000350: 27a3 27c0 c370 8cc0 3f6c 533f 5b61 c940
00000360: 1876 13c0 15ce 36c0 f41b 7dbf 018b 98c0
00000370: 76b4 ebc0 ee53 8dbf c849 38bf e9ba 6a40
00000380: 83a3 0440 9d11 c43f b9e1 0740 3adc 283f
00000390: e89f 5d40 050f b1bf e3c3 6f3f 8a79 333e
000003a0: 98a2 243f 1ce1 e340 a481 00c0 6c46 f9bf
000003b0: cb13 13c0 7033 b0bf 6584 1741 8eee 10c0
000003c0: acd8 89bf 1a0c 9e40 9b48 51c0 ed13 03c0
000003d0: eb31 e1bf b34c 11c0 e586 133f 486d 5740
000003e0: 1108 febf 46cb 0ec0 7a54 20c1 ac76 2940
000003f0: 95bd 4440 10fa 0840 ad7f 6b40 2a75 80c0
-3.9390337 -3.8296864 -2.64384 -10.423775 4.445207 -3.0075164 -4.125985 -6.357901
-4.035031 0.16336522 0.3469669 -1.0778627 6.7493215 3.659683 -1.0379093 -1.7457721
-3.5164006 6.9489236 6.599651 7.571301 3.842501 2.744568 -3.0600789 4.026226
3.338138 -1.8217354 -1.7199963 -1.3705007 -1.2567331 -1.753754 3.2197337 -0.010995658
-1.7176924 -2.5644321 -0.10746528 0.20239115 1.3582865 2.6810577 -0.5133286 3.5871966
2.816001 -0.100669526 -0.787855 4.4688935 1.2906166 1.7760136 1.7197046 1.4482017
0.032377724 -0.46352696 1.5151341 1.458012 -1.8817185 2.203169 -2.9671247 -2.7477837
-3.290943 3.757024 -11.399242 -2.9462075 -2.8804476 2.4084983 -0.79898703 6.010609
5.065173 5.364057 -3.0717976 1.6074811 5.332935 4.18723 0.2483881 -0.6191367
-2.3324163 -1.3865219 -4.0594206 5.879657 5.7822957 -3.5744483 -6.706572 3.7327952
-1.6633224 -0.5272022 -1.1836432 -3.930477 5.344888 -0.8277541 -3.6586828 -6.189313
2.3180602 1.02698 -0.56287384 -0.80231583 -0.12583129 2.2327693 -6.713303 -0.0061307345
-1.2800148 5.0185266 -0.06536698 5.9721565 10.641934 1.4221547 4.5794854 0.8148708
1.7724122 0.15736954 -0.8465535 1.0455155 1.0109912 1.0508661 0.85666764 -0.18999088
1.4002221 0.86355317 0.73232716 -1.424037 0.0015799372 -0.849284 0.43005118 -0.47841263
5.1570325 -1.315444 -0.4089026 1.0474019 -3.7570648 7.565676 1.2061765 0.5891529
0.4360708 -6.203555 10.84223 0.33639026 -1.2158866 3.4640853 -1.7017139 7.276446
7.013472 6.2130694 -2.430202 2.566539 6.0180974 5.017389 -3.3508332 1.00204
-0.7292861 -0.580916 -0.6893492 -1.1477244 1.0406365 -0.66517156 -0.2282901 0.2989153
-1.4133134 -2.0275624 -1.9560971 -2.0014527 2.051622 0.7468545 -1.7737812 -1.4280456
3.4444196 -2.0473533 1.3220361 0.7431947 1.0342077 0.0058601075 -0.9919765 0.97553015
0.20677055 -0.49359003 1.6591033 -1.775583 -1.4336365 -0.7555922 -0.7092368 5.913611
-0.8517026 2.1029365 -11.609306 1.5876163 1.3555114 0.26396912 -0.29802456 1.9234625
-8.96805 -0.3514507 -5.4170375 5.417135 4.015368 -0.043111123 0.020427013 -0.57146496
0.4860125 -10.156095 -0.63280344 -2.7930923 7.1387424 -2.2124124 2.7078784 2.5671694
3.8518991 5.5485682 -0.12393593 3.787979 5.9101377 -1.3389257 7.4488864 -2.0032077
-2.7427309 -2.8962793 3.8296168 0.82912314 -2.619333 -4.388765 0.82587045 6.293134
-2.3040829 -2.8563282 -0.9887078 -4.7669683 -7.365779 -1.1041238 -0.7198758 3.667658
2.07248 1.5317875 2.123152 0.6596104 3.462885 -1.3832709 0.93658274 0.17526832
0.643106 7.121229 -2.0079126 -1.9474616 -2.298083 -1.3765697 9.469823 -2.2645602
-1.0769248 4.9389772 -3.2700565 -2.0480912 -1.7593359 -2.2703063 0.5762771 3.366045
-1.9846212 -2.2311568 -10.020624 2.6478682 3.0740712 2.1402626 3.6796677 -4.0143023

lstm.weight_hh_l0 f4 [124, 31]
00000000: 5073 1a40 1b12 38c0 2f6c 8a3f 9da5 ffbd
00000010: f5a0 2f3e 28e0 05be 61a6 e43f 0c0c 053f
00000020: c009 9bbf 0c37 a83f c08e 2340 c3e7 babd
00000030: 6d20 f6be 9df3 6ac0 2348 a13f 5ca2 863e
00000040: 29c5 af3f 650b 853f ede6 9d3f fa82 853e
00000050: b7c6 b23e bc61 32bf df32 7f3f f5a0 e3bf
00000060: 1be4 0240 ad42 a6bf 06e5 a3bf 8f82 10bf
00000070: 315e 90bf c742 7bbf 459a adbf 1bf1 22c0
00000080: 9bcd ce3e b0d8 87c0 25d7 2740 fb20 413f
00000090: a20c 0a3f 72cb 3540 a363 f43f c12b c93f
000000a0: 3a42 5e3f 8f49 5f3f 40b8 a33f 9ad6 31be
000000b0: 3d80 a2bf 9eee 163f e3e3 7bbf 0211 d83f
000000c0: b41f 23be 3b39 a33f 2df0 b8bf 51fe bcc0
000000d0: 29fb 17be d7db 3b3e 6fc5 9bbf 69f6 64c0
000000e0: 84f3 08bf d6b1 a3c0 10f3 32c0 64e9 58bf
000000f0: 8618 45bf 4657 4ebe 49c5 5abf e00d 023f
00000100: c4bb 89c0 db34 42c0 9945 ad40 56c1 9a3f
00000110: 6d5f 733f 67d8 ddbf 0267 b3c0 a5df 4ac0
00000120: cacc 7ebf 37a3 e03f f844 c7be 7208 bf3c
00000130: ddee 69bf 66ea e3be 8dc0 0440 2f0d 95bf
00000140: 9835 d5bf ed3d c43f d3cc 903e 6c96 1840
00000150: 6764 2c40 7c0f 7740 83cf acc0 3da1 48c0
00000160: 5082 6d40 8466 383f eefa 55bd 24e4 a3be
00000170: 8f86 04bf ff74 883f 7f16 b63f ed98 823f
00000180: 6b66 2cbf fb04 1140 56a8 67bf 4267 f03e
00000190: 23b2 59bf 4812 8b3f 20ff 813d 5723 11be
000001a0: 99a7 bcbf d8e1 703f cfe8 613f 23ae 2f40
000001b0: cf1b bf3d e3bb 833e c843 4e40 3702 8ebf
000001c0: b91c dabf 36e5 98bd 14b9 5fc0 1b26 5ebe
000001d0: bcec f6be 7cc1 b6bf b9d5 06c0 bdeb d1be
000001e0: 7c8b 983f 30bb debd 8ff3 f0bf c784 9940
000001f0: dea1 583f b904 4fc0 1910 09c1 695d c53f
00000200: 7240 bec0 d5b3 0e3f 1305 0640 edcf 42c0
00000210: 1d67 bbbf fa86 1dc0 8993 883e b44c 73c0
00000220: 33fa a5be fcee 45c0 cbac 3040 4fc1 ebbf
00000230: 9b5c e0bf 52c8 26c0 6b7a 813f a685 8040
00000240: dcf0 373c be62 4fc0 820e 30c0 23c9 d0bf
00000250: ed9f e2be c536 c03f d6f5 3dc0 d2f9 f63f
00000260: 0adf 2cbf e144 cbbe 2650 77c0 c668 5640
00000270: 1a8a 6f40 0c73 7840 18a0 e03f e3fa c4bf
00000280: 8070 0c40 31fc 59c0 5ec8 083f 9ed3 0fc0
00000290: fc8f 28c0 545b 05bf 2c9a 9c3f e5fd 0bbf
000002a0: 2c3c d23f 668e dbbf b7f8 8abd 4e67 b93e
000002b0: 10da 98be b7e7 6840 5611 853f 1c39 c43c
000002c0: 843c 3d40 d920 e6bf 5779 0240 cdb3 17c0
000002d0: f29d 98bf 2d32 c5c0 05a6 60bf a0ef 8dbf
000002e0: 5bff 2f40 127b 1a40 b622 9a40 9848 04c0
000002f0: 14ce 9f3d 01a5 0440 f682 7340 8aac bfbe
00000300: 84dd c040 8e94 a7c0 27ea c9bf 989d b1c0
00000310: 1ca8 4540 dfd1 3240 d35f 333f bb71 8fc0
00000320: b766 bb40 4bee 0540 3236 203e b035 94bf
00000330: e791 49c0 c2b0 35c0 3dfc 95bf 42fb 63c0
00000340: 92a6 2140 2e07 8c3e abbf c6c0 3da0 15be
00000350: c40a 803f 0200 603f a07f 2dbf c62a 0bc0
00000360: a49b 74c0 fde5 0340 5735 413f 1338 9ac0
00000370: 5270 843f 2bf7 dac0 5e91 9f3f b56b 7440
00000380: e92b 7a40 b691 bc40 7865 e23f 2986 883e
00000390: 29c1 acc0 86a9 b7bd 38f9 2fc0 bbd5 3040
000003a0: b368 02c0 aa5e 3e3f c5a0 12bf 220a ad3f
000003b0: 1337 833f ec05 3bbf 8026 1bc0 6bf0 70c0
000003c0: 5e1d 61c0 5723 d9bf cd5a 8040 3610 aac0
000003d0: db3f a8be d7a3 0f40 82e5 bebf ccbf bf3e
000003e0: 0f3a 0e40 3cd9 83c0 a73f 7540 8382 2f3f
000003f0: 549f f5be 1b72 2840 f598 9fbf 20c5 b93f
2.413288 -2.876105 1.0814265 -0.1248276 0.17151244 -0.1307379 1.7863275 0.5197151
-1.211235 1.3141799 2.5555878 -0.09126236 -0.48071614 -3.671119 1.2600139 0.26295745
1.3732044 1.0394102 1.2336098 0.2607649 0.34917232 -0.6968038 0.99687 -1.7783495
2.0451725 -1.2989098 -1.2804267 -0.56449217 -1.1278745 -0.9814877 -1.3562704 -2.545966
0.4039124 -4.245201 2.6225064 0.7544095 0.53925526 2.8405423 1.9092907 1.5716478
0.86819804 0.87221617 1.2790604 -0.1736702 -1.2695385 0.5895785 -0.983946 1.688019
-0.15930063 1.275184 -1.4448296 -5.9060445 -0.14841904 0.18345581 -1.2169627 -3.5775397
-0.53496575 -5.1154585 -2.7960854 -0.84731126 -0.76990545 -0.2015048 -0.85457283 0.5080242
-4.3041706 -3.034476 5.414746 1.2090251 0.95067483 -1.7331666 -5.606324 -3.1699002
-0.99531233 1.7549809 -0.38919806 0.023319457 -0.913801 -0.4451477 2.0742524 -1.1644648
-1.665698 1.5331398 0.28281268 2.384181 2.693628 3.86032 -5.400331 -3.1348412
3.7110786 0.72031426 -0.05224126 -0.32009995 -0.5176782 1.0660704 1.4225615 1.0202919
-0.6734378 2.265929 -0.90491235 0.4695378 -0.8503744 1.0864954 0.06347489 -0.14173637
-1.4738647 0.9409461 0.8824586 2.7450035 0.09331476 0.25729284 3.222887 -1.1094426
-1.7040015 -0.074655935 -3.4956713 -0.21694224 -0.4822749 -1.4277797 -2.1067946 -0.41000167
1.1917567 -0.10875547 -1.8824328 4.797458 0.8462199 -3.2346632 -8.56643 1.5419132
-5.945367 0.5574315 2.0940597 -3.0439408 -1.4640843 -2.4613633 0.2667506 -3.8015566
-0.3241745 -3.0927114 2.7605464 -1.8418368 -1.7528261 -2.6059766 1.0115484 4.0163145
0.011226859 -3.2404017 -2.7508855 -1.6311382 -0.4426264 1.5016714 -2.9681296 1.9294989
-0.6752783 -0.39700988 -3.8642669 3.3501449 3.742804 3.882022 1.7548857 -1.5389065
2.1943665 -3.4060175 0.53430736 -2.247291 -2.633788 -0.5209248 1.223455 -0.5468429
1.6424613 -1.7152832 -0.0678572 0.36211628 -0.29853868 3.6391428 1.0395916 0.023953013
2.9568186 -1.7978774 2.038656 -2.3703492 -1.1923201 -6.162375 -0.87753326 -1.1088753
2.7499607 2.4137616 4.816737 -2.0669308 0.07802978 2.072571 3.8048682 -0.37436324
6.0270405 -5.236884 -1.5774583 -5.5504875 3.0883856 2.7940595 0.7006809 -4.482633
5.8562884 2.0926692 0.15645674 -1.1578884 -3.1495302 -2.8389134 -1.1717602 -3.5622106
2.5257916 0.27349228 -6.210897 -0.14611907 1.0003285 0.8750001 -0.67772865 -2.1744857
-3.8219995 2.0609124 0.75472015 -4.819345 1.0346777 -6.842672 1.2466238 3.819074
3.90893 5.892787 1.7687216 0.26664856 -5.398579 -0.08967881 -2.749586 2.763045
-2.0376403 0.74363196 -0.57276565 1.3518717 1.0251182 -0.7305591 -2.4242249 -3.764674
-3.5174174 -1.696391 4.011084 -5.314479 -0.32861218 2.244375 -1.491379 0.37451017
2.2222936 -4.120268 3.83201 0.6855852 -0.4797312 2.6319644 -1.2468554 1.4513283

lstm.bias_ih_l0 f4 [124]
00000000: 99ed 6bc0 dddb b93e c6e1 e73f 286e e5bf
00000010: 41e6 8940 6874 9e3e a5a2 4bc0 e554 07c0
00000020: 22b5 be3f 3d7c 6540 cc46 d1bf 9bd1 f13f
00000030: 9889 48bf 6097 2e3f bbfc 5540 bf12 1ac0
00000040: f1de fcbf b88e 16c0 18f5 0840 38ea 96c0
00000050: 34ef 8a40 fa98 3840 c6ae 6cbf b889 2b3f
00000060: 1958 3dc0 3884 b0c0 1883 4fc0 db4d 8f3f
00000070: 8816 25c0 3b6f 03c0 177e a040 f557 49c0
00000080: 24ab cd3f c0cf 0440 15a6 cfbe 8c4e b93e
00000090: f481 1fc0 e967 34c0 3117 bbbe 6200 2c3f
000000a0: 4bdb 0b40 564f 8b3f d0ad 37c0 31d4 20be
000000b0: 5152 c93f 7da3 7140 365e 83c0 e67e e3bf
000000c0: ef1a 95bb 0d2f 0b40 2171 54bf dcdf 30bf
000000d0: 512d 70be d294 2740 f76e 1240 e1c3 63c0
000000e0: 4735 d4be 064b 4d40 672d 203f 15bd ffbf
000000f0: 7317 993f 3cde e9bf 826a 5c3f d219 a13f
00000100: 301e 82c0 9148 f63d f9e1 cfbf c296 bc3f
00000110: b2d2 a8bf de18 e23f 7f1a 27c0 ecbc 1ec0
00000120: c65d c63f a111 903f fd5f 3cbe e000 eb3f
00000130: ce5b 33c0 9123 ffbf 068b 973d c492 0fbf
00000140: 0671 dd3f 1654 4b3e f28e 0240 1e60 7940
00000150: ee8c aabf c345 1f3f 2a41 8c3e 647e c73f
00000160: 4df8 2fc0 82cb 6d3f 2a12 96bf 3807 6040
00000170: a570 59c0 113c e7bf 7154 7940 3084 b03f
00000180: 0a86 4cc0 755f 943f 44b1 cac0 1d09 c03f
00000190: cb54 9abf 622c 21c0 2efb be3f a2bd 80bf
000001a0: fe43 28c0 c8f3 82c0 e516 25be e3a3 1e40
000001b0: 1deb 21c0 23f2 15c0 a3ea 95c0 1b44 a2bf
000001c0: fe93 71c0 6ccd 34bf 0a16 d73f 9c89 133f
000001d0: 90a3 8fc0 30c5 a5bf 5fdb 013e 0118 8abe
000001e0: 04a4 c5c0 4be0 61c0 f2f6 c8bd d6fb 6140
-3.6863768 0.36300555 1.8115776 -1.7924242 4.309357 0.30948186 -3.181802 -2.1145566
1.4899027 3.585708 -1.634973 1.8892092 -0.7833495 0.6819973 3.3435504 -2.4073942
-1.9755536 -2.3524609 2.1399593 -4.716091 4.3416996 2.884337 -0.92454183 0.6700702
-2.958502 -5.51614 -3.2423763 1.1195635 -2.5795002 -2.053664 5.015392 -3.1459935
1.6067853 2.07518 -0.40556398 0.3619274 -2.4923067 -2.8188422 -0.3654113 0.67188084
2.1852596 1.0883586 -2.8699837 -0.15705945 1.5728246 3.7756035 -4.1052504 -1.7773101
-0.00455033 2.1747468 -0.8298512 -0.6909158 -0.23454787 2.6184583 2.2880228 -3.5588305
-0.41446897 3.207704 0.6256928 -1.9979578 1.1960281 -1.8270946 0.8610002 1.2586005
-4.066185 0.1202556 -1.6240836 1.4733508 -1.3189299 1.7663839 -2.6109922 -2.4802809
1.5497367 1.125538 -0.18395992 1.8359642 -2.8024783 -1.9932729 0.073995635 -0.5608332
1.7300117 0.19856295 2.0399747 3.8964915 -1.3324258 0.6221582 0.27393466 1.5585446
-2.74953 0.92888653 -1.1724293 3.5004406 -3.3975003 -1.8065206 3.895779 1.379034
-3.195681 1.1591631 -6.334139 1.5002781 -1.2057127 -2.518334 1.4920404 -1.0057871
-2.62915 -4.0922585 -0.16122015 2.4787529 -2.5299752 -2.3429039 -4.684892 -1.2677034
-3.7746577 -0.7062595 1.6803601 0.5763185 -4.488716 -1.2950802 0.1268134 -0.2697144
-6.1762714 -3.5293148 -0.09812726 3.5309958

lstm.bias_hh_l0 f4 [124]
00000000: 43e7 67c0 4469 ba3d 36f3 dc3f c433 c7bf
00000010: fd55 8840 601b 013f d5cc 4bc0 4264 18c0
00000020: 660a c33f fb93 6740 b730 e5bf b65a f33f
00000030: 7fac 57bf 0ca7 b83e f3df 5740 460c 29c0
00000040: 4b1d eebf 9a3f 06c0 2db9 0740 e9fa 99c0
00000050: 7b84 9140 e657 3a40 1eb2 7cbf b0eb f63e
00000060: 3993 43c0 4206 adc0 60e6 57c0 87dd 8b3f
00000070: ce83 22c0 1bcd 04c0 2935 a340 ad2f 47c0
00000080: f55f df3f 5103 fb3f ce49 c2be b881 c63e
00000090: 213c 20c0 f31b 39c0 aadc a9be f682 3c3f
000000a0: eae4 0a40 1c31 7b3f 0ab2 3ec0 5921 8f3d
000000b0: 90f5 e33f cb79 6040 55ca 82c0 51a7 cbbf
000000c0: f102 2cbe dd98 0840 820f 75bf dbe6 59bf
000000d0: e45a 22be a466 3240 24ac 0e40 f51f 5cc0
000000e0: c1e2 ccbe e425 3e40 db88 2c3f 6a52 ebbf
000000f0: 9aff af3f a166 f3bf 0d30 1e3f 0c88 8f3f
00000100: fc92 82c0 4a45 693d 29a2 d9bf da79 cc3f
00000110: 66c8 a5bf 77d0 0440 2181 16c0 8194 19c0
00000120: 62a3 c43f 2749 573f a06f 20be f075 f03f
00000130: a6e6 2cc0 07c5 06c0 4364 143e 10a9 b4be
00000140: 8df6 d83f 526c 95bd 21aa f83f 74ea 7b40
00000150: ec0e b7bf 8f27 483f 9d89 233e ccdf d33f
00000160: cecd 33c0 095f 933f 98ae bdbf 64d3 6240
00000170: fb7b 55c0 3f13 e7bf 8359 8040 5a1b b43f
00000180: 7936 49c0 607a bd3f 8e1e c2c0 4b69 c73f
00000190: e7fa b3bf 667e 32c0 1ef9 c33f ced1 93bf
000001a0: 636e 28c0 fe91 82c0 edb0 6dbe fd54 1a40
000001b0: 6ec1 1ac0 8337 04c0 8b69 8cc0 795c 92bf
000001c0: ec29 6fc0 6297 00bf 637f d33f ac87 173f
000001d0: 13d3 90c0 df5c b7bf b2e1 c23e fa95 c2be
000001e0: 3e49 bec0 b1fa 5fc0 ea4e 62bd 72a1 6240
-3.62349 0.09102109 1.7261722 -1.5562673 4.2604966 0.50432396 -3.184377 -2.3811193
1.5237548 3.618407 -1.7905492 1.9012058 -0.84247583 0.36064947 3.3730438 -2.641374
-1.860269 -2.097632 2.1206772 -4.8118787 4.547422 2.911615 -0.98709285 0.4822669
-3.0558608 -5.407014 -3.373436 1.092698 -2.5392947 -2.0750186 5.1002393 -3.112285
1.7451159 1.9610387 -0.37946934 0.38770843 -2.50367 -2.892331 -0.33176166 0.7363733
2.1702218 0.9812181 -2.9796166 0.069887824 1.7809315 3.5074337 -4.0871987 -1.5910436
-0.16797997 2.13433 -0.9572679 -0.8511788 -0.15854985 2.7875147 2.2292566 -3.4394505
-0.4001675 2.9710627 0.67396325 -1.8384526 1.3749878 -1.9015695 0.6179207 1.1213393
-4.0804424 0.056950845 -1.7002612 1.5974686 -1.2951782 2.0752237 -2.3516314 -2.399689
1.536236 0.84095997 -0.15667582 1.8785992 -2.7015777 -2.1057756 0.14491372 -0.35285234
1.6950241 -0.07296051 1.9426919 3.936185 -1.4301429 0.7818536 0.15970464 1.6552672
-2.8094363 1.1513377 -1.4818907 3.5441523 -3.3356922 -1.8052748 4.0109267 1.4070847
-3.1439497 1.4802971 -6.06623 1.5579008 -1.4060944 -2.7889647 1.53104 -1.1548402
-2.6317375 -4.0803213 -0.23212023 2.4114373 -2.418056 -2.0658882 -4.3878837 -1.143447
-3.7369337 -0.5023099 1.652325 0.59191394 -4.525766 -1.4325217 0.38062817 -0.38005048
-5.9464407 -3.499676 -0.05525104 3.5411038

lstm.weight_ih_l1 f4 [124, 31]
00000000: cc7d 753e 810a e6be 0cdf b73f c082 2e3f
00000010: b4cd 763f b521 97be 3453 1a3f aab1 afbe
00000020: 4a6b 813e 2304 413f 9963 cfbf e075 20bf
00000030: 7db0 4c3e 1bb8 72bf e9a0 6b3f 28b8 193f
00000040: 65e9 a1be d3fc d13e fec3 cdbe 586d dabe
00000050: 76ab 15be 5b01 2ebe 37b0 273f b24e f9be
00000060: 1fd3 afbe b26f a83e da50 f93e db50 513f
00000070: 3d47 013f 59e9 3abf 41b5 443f 631b 06bf
00000080: bbfb 8f3f 39d5 f93e cf30 983e c02d 02c0
00000090: d6a4 043f 1890 b2bf 92a1 7c3e 99c6 74bf
000000a0: e7ff 39bf c8b6 743e 1858 e03d db1a 6d3e
000000b0: 7b66 ad3f 075a f6bf 9bc8 babe 4834 ccbe
000000c0: 7e2b 90be 0d4a f83f d9dc 2abf 6dc2 f63e
000000d0: cc94 8abf c6f6 0ec0 5469 bb3e f987 e03f
000000e0: a08b f7bb 87e9 05bf b915 a13c 3ef7 3f3d
000000f0: 04ba 573f 58b7 88bf 2b51 e93d 8548 d93f
00000100: e0dd 4d3f a962 1dbe 92ef 39bf c2d8 6abf
00000110: c516 b0bf 0119 bf3e ba84 02be b086 02c0
00000120: a787 d7bd a102 1d3f fa9e d7be 3331 783e
00000130: 19c6 92be a439 d2bf 7035 9fbf 3bab 07bf
00000140: 2dda 9d3f c98b ccbf 9e86 28bf f96e e1bd
00000150: 4c4e 983d b658 0a3f e8f0 963e 820b 44bd
00000160: 5625 11bf cb7a a5be 139f 45be edda d73f
00000170: f317 83bf cccf fbbf 98dd 9fbe 27ea 5b3f
00000180: 030d 0c3f 41a2 c8bd 582e 3640 e12a b1bd
00000190: f853 8fbf 7ca3 0640 a68d 85bd 9ce2 04c0
000001a0: bfe0 27bf 72d0 0e3f 739b 7e40 fdec 943f
000001b0: 10b8 db3e d059 26bf 49c5 663f fc3b d13d
000001c0: b431 11c0 de6f c5be bf5c 97c0 bcc3 2dbf
000001d0: 7328 653f 9916 d7be 324f b03e a0bc e8bc
000001e0: 55a5 633e ead0 0a3c 314b 81bf 0316 70bf
000001f0: 56fe c43f 66ac 223f 4feb b6bf 5357 5dbe
00000200: 4edb 57c0 7544 3fc0 e25a c2be 5115 273f
00000210: b65b a8bf d9f1 d8bf 5c36 a83f dc5b bb3d
00000220: efa1 2abf c858 13be 1fb5 a0bf 99cd af3e
00000230: 2f80 263e b0b6 61be 3026 8ebf 0d75 b53f
00000240: d983 403f 3bbf b740 78d4 e6be 3a5a ff3e
00000250: eef8 33bf 958e ef3d 90d4 be3f e43d fd3f
00000260: b584 30c0 279c 1040 6b02 8440 6094 cbbf
00000270: 9c38 ac3e 3c3e 0ebd bd59 a0be f6b0 953f
00000280: 0131 6ebf 4961 28bf 7f67 17bf e329 143e
00000290: 4ed8 403a 262b bcbf 2174 0abf 1bc1 613d
000002a0: 045c 8abe 70e7 173f 72b5 873e f704 7e3e
000002b0: fdc6 583e b34e 6bbe 0ce4 50be cd79 c7bf
000002c0: 1785 33bf 4bd3 2d40 f7cf dabe dbca e0be
000002d0: 1e67 18be 82fa 803f cec1 c13e cae4 48be
000002e0: 0692 82be 4118 b5bf 8c26 ff3f 8503 5040
000002f0: c4b8 8540 2c14 dabe bcaa 3e3e 9761 083e
00000300: 3e19 0b3f 02e0 90bf 079e 09c0 4831 173f
00000310: 8646 15c0 dca5 4e3f 6a83 b33e 7835 24bf
00000320: c266 11bf 04ed 9ec0 417c a4be 6749 91be
00000330: 9ae6 21bf 777c 3b3f e8e9 51bf 2b81 1abf
00000340: 871a 93c0 6961 76bc 89e0 033f 6106 003f
00000350: c00b 27c1 fdbb 32bf 76fb 2e3f e7db fe3f
00000360: b978 9dc0 8aab 2941 06c4 14c0 8d2a ff40
00000370: 7572 f23e 8eb7 f7be bd17 e740 8e54 c5be
00000380: 9d88 e2bf ce14 9640 9bf4 36bf 002d 6840
00000390: 774d 27c0 d495 0e40 d9e9 bc3f 87f2 09c0
000003a0: fd59 d2bf 1bb9 aebf a6d5 1dc0 4b0f ff3f
000003b0: f577 403f a020 1f40 1f02 e540 1bc5 24c0
000003c0: dc23 0741 513d 863f a1da 99c0 85a1 4a40
000003d0: 8e21 47c0 34c6 68c0 d77e 19c0 e4e5 bf3e
000003e0: 5db4 1d40 abfa 0ac0 44ff 5540 e775 2f3f
000003f0: 8d2c 6ebd 710a 1840 777c 443f c6a4 243f
0.23973769 -0.4492989 1.4364944 0.6816826 0.9640763 -0.29517904 0.6028321 -0.34315234
0.25277168 0.7539694 -1.620227 -0.6267986 0.199892 -0.9481217 0.92042404 0.60046625
-0.31623378 0.41013202 -0.40188593 -0.42661548 -0.14616188 -0.16992705 0.6550326 -0.48692852
-0.3434076 0.32897717 0.48694497 0.81764 0.50499326 -0.7301231 0.7683907 -0.5238554
1.1248697 0.48795488 0.29724738 -2.0340424 0.5181402 -1.3950224 0.24671009 -0.95615536
-0.726561 0.2389785 0.109543025 0.23154776 1.35469 -1.9246224 -0.36481175 -0.39883637
-0.28158182 1.9397599 -0.66743237 0.4819521 -1.0826659 -2.2338119 0.36603796 1.7541496
-0.0075544864 -0.5230946 0.019663678 0.046866648 0.8426821 -1.0680952 0.11392435 1.6975256
0.8041668 -0.15369667 -0.7263118 -0.91736996 -1.3756949 0.37323764 -0.12745944 -2.0394707
-0.105239205 0.61332136 -0.42113477 0.24237518 -0.28666762 -1.642384 -1.2438183 -0.5299565
1.2332207 -1.5980159 -0.6583041 -0.110074945 0.07436809 0.5404161 0.29480672 -0.047862537
-0.56697595 -0.32320246 -0.19298963 1.6863686 -1.0241684 -1.967279 -0.3122375 0.85904163
0.54707354 -0.097965725 2.8465786 -0.086507566 -1.11975 2.1037283 -0.06521158 -2.0763311
-0.6557731 0.5578681 3.9782379 1.1634823 0.42913866 -0.64980793 0.90144783 0.10216519
-2.2686586 -0.3856191 -4.7300715 -0.6787679 0.89514846 -0.42009428 0.3443542 -0.028410256
0.22231038 0.008472661 -1.0101072 -0.9378359 1.5390117 0.6354431 -1.429056 -0.21615343
-3.3727603 -2.9885533 -0.37959963 0.652669 -1.3152988 -1.6948806 1.3141589 0.0914838
-0.6665334 -0.14389336 -1.2555274 0.34336546 0.16259836 -0.22042346 -1.1105404 1.4176346
0.75201184 5.7420936 -0.45083976 0.49873525 -0.7030171 0.11697117 1.4908619 1.9784513
-2.7580998 2.2595308 4.125295 -1.5904655 0.3363694 -0.03472732 -0.31318465 1.1694629
-0.93043524 -0.65773445 -0.591423 0.14469104 0.00073564507 -1.4700668 -0.5408345 0.0551158
-0.27023327 0.5933752 0.2650562 0.24806581 0.21169658 -0.2297924 -0.20399493 -1.5584046
-0.70124954 2.7160213 -0.4273679 -0.43904766 -0.14883086 1.0076449 0.37843174 -0.19618526
-0.25502032 -1.4148027 1.9933639 3.2502148 4.1788044 -0.42593515 0.18619817 0.13318478
0.5433539 -1.1318362 -2.1502702 0.5905957 -2.3324294 0.8072183 0.35061198 -0.64144087
-0.5679742 -4.9664326 -0.32126048 -0.28376314 -0.63242495 0.73236793 -0.8199754 -0.60353345
-4.596988 -0.015037873 0.5151449 0.50009733 -10.440369 -0.698181 0.6835245 1.9910859
-4.9209867 10.60438 -2.3244643 7.973944 0.4735295 -0.4838223 7.2216477 -0.38541073
-1.7697941 4.6900396 -0.7146699 3.6277466 -2.614103 2.2278948 1.4758865 -2.1554277
-1.6433712 -1.365024 -2.466165 1.9926542 0.7518304 2.4863663 7.156509 -2.5745304
8.446255 1.0487462 -4.807938 3.1661084 -3.111423 -3.6370974 -2.3983667 0.3748008
2.4641335 -2.1715496 3.3437052 0.6853928 -0.058147956 2.3756373 0.7675242 0.64313924

lstm.weight_hh_l1 f4 [124, 31]
00000000: 8331 8fbe 0f9b 69bf be14 2b3f 0908 86be
00000010: 0a2a 9fbf ddfc d23d a7c8 9f3e 648a 6ebe
00000020: 008c 20bf 1bc7 b83f e932 a3be 5d3a 8dbe
00000030: cf1e 6dbd 250f 2fbf 3bbe 1dbf 617a 2b3f
00000040: 3465 1bbf b1a2 3cbf 0525 9abe 76c5 ce3e
00000050: ec79 143f 3ccb 8b3e ddbd f8be 0d36 543e
00000060: a42d 36bf 1245 5dbe e136 283f a897 ae3f
00000070: ed70 9f3f d631 92bf 69ae 76be 13b1 37bd
00000080: f121 c03e afe1 00bf c376 bdbe 1799 ba3e
00000090: fc4f ca3e d091 a03e df14 a2be 5cab ca3e
000000a0: 3299 1bbf 7b64 ad3d 86bf 82be 13e9 e6be
000000b0: 0f2d 943e f3d8 ff3e 1b6e aabe 1ea6 f63e
000000c0: 32a9 093f e6a7 babe 2d25 e0be 24a9 b2be
000000d0: 439d ce3e 54c8 a53e 8f88 18be 661d b53e
000000e0: 506b a7be d137 09bf e71c 82be 3dae bcbe
000000f0: d3b5 e23e a100 39be d8c4 783e 9305 293f
00000100: 92b3 08bf 0235 e9bd 6cf5 413f de7b 923e
00000110: 2c67 913e 50ee 42be cea9 7e3e e9d4 e7be
00000120: 9719 a73e 4b62 94be 888b b6be 27ac ef3e
00000130: 92f4 133f 4edc 7dbe 0b23 b03e aa70 e93e
00000140: e2e2 a8be fec3 febe cfb8 0fbf 480b 553c
00000150: 57c0 af3e df85 95be 8541 be3e 00be f0bd
00000160: d440 04bf ebd6 1abf 140f 43bf 4fa2 083f
00000170: 512d 83be 3670 55be 6771 b2bf 5989 1540
00000180: f3f3 2140 a121 1ac0 8ea2 dc3d 92ea 86be
00000190: e8b0 813f 0b0f 1bc0 ee56 fc3f 1308 bcbe
000001a0: c4c3 ab3e 8432 043f db4f 2fbf 2e71 d2be
000001b0: f70c 0c3e c957 2dbf 7110 3dbe 9cf1 35bd
000001c0: 5ef6 1b3f ef69 4d3f b3f1 c3bd 55c8 b6be
000001d0: 429e 063e 626e 13bf 5e65 8f3e 9f60 d93f
000001e0: 4301 0e40 401e 4c3f 8fa0 03c0 5418 973d
000001f0: df95 063d 8bd1 8a40 d50c 63c0 f0f2 d4bf
00000200: 3139 2740 b2eb af3e 6b5b c43e d52c 8dbf
00000210: d542 e33f fef2 66c0 c935 f03e b96e 6abe
00000220: 6592 4e3f 7793 e63f f55c bf3f 4b4a 15bf
00000230: c880 2f40 160e 3740 456f 4bbe dfce 32c0
00000240: 11f2 1dc0 6961 553f 7f44 0f40 84a7 4fbf
00000250: 805d 013f d6a4 42bf 4362 8cbf 0eca 8fc0
00000260: 374d 70c0 d640 0540 130b 27bf 72fe 7bbd
00000270: 620a a7bf bf3e 3b3e d3d6 b83d 0e67 95bf
00000280: c808 98be e797 c2be c372 953f ad57 84be
00000290: 6bac 303f 6e82 f3bd 738a c93e 0f54 943e
000002a0: 5b27 b1be 7f48 16bf 5342 d73e d729 f2be
000002b0: 47c1 14bf 5ee1 673e baf7 103f f618 db3e
000002c0: 33b0 69be 40cc 03bf d233 b73e 9750 f2be
000002d0: 38f5 f53d 66dd 053f 8055 443f ac5d 983e
000002e0: 8639 a0bf 7af5 fd3e 9ee2 89be 6f7c 6a40
000002f0: cc7e 023e 5260 a3be 5df0 94be 636e 873b
00000300: 80d2 4740 9a9c ca3f 744d b53e 1748 dfbd
00000310: b0da df3d 9cd2 c3be dc21 9cbd cdca 6c3d
00000320: d12b e53e 7068 23c0 ab17 8a3e 22df c9bc
00000330: 7074 68be f908 d6be ba96 eebe 3a3f a03e
00000340: f3d6 be3e 8f4d a0be 6429 ba3e 9465 39bd
00000350: 4cb6 f7be b424 22bf 9d1d d1bf 56a7 44bf
00000360: e3ad 923b 872b 793f e0db da3d 317f ca3f
00000370: 0139 5bc0 1df6 52c0 f17f c2be 0ea3 ddbe
00000380: ac96 3c41 8b25 593f 25be dc3f 6431 c540
00000390: 73fd 913f 982a 963f 05b5 21bf 6823 0f40
000003a0: 2e4d 0340 052b 0940 10bc 0f3f 51b4 7fc0
000003b0: 481d 28bf f193 323e fdf6 903e f584 97bf
000003c0: f975 123f cb83 973e 018c bbbe 7535 56c0
000003d0: 19b7 f23f 63aa 1a40 3c8d 41c0 dc61 5dbf
000003e0: 5080 0cbe 0e81 843f b5e6 63bf b589 12be
000003f0: 5a70 583f 5158 a83d ef0f 623e 9803 a4be
-0.27967462 -0.91252226 0.66828525 -0.26178005 -1.2434704 0.10302136 0.31207773 -0.2329498
-0.62713623 1.4435762 -0.3187478 -0.2758359 -0.05789071 -0.68382484 -0.61618394 0.6698361
-0.607013 -0.7368575 -0.3010637 0.40385026 0.5799854 0.27303493 -0.48582354 0.20723744
-0.7116339 -0.2160838 0.6570874 1.3640032 1.2456337 -1.1421459 -0.2408997 -0.044846606
0.37525895 -0.50344366 -0.3700467 0.36444923 0.39514148 0.31361246 -0.31656548 0.39583862
-0.6078063 0.08466431 -0.25536746 -0.45099697 0.28940627 0.49970207 -0.3328713 0.48173612
0.53773797 -0.3645622 -0.43778363 -0.3489467 0.40354356 0.323794 -0.14895843 0.35373992
-0.3269906 -0.53600794 -0.25412676 -0.36851683 0.44279346 -0.18066646 0.2429384 0.6602413
-0.53399 -0.113870636 0.7576511 0.28610128 0.28399026 -0.19036222 0.24869463 -0.45279625
0.3263671 -0.28981242 -0.3565333 0.4681103 0.5779506 -0.24791071 0.34401736 0.45593768
-0.32985598 -0.49758905 -0.5614137 0.013003178 0.3432643 -0.29203698 0.37159362 -0.117549896
-0.5166142 -0.6048419 -0.7619488 0.53372663 -0.2562051 -0.20843586 -1.3940858 2.336508
2.5305145 -2.4083025 0.10773192 -0.26350838 1.0132113 -2.4227931 1.9714029 -0.3672491
0.33547795 0.5163958 -0.68481225 -0.41101974 0.1367682 -0.67712075 -0.18463303 -0.04441987
0.609228 0.80239767 -0.09567585 -0.35699716 0.13146308 -0.57590306 0.28007025 1.6982611
2.218827 0.7973366 -2.0566747 0.07377687 0.032857772 4.338079 -3.5476582 -1.6636639
2.6128657 0.3435951 0.38350996 -1.1029307 1.775477 -3.608581 0.46916035 -0.228938
0.8069213 1.8013753 1.4950243 -0.5831649 2.7422352 2.8602347 -0.19866665 -2.7938764
-2.4678996 0.8335176 2.2385557 -0.81114984 0.50533295 -0.7603277 -1.0967487 -4.493415
-3.7547128 2.0820823 -0.6525127 -0.061521955 -1.3050044 0.18285654 0.090253495 -1.1672075
-0.296942 -0.38006517 1.1675647 -0.2584814 0.6901309 -0.11890112 0.3936344 0.28970382
-0.34600338 -0.5870437 0.4204279 -0.47297546 -0.5810742 0.22644565 0.56628 0.4279248
-0.22821121 -0.51483536 0.35781723 -0.4732711 0.120096624 0.5229095 0.7669296 0.29758966
-1.2517555 0.49601346 -0.26930708 3.6638448 0.12743682 -0.31909424 -0.29089633 0.004133032
3.122223 1.5829041 0.35410655 -0.10902422 0.10930383 -0.3824662 -0.07623646 0.057810593
0.44759992 -2.5532494 0.26971182 -0.02464253 -0.22700667 -0.4180372 -0.4659937 0.31298238
0.37273368 -0.31309173 0.36359704 -0.045262888 -0.4838127 -0.63337255 -1.6337162 -0.76817834
0.0044762953 0.9733204 0.10686469 1.5820066 -3.4253542 -3.2962716 -0.37988237 -0.43288463
11.786785 0.8482291 1.7245528 6.162279 1.1405472 1.1731749 -0.6316684 2.236536
2.0515857 2.1432507 0.56146336 -3.9953806 -0.6566968 0.17439248 0.28313437 -1.183745
0.5721126 0.29592738 -0.36630252 -3.3470128 1.8962127 2.4166496 -3.0242453 -0.86477447
-0.13720822 1.0351884 -0.89023906 -0.14310344 0.84546435 0.0821997 0.2207639 -0.32033992

lstm.bias_ih_l1 f4 [124]
00000000: 2896 26bf d1ba 753f 5a17 ef3f bcf4 6bbe
00000010: 4d98 cd3f e367 2ebf 219a 12bd 16d2 77c0
00000020: 4249 7abf a287 e63f f210 8fbf ff9b 1cbf
00000030: d161 cdbf c9b8 713f 9f68 6f3f fce1 db3e
00000040: a05d 8b3e ea5b 393f 5228 61bf f4c8 7c3f
00000050: 26d5 623f 66fb 20bf ab3d 1d3f 4ebf 5abf
00000060: 70de 2d3f 141b 7dbf cf18 9a3f 12fa c13f
00000070: 1c1d 813f cd0a 1d40 ddc9 21c0 3ea4 71be
00000080: aa6a 033f ddd0 053f 6fdc 14bf 0418 3b3f
00000090: 969c b7be e984 6ebf ddac cb3f c88b 3b3e
000000a0: 0bd4 433f 62e0 e0be ef1e 13bf a1ad 4abf
000000b0: fc0d 133f 7d60 dc3e a2f7 ac3e 474f aa3e
000000c0: 5f53 b23e 6938 01bf a2d9 b23e f9a6 35bf
000000d0: 2069 25be be5b cc3e f383 dcbe 7ae5 b6be
000000e0: 6bd8 28bf e6ac 4e3e fbb6 573f 6634 f53e
000000f0: 4ee7 dfbf c06e 0fbf ca14 ebbd 0328 2b3f
00000100: 0c8a 1bbf 1ec7 95be 0e05 a43f 781d 2f3c
00000110: 0890 033f 274f 81bf 28da 0540 91c5 1bbf
00000120: 06f8 03bd d4d6 adbe 3319 0fbe 0cb3 173f
00000130: 20f5 133f c77b febe e09c de3f 1c04 2d3f
00000140: 5f99 96be d928 3cbf 08d3 17bf 73c6 653e
00000150: 94a9 023f 38fb 99be a1b2 e33e 0e77 94be
00000160: 0bca 37bf 4e11 4cbf 49aa 09bf 67fc e23f
00000170: f644 403e 8bb8 cdbe c4a5 963e cd6e ccbf
00000180: 25a5 a73e 0018 e83f 2704 59bf 42cf 85bf
00000190: 03e7 d63f 7994 19c0 01da 23be 30f5 73bf
000001a0: 9368 73be 91d0 82bf 86df e7be 26d6 e6bf
000001b0: 330d f6bf 38f7 c1bf f736 293f 9405 ffbf
000001c0: b107 86bf c8e2 29c0 09ea 19c0 25f8 a0be
000001d0: f09d 5dbf e0b7 07c0 a3b5 73bf b956 40c0
000001e0: 599b 543f 2cb2 48bf 5932 0640 c4d4 19c0
-0.6507287 0.95988184 1.8679001 -0.23042578 1.6062104 -0.6812727 -0.03579152 -3.8721976
-0.9776803 1.8010142 -1.1177046 -0.6117553 -1.6045476 0.94422585 0.93519014 0.4294585
0.27219868 0.72405875 -0.8795215 0.9874413 0.8860649 -0.62883604 0.6142222 -0.8544816
0.6791754 -0.9886944 1.2038821 1.515444 1.0087008 2.4537842 -2.5279458 -0.2359781
0.5133463 0.52271825 -0.58148855 0.7308352 -0.35861653 -0.93171555 1.5912129 0.18315041
0.76495427 -0.4392119 -0.57469076 -0.79171187 0.57443213 0.43042365 0.3378268 0.3326361
0.34829232 -0.504767 0.34931666 -0.70957905 -0.16153383 0.39913744 -0.4306942 -0.35721952
-0.6595523 0.20183143 0.8426358 0.4789154 -1.7492464 -0.56028366 -0.114785746 0.6685793
-0.6075752 -0.29253477 1.2814043 0.010688178 0.5139165 -1.010228 2.0914402 -0.6084834
-0.032218955 -0.33952963 -0.13974456 0.5925758 0.57795906 -0.4970381 1.7391624 0.67584395
-0.29413888 -0.7349983 -0.59306383 0.22438984 0.51040006 -0.30074477 0.4447222 -0.28997082
-0.7179267 -0.79713905 -0.5377546 1.7733277 0.18776307 -0.40179858 0.29423344 -1.5971314
0.32743183 1.8132324 -0.8477196 -1.0453875 1.6789249 -2.399687 -0.1600113 -0.95296
-0.2377036 -1.02199 -0.45287722 -1.8034103 -1.9222778 -1.515357 0.66099495 -1.9923577
-1.0471097 -2.6544666 -2.4049094 -0.3143932 -0.8656912 -2.1205978 -0.9519903 -3.0052931
0.8304954 -0.7839687 2.096823 -2.4036112

lstm.bias_hh_l1 f4 [124]
00000000: af35 2abf 8a59 783f 2fa6 e93f dd67 20be
00000010: 1588 ec3f 49ee 4bbf 76e1 83be 937e 6fc0
00000020: 9920 65bf 7c67 ce3f 846e 75bf 09b1 36bf
00000030: 7d03 abbf cfe8 873f e10b 793f 4a01 ed3e
00000040: 3ad9 77bc c667 633f 3e19 3dbf 6431 623f
00000050: 4f98 493f 5a21 3bbf 111c 2d3f fe9c 58bf
00000060: 4c26 163f 900a 64bf 4943 a03f 6909 c93f
00000070: c8bd 843f bdfc 1a40 b97f 23c0 d7cc cebe
00000080: 0be3 bc3e 2500 b83e b674 04bf 9647 323f
00000090: b562 c5be 9c43 83bf f7a6 b43f 8105 aa3e
000000a0: 933b 2a3f 3d37 dabe f2b5 0dbf cb3f 47bf
000000b0: d0f6 903e 03cd 9d3e f2a9 dd3e 2a1f d83e
000000c0: 7273 d33e c214 b1be 5f0f e73e 325f 49bf
000000d0: 0a37 bebd 4398 d53e 6d4f 07bf 33ae 9cbe
000000e0: df6c 23bf 033a b33e 6b16 4e3f 5679 173f
000000f0: 022c eebf 8f7c a6be b5a9 6cbe 91d9 3f3f
00000100: 6647 f9be eebb 7bbe 1e30 9c3f fc38 7b3e
00000110: 2e29 133f 53ab 56bf 4e06 0540 a2f5 96be
00000120: 6e44 b2bd ec29 15be 362d ccbe 69a3 443f
00000130: ff8d d23e 9a4d fdbe 70f2 d43f f622 2b3f
00000140: 8133 b8bd 6f77 24bf be4b 4ebf e512 983e
00000150: a848 343f 9a68 84be 5eda 463f 067b f0bc
00000160: a5df 24bf 41fa 2dbf be0d 4cbf 87cd d43f
00000170: f6c9 3f3c 30c7 37bf 4765 0bbd 255b debf
00000180: b867 8c3e 6c5f c83f 7566 67bf 9b37 82bf
00000190: e6a8 db3f dfc4 22c0 223f c2be 7a72 80bf
000001a0: 6843 a9be 6dce 84bf 7618 31bf 5cb5 debf
000001b0: e7a8 ddbf aa16 c7bf 13b7 393f f167 ffbf
000001c0: 95ec 7abf 3762 28c0 8e74 0dc0 0d60 98be
000001d0: ded8 71bf b8d4 06c0 a624 45bf 50be 45c0
000001e0: 9891 3f3f cde3 14bf ac18 f13f 0bf1 12c0
-0.66488165 0.97011626 1.825384 -0.1566462 1.8479029 -0.7966047 -0.2575795 -3.7421005
-0.89502865 1.6125331 -0.9587176 -0.71363884 -1.336044 1.0617923 0.9728375 0.46290046
-0.015127474 0.8883022 -0.7386664 0.88356614 0.7874803 -0.73097765 0.6762095 -0.8461455
0.58652186 -0.8907862 1.2520534 1.5705997 1.0370417 2.421676 -2.5546706 -0.40390655
0.3689197 0.3593761 -0.51740587 0.6964048 -0.3855187 -1.0255008 1.4113454 0.33207324
0.66497153 -0.42620268 -0.5535575 -0.77831715 0.28313303 0.30820474 0.4329372 0.42211276
0.41299015 -0.3458615 0.45128915 -0.7866088 -0.092878416 0.4171773 -0.5285557 -0.30601653
-0.63838 0.35005197 0.8050296 0.5916952 -1.860718 -0.32516906 -0.23111613 0.74941355
-0.48687285 -0.24583408 1.2202184 0.24533457 0.5748471 -0.8385517 2.0785098 -0.29484278
-0.08704458 -0.14566773 -0.39878243 0.76811844 0.4112396 -0.49473268 1.6636486 0.6685022
-0.089941986 -0.6424474 -0.80584323 0.29701915 0.70423365 -0.25861055 0.7767695 -0.029355537
-0.64403754 -0.6795998 -0.7970847 1.6625222 0.011705866 -0.7178831 -0.034032132 -1.7371565
0.2742288 1.565412 -0.9039071 -1.017322 1.7160919 -2.543266 -0.37938792 -1.0034935
-0.3305924 -1.0375496 -0.6917795 -1.7399096 -1.731717 -1.5553792 0.72544974 -1.9953595
-0.98017246 -2.6309946 -2.210239 -0.2976078 -0.9447154 -2.1067333 -0.77009046 -3.0897408
0.74831533 -0.58160096 1.8835654 -2.295962

fc.weight f4 [1, 31]
00000000: 7e3a 8a3d f8c4 233e 83cb 32be e530 d13f
00000010: 8c12 963e b843 c1bc 859c f9bc 4c67 be3e
00000020: 1794 f23d 06bf 99be 4234 4abb 80a1 9ebb
00000030: 6b8a 083e ee03 0f3a ed4a ca3e 94bf 2fbf
00000040: ac0e 583e 099c 823e 6f5f debe ce1f c2be
00000050: 7ef0 94bd 08df a53f a540 cbbb b6c2 5cbe
00000060: 5f4a 35bd cba4 93bd 1d6d cdbd 9300 00bf
00000070: 3f4d 93bd bbd5 c13e 4834 9c3f
0.06749438 0.15993106 -0.17460446 1.6343046 0.29311025 -0.023591861 -0.030470142 0.37188184
0.11844652 -0.30028552 -0.0030853902 -0.0048410296 0.13334052 0.00054556027 0.3951029 -0.686517
0.21099347 0.2550967 -0.43432185 -0.3791489 -0.07272433 1.2958689 -0.0062027746 -0.21558651
-0.04426038 -0.07209166 -0.10030577 -0.50000876 -0.07192468 0.37858376 1.2203455
