Backend/SavedModels/rnn.pth (torch, 37696 bytes, 9 tensors)

weight_ih_l0 f4 [50, 9]
000000 76 36 cc 3d 7b 4e 12 3d 82 90 e3 bd 23 3c bd 3b
       0.09971325 0.035719376 -0.11111547 0.005774991
000010 6c 0e 5a bc a5 bb 23 be 04 a1 34 be a8 aa 5b 3e
       -0.0133091025 -0.1598955 -0.17639548 0.21451819
000020 86 8c b0 bd 65 5b c6 3c 9f f1 5c 3d d8 e6 7a 3d
       -0.08620553 0.024213502 0.053941365 0.061255306
000030 99 5b bc 3d 36 03 47 be e0 e5 5c bd 00 db 15 3d
       0.09197158 -0.19434819 -0.053930163 0.036585808
000040 de 3c 99 3d 01 64 dd bd fb b9 d7 3d f7 be 10 be
       0.074823126 -0.1081009 0.1053352 -0.14135347
000050 b0 2b af bd 93 b2 f3 bd a9 6c 81 3e ce 25 fd 3d
       -0.085532546 -0.11899295 0.25278214 0.12360726
000060 ab 17 4c 3d 13 4d 30 be a2 02 e0 bd b3 5a d1 3d
       0.04982726 -0.17216901 -0.10938002 0.10222378
000070 24 91 ae 3d f1 84 db bd f8 e9 95 3d ee 08 ac 3e
       0.08523777 -0.10718716 0.073200166 0.33600563
000080 29 98 c2 3d 36 7a 08 be c9 e3 c8 3d 2c 1b 87 bd
       0.095016785 -0.1332787 0.098090716 -0.065969795
000090 9c e8 ab bd 84 63 23 be 42 cd d7 bd da 36 c1 bc
       -0.08393976 -0.15955931 -0.10537197 -0.023585726
0000a0 d8 85 76 3e 78 27 60 be 69 f0 87 bd 99 b2 2f 3e
       0.24074495 -0.21890056 -0.066376515 0.17157973
0000b0 a3 fe ba bc 88 2b 79 bd 3c e6 e8 bd 2d 35 06 3e
       -0.022826498 -0.06083253 -0.11372039 0.13106222
0000c0 37 36 73 3e 8d c6 1d 3d e3 ec 09 3e 6c 9d 21 3d
       0.2375115 0.03851943 0.13469271 0.03945677
0000d0 8c c8 80 3e 44 19 c5 bd 87 2e fe 3d e6 b4 df bc
       0.25153005 -0.0962396 0.12411218 -0.027307939
0000e0 0b 8d 1b be 80 0f 0f 3e 30 b9 e2 3d 22 54 8f 3a
       -0.15190522 0.13970757 0.11070478 0.0010935108
0000f0 ff bc 7f 3b dd 11 24 3d 93 81 e5 bd fc 98 a7 bd
       0.0039022563 0.0400561 -0.11206355 -0.08183476
000100 92 2c 25 3e af b5 11 be c5 56 91 bc 55 23 16 be
       0.16130283 -0.14229463 -0.01774157 -0.14661916
000110 50 78 92 3d 03 c2 60 bc a7 0a 72 be 07 93 89 3d
       0.07151854 -0.013718131 -0.23636876 0.06717496
000120 6b 16 91 3d 0c f1 01 3e 43 e0 c9 3d f0 8f 81 be
       0.07084354 0.12689608 0.09857228 -0.25305128
000130 3c ab db be 99 ef b2 3d 00 10 68 3d be 0d 9d 3e
       -0.4290408 0.08737106 0.056655884 0.30674547
000140 4d 33 49 be 3b ec e7 3a c6 27 31 3e 12 72 1d bd
       -0.19648476 0.0017694304 0.17300329 -0.038438864
000150 7e 3c 93 3d 6c 8b 4c 3e a0 3c f6 bd 8f 49 7d bd
       0.07189272 0.1997506 -0.12023282 -0.06183773
000160 67 0a 9a 3d 36 fb 04 be a0 6a 95 bd 85 b7 00 bc
       0.07521515 -0.12986454 -0.07295728 -0.0078562545
000170 87 94 2e bd 42 e3 9c bc ec 12 89 3d b4 b3 88 bd
       -0.042622115 -0.019151334 0.06693062 -0.06674901
000180 b5 9d 97 bc cf 40 a9 bd 89 8d f7 bd 86 44 18 3e
       -0.018507818 -0.082643144 -0.120875426 0.1486989
000190 54 cf 9f bd 99 f4 2d 3e ce ff 50 be 50 19 8b bd
       -0.078032166 0.16987838 -0.20410082 -0.06791937
0001a0 8c 97 31 3d 79 eb 2b 3e 5c 27 32 3d a9 f3 c1 3c
       0.043357417 0.16789044 0.043494567 0.023675757
0001b0 6a 3d 37 bc fb 49 17 3d c1 e4 6b 3d fa 4a 7d 3e
       -0.011184076 0.036935788 0.057591204 0.24735633
0001c0 e0 af 21 bd 95 81 c0 3d 13 bb b3 bd 37 eb 11 3e
       -0.039474368 0.09399716 -0.08775916 0.14249884
0001d0 bf d4 f4 bd ec cd 3d bd 35 7e b2 bc 22 1b c3 3d
       -0.119546406 -0.04633896 -0.021788696 0.095266595
0001e0 16 b5 d9 3d a0 c7 c4 bd c5 b1 dc 3d 38 e8 a9 3d
       0.106302425 -0.09608388 0.10776094 0.08296245
0001f0 48 06 68 bd 8a f8 c1 bd fd 6d e4 bd b4 7f e9 bd
       -0.056646615 -0.09471233 -0.11153791 -0.114013106
000200 7c 82 fb 3d c8 e3 d4 bd 2c 1f 6e bd 4f 60 03 be
       0.12280747 -0.10395008 -0.058135197 -0.12829708
000210 6c 71 7f bd e5 e5 f3 3c 0d 16 ce bb df db 1b 3e
       -0.062364027 0.029772708 -0.0062892498 0.15220593
000220 7e 6f 66 3e da 35 8f bc a5 f7 0e 3e 01 1e cd 3d
       0.22503468 -0.017481733 0.13961656 0.100154884
000230 7c 9a 0d bd 1b 22 a9 bc 11 7d 15 3e 65 5a 00 3e
       -0.034571156 -0.020646146 0.1459849 0.12534483
000240 ca 87 a2 3c 91 9a ff 3c c9 6b 51 3d da 6d 1f be
       0.01984014 0.031201633 0.051128183 -0.15569249
000250 fb 81 7c be 17 07 44 3c a5 dc b5 3d a4 5d 38 3d
       -0.24658959 0.011964581 0.08879975 0.045011178
000260 d6 4f 30 bd e6 4d 1e bd fd e6 3c 3e 11 0f 9e bd
       -0.043044887 -0.03864851 0.1844749 -0.077177174
000270 12 a2 4f 3e 3b da c8 3d ef c5 04 3e 9b 71 3f bc
       0.20276669 0.09807249 0.1296613 -0.0116848005
000280 a4 d8 98 bd 51 99 b6 bd c8 a9 25 bd ef a4 36 3c
       -0.07463196 -0.089159615 -0.04044512 0.011147722
000290 48 0c 32 3d ad b9 41 3d ae 95 41 3e a8 bd bd bd
       0.043468744 0.047296215 0.18904755 -0.0926469
0002a0 46 c4 9b 3d c9 71 9a 3d 68 cf a1 bd 0d 9e 05 be
       0.076057956 0.07541234 -0.07900888 -0.13048573
0002b0 2e 52 72 be b2 97 c5 bd bb f1 21 be c2 b8 d2 3d
       -0.23664162 -0.09648074 -0.15814869 0.10289146
0002c0 8f fe e1 3d e7 6f 7e bd 66 6a cc 3c 9c c5 f0 3d
       0.11034881 -0.062118437 0.024953078 0.11756441
0002d0 72 61 85 bd c1 77 15 3e 1d ae d3 bc 5f 8c 81 3c
       -0.06512727 0.14596464 -0.02583986 0.015814004
0002e0 de 1d 3f 3e da d8 ca bd 05 5b b9 bb c9 1e 8c be
       0.18663737 -0.099046424 -0.0056566023 -0.27367237
0002f0 28 13 b3 bd 9e 07 0a 3e b8 0b 51 bd 53 c0 93 bd
       -0.08743888 0.13479468 -0.051036566 -0.07214417
000300 4f 44 63 3e 04 29 c2 3c 1c 2e 09 bd 7e 99 ef 3d
       0.22194026 0.023701198 -0.03349124 0.11699198
000310 c3 b5 c5 bb 3a 72 2b 3d 35 34 27 bd d5 5d 30 3d
       -0.0060336306 0.04185698 -0.040821273 0.043058235
000320 6f 2e fa 3d 33 c1 3c be b2 d3 9d be 6a 6e 03 3e
       0.12215888 -0.18433075 -0.30825573 0.12835088
000330 d3 07 c3 bd cb 02 f2 3d 6f 7d fa bd 0b 07 f7 bb
       -0.09522977 0.11816939 -0.12230956 -0.0075386814
000340 3f b4 23 3d 0f 45 d5 3b 4e ba 30 be 18 3f 1b 3e
       0.039966818 0.0065084766 -0.1725857 0.15160787
000350 6e 8e 37 3d bd 52 00 be 1b db 2a be 67 86 f7 3d
       0.044813566 -0.12531562 -0.16685145 0.12086182
000360 09 50 90 bc 80 73 9a be 5b 4d ea 3d ef 9b 88 bd
       -0.017616289 -0.30166245 0.11440536 -0.06670367
000370 b6 49 ef bd 69 a5 90 3c 92 a4 10 3e 70 3f 67 bd
       -0.11683981 0.017656999 0.14125279 -0.056456983
000380 a8 2f 28 3e 19 a1 b4 3d 7e 90 d5 3d 76 5c 7a bd
       0.1642443 0.088197894 0.1042795 -0.061123334
000390 1d 55 35 be 78 39 65 3e d4 e0 67 3d 09 45 a4 bd
       -0.1770825 0.22385204 0.056610897 -0.0802098
0003a0 ae b6 5b 3d 5d 8b fd 3d a8 f2 f6 3d 1a a0 b0 3d
       0.053641014 0.12380097 0.12058002 0.08624287
0003b0 1f 62 be 3d a1 34 60 3d 58 fe cd bc ec c4 95 3d
       0.09296059 0.05473769 -0.025145695 0.073129505
0003c0 ef 00 df 3c 26 25 d8 3c 85 7f ae bd 78 6e c3 3d
       0.027222125 0.026384901 -0.08520416 0.095425546
0003d0 4b bf 98 be 09 12 b2 bd 8b 2b da bd 9f 8d 82 3d
       -0.29833445 -0.08694846 -0.106528364 0.06374668
0003e0 c9 56 8f 3d de ce 51 bd eb 81 17 bd b2 e7 34 3e
       0.06998975 -0.051222675 -0.036989134 0.1766651
0003f0 2c ea 4c bd ba 14 45 bc ce 37 e0 bd 82 95 20 3e
       -0.05002801 -0.012028867 -0.10948144 0.15682033

weight_hh_l0 f4 [50, 50]
000000 38 a2 02 3e 8c fe 9f 3d 0a 54 d7 3c 89 2f 31 3d
       0.12757194 0.07812223 0.02628519 0.043258224
000010 e2 9f 51 bd f4 de 16 3e 48 c9 e7 3d 46 51 fd 3d
       -0.051177867 0.14733487 0.11317688 0.12369017
000020 32 3c 3b bd 73 fb 32 3e c7 01 09 3c 43 de 98 bd
       -0.045711704 0.17478733 0.00836224 -0.07464268
000030 e4 e5 39 3e 29 21 e5 3d a5 3d da bc 6d b4 96 3d
       0.18154103 0.111879654 -0.026640723 0.07358632
000040 8f 79 1c be 54 47 c0 3d 6a 98 8a bd c5 45 e6 bd
       -0.15280746 0.09388605 -0.06767352 -0.11243776
000050 93 28 e0 bb b1 1a c3 bd a2 41 83 bd 83 95 6c be
       -0.0068407743 -0.09526575 -0.06409003 -0.23103909
000060 d9 be 2e 3d dc 73 3e 3d 2c 89 29 bd e1 f0 24 3e
       0.042662475 0.04649721 -0.041390583 0.16107513
000070 b6 f0 39 bd 74 9b 7f bc d9 b8 26 3b 09 10 b1 bd
       -0.045395575 -0.015601028 0.0025439768 -0.086456366
000080 33 e8 16 bd eb d4 23 3d 2d ac 7b bb f5 03 0e be
       -0.036842536 0.039997976 -0.0038402185 -0.13868697
000090 37 bc cc 3c e0 a3 3a bd f1 96 3e bd 6c e5 4a 3d
       0.024992092 -0.04556644 -0.046530668 0.0495352
0000a0 bb 62 8e bd 16 3f 4a be 30 41 c0 3c 38 b8 fd bc
       -0.06952425 -0.19750628 0.023468584 -0.030971631
0000b0 66 43 a4 bd 3a 33 d0 3d 8c a9 ba 3d 53 d7 b4 3b
       -0.08020668 0.10166021 0.0911437 0.0055188327
0000c0 07 3b 9a 3d fc d7 09 be 6e 4d e3 3d 9f cf 05 3e
       0.0753079 -0.13461298 0.11098753 0.13067482
0000d0 6d 66 91 bc 1c 0e b1 3d 98 59 10 be 92 cc 81 3e
       -0.017749036 0.08645269 -0.14096677 0.25351387
0000e0 88 03 97 bd ec c3 3e 3d 3f 75 bb bd 79 10 80 bb
       -0.073737204 0.046573564 -0.09153222 -0.0039082137
0000f0 69 63 0f 3b a0 28 c7 3d 44 d2 6c 3e 36 d9 27 bd
       0.0021879321 0.097245455 0.23127085 -0.040978633
000100 75 30 94 bd 3c 80 c0 bc d3 bd c5 bd 92 17 c3 3d
       -0.07235805 -0.023498647 -0.09655347 0.0952598
000110 37 7e 00 3e 5b d7 53 bd 0e f3 03 bc 8c 32 77 3d
       0.12548147 -0.05171905 -0.008053554 0.06035094
000120 20 76 1c be 88 a1 27 3e 32 93 47 bc 4e ab 8e 3c
       -0.15279436 0.16370213 -0.01218109 0.017415669
000130 de c7 07 bd 3d 07 b5 bc 00 33 ce 3d 23 af 17 3e
       -0.033149593 -0.022098178 0.10068321 0.14812903
000140 e0 7a d7 bd 97 d2 19 3e 72 c5 e8 3c 3d a8 0a 3e
       -0.105214834 0.1502174 0.028414462 0.1354074
000150 7b 75 28 be 34 f9 5f bd b7 d5 08 3e 8c ca ab bd
       -0.16451065 -0.054681018 0.13362776 -0.08388242
000160 52 b0 26 3d 2d 97 62 bd 12 33 43 bd 7d 7d 83 bd
       0.040695496 -0.055319954 -0.047656126 -0.06420419
000170 c3 30 46 3d d3 5c 08 bd 3e d8 da bd a0 e9 34 be
       0.048386347 -0.03329165 -0.10685776 -0.17667246
000180 6d 38 1a bd 0a 22 de 3d ef ba cb ba e0 df 6c 3d
       -0.037651468 0.10846336 -0.0015543381 0.05783069
000190 14 e8 c8 bd bc 87 93 3d e4 68 ae 3e a4 59 9b bd
       -0.098098904 0.07203624 0.340644 -0.07585457
0001a0 d6 57 85 bd 2b df 1f 3e 24 2e 32 3c 62 35 ea bd
       -0.06510894 0.15612476 0.010875259 -0.11435963
0001b0 d3 d4 53 3d d7 b9 43 3e 88 f9 a3 bd c9 3e cf 3d
       0.051716637 0.19113861 -0.08006579 0.10119397
0001c0 15 1b 12 bd c9 3a 0d 3c 16 0b c2 3d 75 b9 2f be
       -0.03567036 0.0086199725 0.09474771 -0.1716059
0001d0 e8 e0 4e be 7e 5f 91 3c 59 fb ae 3e e6 88 a7 3b
       -0.20202982 0.01774573 0.34176138 0.005112755
0001e0 4d 39 c2 bc e0 9b c5 bd 72 6d b3 bd 96 d5 20 3e
       -0.023708964 -0.096488714 -0.087611094 0.15706477
0001f0 68 f7 57 be 73 fe 98 bd f2 a7 07 3e 89 b3 5c 3e
       -0.21090472 -0.07470407 0.1324766 0.21552862
000200 8f 86 63 be 00 0f b0 3d fd 31 9e 3d 33 fe 66 be
       -0.22219299 0.08596611 0.07724378 -0.22557907
000210 11 56 9e bd 50 67 dd 3d c7 d1 e9 3c fc 44 29 3e
       -0.077312596 0.10810721 0.028542412 0.16530222
000220 e1 b9 31 3e 36 40 40 3d 35 42 8e 3d d7 e7 4a 3e
       0.17356063 0.046936236 0.06946222 0.19815002
000230 39 91 f9 3d 60 c3 5f 3a 8c f4 70 bd 3f 59 c3 3d
       0.12185902 0.0008535888 -0.058826968 0.09538507
000240 b3 88 7d 3d 0e 9e a6 3c 76 e6 3d 3d 8c 23 44 3c
       0.061897945 0.020339038 0.046362363 0.011971366
000250 32 b9 b4 3c a5 72 e0 bc 52 ed d4 3d 0f 1d 1a 3d
       0.022060964 -0.027398417 0.10396828 0.03762537
000260 38 d9 11 bb 7c 53 a7 3e a4 f5 d2 3d 83 60 6e 3e
       -0.0022254717 0.3268088 0.103007585 0.23279004
000270 15 e7 cd 3d 3b e4 42 3d 81 8c 11 be cf 93 20 bd
       0.10053841 0.04758094 -0.14213754 -0.03920346
000280 f1 b5 42 3d 24 ca 97 3d 03 26 b9 bd 74 3c 8c 3c
       0.047536794 0.07411602 -0.09040453 0.01711867
000290 d6 ad d9 3c 9c 10 ed 3d 10 cc 29 be 3a 9d b4 3d
       0.02657215 0.115754336 -0.1658175 0.08819051
0002a0 0b a8 db 3c 8a ac 04 bc 8d 9a 5f 3c 79 a2 af 3c
       0.026813528 -0.008097777 0.013647688 0.021439778
0002b0 45 26 d9 bd c4 af 53 bd c7 0b 30 bd e5 22 10 3e
       -0.106030025 -0.051681295 -0.04297998 0.14075811
0002c0 ad 8a 26 3d 3a d4 cd 3d 6d 46 54 be 20 2e ad 3d
       0.040659595 0.10050245 -0.2072999 0.08456063
0002d0 58 ca a6 3d 91 02 9a bd fc 75 c3 3d 9c ed a0 3d
       0.08144063 -0.07520021 0.09543988 0.078578204
0002e0 88 f2 a5 3c 3d 34 22 bd 18 c2 e0 bd 6c 49 9c 3d
       0.02025725 -0.0396006 -0.109745204 0.076311916
0002f0 ab 1b f5 bc d9 c4 12 be b4 9f 7c 3e bb 4b 00 3e
       -0.02992042 -0.14332904 0.24670297 0.12528889
000300 3f fa e1 3b 3e b9 94 3d c3 3d 9b bd 43 e4 cf 3c
       0.0068962867 0.07261895 -0.075801395 0.025377398
000310 8d 07 2e 3e 89 ff 7f bc a1 8c 9e 3d 5c 3e 47 be
       0.16995068 -0.015624889 0.077416666 -0.19457382
000320 c4 68 2d 3e 8a bf 20 be 19 5d 8a bd 0a 11 8e bd
       0.16934496 -0.15698066 -0.06756038 -0.06936844
000330 c8 95 9a 3e ab 56 ea bc d7 b9 a0 bb f1 e1 00 be
       0.301924 -0.02860578 -0.0049049663 -0.1258619
000340 6b 25 3a be 0a fc f7 bc 0c 76 89 bd 0e 3a 0f 3d
       -0.18178336 -0.030271549 -0.06711969 0.034967475
000350 40 0c 49 bd 4f 91 d8 3d 08 7f 52 bd 94 4c ae bd
       -0.049083948 0.105745904 -0.051390678 -0.085107
000360 bc c3 dc 3d 77 0d ec 3d b0 3f 23 3e 50 06 85 3e
       0.10779521 0.11526006 0.15942264 0.2598138
000370 83 90 e8 3c 48 75 9c 3d 0f 89 44 3d 2d 4c 75 bc
       0.028389221 0.07639557 0.04798227 -0.014971775
000380 c0 d9 f2 3d 5e 12 81 bc 85 1e 2a be e3 4b 8d bc
       0.11857939 -0.015755828 -0.16613205 -0.0172481
000390 87 8b 3c 3d 8e 9c 66 bd 15 f7 f6 3d 57 c6 02 bd
       0.0460315 -0.056301646 0.12058846 -0.031927433
0003a0 7e 98 d3 bd a1 8f 24 be ac 8d a6 3c a4 b5 97 be
       -0.1033182 -0.16070415 0.020331226 -0.29630768
0003b0 b6 cb c3 bd c1 67 6d 3d 86 92 30 3c 77 49 a2 3d
       -0.09560339 0.057960276 0.010777121 0.079241686
0003c0 87 0b 7e 3c df 58 16 3d ab c7 ee 3d 87 85 31 3e
       0.015505678 0.036705848 0.116591774 0.17336093
0003d0 72 52 ce 3d d3 c7 79 3e 69 88 c8 3d 23 86 0a 3e
       0.10074319 0.24392633 0.09791643 0.13527732
0003e0 2b f8 bd 3c 2d 60 ba bc 1a 69 28 be be 8c d1 bc
       0.023189625 -0.022750938 -0.16446343 -0.025579806
0003f0 c7 55 97 bd 4a af 1d 3e ed 35 c4 bc 0a 2f 0c 3e
       -0.073894076 0.15398899 -0.023951495 0.13689819

bias_ih_l0 f4 [50]
000000 6d bb 86 3d 1e 09 39 be 54 01 97 bd 58 9d 9d 3a
       0.065787174 -0.18069884 -0.073733 0.0012025042
000010 90 93 19 3e 04 ed 7e 3d 9b 6c 1c 3d ae 98 22 3e
       0.14997697 0.062237754 0.03818951 0.15878555
000020 e6 a8 7e 3d 06 4a f9 bc 0f d6 91 3d a7 6b 8a bd
       0.062172793 -0.030430805 0.071209066 -0.06758814
000030 68 ae f7 bd c3 ac 1d 3e e4 7e 0d 3e c3 96 bf 3c
       -0.12093812 0.15397935 0.13817936 0.023387318
000040 37 f3 49 bd bc ec f8 bc bf 1d 1b bd b4 f3 49 bd
       -0.049304213 -0.030386321 -0.037870165 -0.04930468
000050 5e 6a f4 bc 4b bb b8 39 8a 50 ce bd ed d3 a0 bd
       -0.029835876 0.0003523476 -0.10073955 -0.07852922
000060 9b d8 10 3e 1f a0 1b 3e b7 53 bf 3c 16 48 e2 3d
       0.14145128 0.151978 0.023355348 0.110489056
000070 c4 7f 47 bd 88 cb fb bd ae 7c a5 3d 34 6e fd 3c
       -0.04870583 -0.1229468 0.080804214 0.030936338
000080 7d 72 e8 bd bb d2 a6 3d d8 28 15 3e 81 33 82 3c
       -0.11349962 0.081456624 0.14566362 0.0158937
000090 80 1f 54 bd b3 b1 bc bd 79 bd 0d 3e 94 c1 33 3d
       -0.051787853 -0.09213581 0.1384181 0.043885782
0000a0 fe fc 3a bd 83 30 b9 3c 4f fe e8 bc 9a 4f 54 bd
       -0.04565143 0.02260614 -0.028441576 -0.051833726
0000b0 a8 5c 3b 3d f3 5a 02 3e d3 30 fc 3d 56 89 97 bd
       0.04574266 0.12730007 0.12314 -0.073992416
0000c0 af 45 f8 bd 6d d1 a0 3c
       -0.12122666 0.019631112

bias_hh_l0 f4 [50]
000000 a4 34 5b bd 3b 80 7e bd 14 b7 a7 3d d9 6b 19 be
       -0.053517 -0.06213401 0.08189216 -0.14982547
000010 a8 42 ac 3c de 54 aa bd 18 2b 33 3a 97 44 6c 3d
       0.021027878 -0.083169684 0.00068347296 0.0576826
000020 f8 00 a5 bd 57 3c b9 3d 10 72 e4 3d fd 5a 01 bc
       -0.080568254 0.09044712 0.11154568 -0.007895228
000030 b5 40 c1 bd b7 3d 84 3d 34 fd 4e 3d 43 9b 16 3e
       -0.0943617 0.06457084 0.050534442 0.14707665
000040 e8 65 99 bd 75 91 1e bc 6d cf e8 3c 3e 26 e7 3d
       -0.0749014 -0.009678234 0.02841922 0.11286591
000050 a3 ad 09 3e 1a 06 ab 3c 26 92 a4 bc 61 2c a4 bd
       0.13445143 0.020876933 -0.02008922 -0.08016277
000060 cf 06 a1 bd 63 4c a8 bb b7 e9 e5 bd cd f4 db bd
       -0.07862627 -0.005136059 -0.11226218 -0.107400514
000070 ff 22 1c 3e 8c 0b e4 bd 91 c8 39 3e a0 b6 01 3e
       0.15247725 -0.11135015 0.18142916 0.12667322
000080 55 08 9a 3d be 51 7e bd de e3 76 bd f8 b4 14 be
       0.075211205 -0.062089674 -0.060275905 -0.14522159
000090 24 84 b5 bd c9 43 f1 3d 29 4c d6 3b 5d df a1 3d
       -0.088630944 0.11780507 0.0065398407 0.07903931
0000a0 2f 40 bf 3c 6a 42 19 bc e9 b7 61 be 70 b7 13 3d
       0.023346035 -0.009354213 -0.22042812 0.03606361
0000b0 05 c4 8e bd 57 7e b1 bd c5 cc a7 bc ee 3e 07 be
       -0.069709815 -0.086666755 -0.020483384 -0.132076
0000c0 02 e5 6d bb b9 8b 11 3e
       -0.003629983 0.14213456

weight_ih_l1 f4 [50, 50]
000000 39 06 a0 3d 13 07 98 3c 66 50 bd bc 89 c3 35 3e
       0.07813687 0.01855806 -0.023109626 0.17750372
000010 64 43 ad bd 1d d7 ab 3c 8d df 13 3e dd 42 df 3d
       -0.08460119 0.020976597 0.14440747 0.10901425
000020 0d e2 8a 3d 5b 76 76 3c 24 7c e4 3d cb 44 03 3e
       0.06781397 0.015042867 0.111564904 0.12819211
000030 90 d7 81 bd 32 5a c5 bb fc b0 79 bd ca 95 5e 3c
       -0.063399434 -0.006022715 -0.0609598 0.013585517
000040 e7 04 6f bc b5 eb eb bd 07 9b e5 bc 8e 14 12 3e
       -0.014588571 -0.11519567 -0.028028024 0.14265653
000050 c1 78 07 be 04 0b ab 3d 8a 4b f8 bd 04 40 47 3e
       -0.13229658 0.083517104 -0.12123783 0.19458014
000060 e4 b6 97 3b 39 6f 97 3d de 94 55 3d 42 a7 78 3d
       0.0046299566 0.07394261 0.052143924 0.060706384
000070 83 a1 ed 3c 27 9e fb 3d 3b a7 0d be 89 1d 26 3d
       0.029007679 0.122860245 -0.13833325 0.04055551
000080 90 35 0a 3e 09 70 4d bd b7 e0 e3 3b 39 a7 19 3e
       0.13496995 -0.050155673 0.0069542783 0.15005197
000090 19 ad 99 bd b9 6d 8a 3d 6e ad d8 3c 2b 30 ae 3d
       -0.07503719 0.06759209 0.026449885 0.08505281
0000a0 fd 09 61 bc 14 89 bb 3d 59 80 1f bc 82 b8 69 3d
       -0.013735292 0.09157005 -0.00973519 0.057060726
0000b0 08 c0 88 bd f4 56 55 bd ac ca cd bd 20 e3 c8 3d
       -0.06677252 -0.052084878 -0.10048422 0.09808946
0000c0 89 36 da 3c b9 3c c1 bd 62 92 c9 bd 84 e8 00 3e
       0.026637333 -0.0943541 -0.098423734 0.12588698
0000d0 66 0c 04 3e 31 f9 54 bd c0 d7 a3 bd 07 e4 58 bd
       0.12895355 -0.05199546 -0.080001354 -0.05295184
0000e0 38 a7 9f bc 0e 83 8c 3d d3 68 6a 3d 0a 1e ed 3d
       -0.019488916 0.06860934 0.057228874 0.11577995
0000f0 84 77 83 3d ec b1 8b bd f5 1c 03 bd 4e 06 99 bb
       0.0641928 -0.06821045 -0.032010037 -0.004669941
000100 83 6d 60 3d 1b 48 68 be 84 de 91 ba d3 79 19 be
       0.05479194 -0.22683756 -0.0011128937 -0.14987879
000110 c0 35 76 bd c2 18 0a 3e 55 46 d0 bd 27 ea 45 be
       -0.060109854 0.13486007 -0.10169665 -0.19327603
000120 9d 6b 90 3d 8d f4 87 3c 4d 9e 4b 3c f6 f6 c6 bd
       0.070517756 0.016596103 0.012427879 -0.09715073
000130 3f f9 c6 3d 24 04 34 bd 78 2d 28 be 45 21 ad 3d
       0.09715509 -0.04394926 -0.16423595 0.08453611
000140 75 4b be bd 7f 84 e7 bd 5c 13 87 3d db 7e 40 3d
       -0.09291736 -0.113045685 0.065954894 0.04699598
000150 fd a2 e1 bd 7e 00 d9 bc d8 70 aa bd e2 b1 cb 3d
       -0.11017416 -0.026489493 -0.083223045 0.09946038
000160 5d da 04 be 2f 61 a5 3d 39 05 cb 3d fe 0b de bd
       -0.12973924 0.08075177 0.099131055 -0.10842131
000170 5d 38 97 3d fa 99 1d 3e 54 08 18 3e ef fd 22 3d
       0.07383797 0.15390769 0.14846927 0.03979295
000180 56 39 3d 3c 00 46 d9 3c 55 ec 79 bd 0e da ae bd
       0.0115493145 0.026522636 -0.0610164 -0.085376844
000190 ed e6 20 3e d7 8b 93 bb e9 3f ed 3d 6a 64 d8 bc
       0.15713091 -0.004502754 0.115844555 -0.026415069
0001a0 c4 e8 df 3d 1b d6 cf bd ce a7 86 bd d8 79 0f be
       0.109330684 -0.10148259 -0.06574975 -0.14011323
0001b0 09 0a 2c bd b5 a0 a5 3c 0c 9b 24 be e6 16 1e be
       -0.042001758 0.020218233 -0.1607477 -0.15438423
0001c0 78 87 f2 3c 30 07 dd 3d a6 2b e0 3d a2 df f2 bd
       0.029605612 0.107923865 0.10945825 -0.11859061
0001d0 fb 65 e6 bc c8 84 84 3d c2 80 87 bc 21 ee d3 ba
       -0.0281248 0.064706385 -0.016540889 -0.001616899
0001e0 0e 43 8f bd ed fc a2 bd 70 fb 46 bc fb 07 b0 3d
       -0.069952115 -0.07958398 -0.012144908 0.08595272
0001f0 1d d8 b5 bc 78 07 e8 bd 15 dd 1a bd cd 10 ec 3d
       -0.022197777 -0.113295496 -0.037808497 0.11526642
000200 14 4e d2 3d 88 91 d8 bc 2d 32 2f bc df c6 62 3a
       0.102687985 -0.026436582 -0.010693115 0.000865085
000210 48 24 ad 3d d4 1d 6c 3d dd f8 17 bd 10 51 0c bd
       0.08454186 0.057645634 -0.03710257 -0.034256995
000220 4f a2 d2 3c 76 f5 38 bd 6e 6f 14 be ff b2 d6 bd
       0.02571216 -0.045155965 -0.14495632 -0.104833595
000230 10 be a7 3d 4a b6 7c bd 06 53 b3 3d fc 26 22 3e
       0.081905484 -0.061697282 0.0875607 0.15835184
000240 c4 58 f0 bd 76 bd 36 bd 5b 52 69 3d 81 fe 23 3e
       -0.11735681 -0.044614278 0.056963306 0.16015054
000250 0d 18 85 3c 52 86 27 be 46 b9 08 bc 30 b4 0e bd
       0.01624682 -0.16359833 -0.008344954 -0.03483981
000260 db c0 20 be 7b b8 6a bc 5c 07 b3 3d 63 cb dd 3d
       -0.15698569 -0.01432621 0.08741638 0.108298086
000270 1f 7e 96 3d b9 58 96 3d 63 68 d3 3d 05 09 7c 3d
       0.073482744 0.07341141 0.103226446 0.06153204
000280 45 12 2f bd 4f 98 d8 bd 3a dd 28 3c a4 66 82 3d
       -0.042742033 -0.105759256 0.010306651 0.063672334
000290 88 d8 ac 3d 18 ad 3e bd be 38 59 bd 94 5b ac bd
       0.084397376 -0.046551794 -0.05303263 -0.08415905
0002a0 c6 ef 06 be b8 be 80 3d c4 84 12 3e c3 a1 2f bd
       -0.13177404 0.06286377 0.14308459 -0.042878877
0002b0 d0 31 1f be 09 7c 9e bc 6c dd a5 bd 2b 13 2f 3e
       -0.15546346 -0.019346254 -0.080988735 0.17097156
0002c0 62 00 cb 3c 40 aa 0d be 03 ba a8 3d 20 4e 90 bd
       0.024780456 -0.13834476 0.08238604 -0.07046151
0002d0 e0 7a d2 bd 64 67 16 3e a5 62 40 bc 39 0c 88 3c
       -0.10277343 0.14687878 -0.011742269 0.01660739
0002e0 6b bb fa 3d 4c 6e 36 bd 18 65 83 bd e0 d8 71 bd
       0.122427784 -0.04453878 -0.064157665 -0.05904472
0002f0 31 fc f5 3c 01 d6 02 3d b1 99 df 3d b6 23 dd bd
       0.03002748 0.03194237 0.10917986 -0.10797827
000300 16 7e 9b 3d 38 0a 0b 3d c3 5a 30 be 95 26 a6 3d
       0.07592408 0.033945292 -0.17222123 0.08112828
000310 1f 7f d4 3d f2 c7 ff 3d 06 bb 4d 3a 74 9d 3c 3d
       0.10375809 0.124893084 0.0007847998 0.046048597
000320 a1 26 09 3e fa 79 5f bb 83 70 4f 3d 25 23 f2 bd
       0.13393642 -0.0034099803 0.05064441 -0.118231095
000330 f6 19 3b bd 28 18 20 be f1 b4 cd bd 1e 1a 03 3e
       -0.045679055 -0.15634215 -0.100442775 0.12802932
000340 a1 b1 06 3e 5f e9 56 3e 23 25 2d 3e 4f d7 3f be
       0.13153698 0.20987462 0.16908698 -0.18734477
000350 23 63 65 3d d7 8c 3b 3d 69 9e 1c 3d 3c f9 11 3c
       0.056002747 0.045788612 0.03823701 0.00890952
000360 0d 12 cb bb 57 79 89 3d 0d aa 68 3d d9 a4 02 be
       -0.00619722 0.06712597 0.056802798 -0.12758197
000370 58 4f 28 ba 0d 6e 24 bd 37 0e cf bd 4b ff 19 3d
       -0.00064205145 -0.040144015 -0.10110133 0.037596982
000380 8d 08 4a be 62 bb e7 3b d6 ea b3 bd 45 af 79 bd
       -0.19729824 0.0070718983 -0.08785026 -0.060958166
000390 e1 f8 23 3e d2 18 2a bd 89 eb cb 3d 72 45 6a 3c
       0.16012909 -0.041527577 0.09957034 0.014298784
0003a0 55 1f ea bd 86 27 11 3d 0d e0 18 3e 9a ff b0 3d
       -0.11431757 0.035438083 0.14929219 0.08642502
0003b0 16 bf 94 3d 5e bf ff 3b 87 ac 17 3d 92 a5 f3 3d
       0.07263009 0.007804795 0.03702977 0.118968144
0003c0 dc 39 09 be 53 d4 d1 3c 6f db b9 bd eb b1 b3 3d
       -0.13400978 0.02561394 -0.09075057 0.087741695
0003d0 c9 bb 1f 3d 01 d2 5c bd fc de 2b bd 3c 0c f8 bd
       0.038997445 -0.053911213 -0.0419607 -0.121117085
0003e0 3e fa dd bd ac da bb 3d 27 a6 a6 bc 54 ab 15 be
       -0.108387455 0.09172568 -0.0203429 -0.14616138
0003f0 c7 35 0f be b2 fa be 3d 7e aa ee bc dd 9a 46 3d
       -0.13985358 0.0932516 -0.029134031 0.048487533

weight_hh_l1 f4 [50, 50]
000000 1b 52 b4 3d e7 da c0 3d 88 e2 6f bd 75 21 b5 3c
       0.08804723 0.09416752 -0.058565646 0.02211068
000010 16 cb 14 be b3 fb d1 3d d6 30 a7 bd d8 43 16 3e
       -0.14530596 0.10253086 -0.081636116 0.14674318
000020 95 11 ce 3a a2 45 4e bd dd 9d 14 bd 04 54 c6 bd
       0.0015721793 -0.050359376 -0.036283363 -0.096839935
000030 33 e3 ab 3d 46 2f cb bd 6e 89 b4 3d d4 c5 09 3e
       0.08392944 -0.09921126 0.08815275 0.13454372
000040 a2 3a 38 be 17 da 4c be 5e 18 f0 bd 3f 5d b9 bc
       -0.17991117 -0.2000507 -0.11723398 -0.022627471
000050 7a b6 21 be 6e 25 00 be 0e 7a da 3d 57 90 8d 3d
       -0.15792266 -0.12514278 0.10667811 0.06912296
000060 ca 56 bc bd ac 97 c6 bd 97 57 29 3e d0 ab 9c bd
       -0.09196241 -0.09696898 0.16537319 -0.07649958
000070 2b a4 b6 bd 0c 49 09 3e c4 30 89 3d 58 9b d8 bd
       -0.08918031 0.13406771 0.066987544 -0.105765045
000080 ea d1 6c bc 4b 79 21 bd 94 03 a2 bd 8b b0 1d be
       -0.014454344 -0.039422315 -0.07910839 -0.15399377
000090 fb 8b 0b 3d 31 43 af 3d 12 cd c1 3d 1c 88 fb bd
       0.034069043 0.085577376 0.09462942 -0.1228182
0000a0 0f c1 a2 3d 30 fb 98 bc 40 a7 47 3d e9 a8 85 3d
       0.07946979 -0.018674463 0.048743486 0.06526358
0000b0 e6 0d 21 3d 22 e9 2f bd 6d 10 d6 3d 5f 52 9a 3b
       0.039319895 -0.042946942 0.10452352 0.0047095264
0000c0 4c f5 27 be 60 d1 1a 3e 06 97 f1 bc d7 a4 26 3e
       -0.16402167 0.15118933 -0.029490959 0.16273819
0000d0 ec 0c 15 3e 8b fd 43 bd a1 7b 25 bd a7 6b bd 3d
       0.1455571 -0.04784922 -0.040401105 0.09249049
0000e0 2d c3 df 3d 97 ec bf bd ba f2 14 be 52 6c b8 bc
       0.10925899 -0.09371298 -0.14545718 -0.022512589
0000f0 3a a9 9f 3d 1a 26 2f 3c c5 44 b4 bb 95 53 ae bd
       0.07795949 0.010690236 -0.005501362 -0.08512036
000100 59 90 8f bd 36 40 c5 3d cf c5 81 bd 8d 71 10 be
       -0.07009954 0.09631388 -0.06336557 -0.14105816
000110 3e 32 b6 3d 73 18 57 bd 1f 5f ea 3c 76 35 0f 3d
       0.08896302 -0.05251355 0.02860981 0.034963094
000120 c9 7a 34 3b ca c2 88 3d dd 59 8e bd 0f 51 61 3c
       0.0027539006 0.06677778 -0.06950734 0.013752236
000130 ca 9f ec bd 74 8f e8 3d 28 30 57 3d b2 ed 81 bd
       -0.11553915 0.113554865 0.05253616 -0.06344165
000140 6d d3 aa 3c 4d 32 19 be f3 72 29 be 67 33 a1 bc
       0.020852769 -0.14960594 -0.16547756 -0.01967783
000150 97 6b 3a 3d 62 df 0c be 59 a1 d4 bd c5 0c d7 3b
       0.045512762 -0.13757089 -0.10382337 0.0065628015
000160 25 e2 e0 3d a9 21 2a 3d 60 fb c1 bd c9 16 01 bd
       0.10980634 0.041536007 -0.09471774 -0.03151587
000170 df 77 fe bd 87 ec 8e 3d d7 21 04 bd 99 d8 a1 bd
       -0.12425207 0.06978708 -0.032258835 -0.07902641
000180 ad 1e 29 be 91 d9 01 3d 9b 2f 12 be ce 17 92 bb
       -0.16515608 0.031701628 -0.14275973 -0.004458404
000190 fc 04 19 3e 74 98 0f 3e 9d 3e 0f 3e 6b 45 fe bd
       0.14943308 0.14023 0.13988729 -0.12415584
0001a0 2d cf a6 bc c4 e4 11 be ce c9 31 be bc b8 02 3c
       -0.020362461 -0.14247423 -0.17362139 0.007978614
0001b0 5c 34 7f 3d 8e 2d 13 3e d4 1f b7 3b 30 0d 0e bd
       0.062305793 0.14372846 0.005588511 -0.034680545
0001c0 36 c0 1c 3e 5d d8 d5 3b 37 37 10 3d 46 3b 8c 3d
       0.15307698 0.0065260367 0.035208907 0.06847243
0001d0 86 99 e2 3c 3b fd 17 bd da 66 18 3e 54 7b 93 bc
       0.027661096 -0.037106734 0.14882985 -0.018003143
0001e0 6a c9 ca 3d 63 d1 61 3a 07 e2 96 3d 09 2c d5 bb
       0.09901698 0.000861427 0.0736733 -0.0065054935
0001f0 fa 9b 1f bd ee 7d 01 3e 77 37 1c 3e da 05 23 3d
       -0.03896711 0.12645695 0.15255533 0.039800502
000200 ea 3f cd bd 68 4a 20 3e 68 db 83 3b 1c bf bb bd
       -0.10021956 0.15653384 0.004023958 -0.091673106
000210 55 d2 f9 bd 93 06 e7 bd f0 2a 66 3d e8 20 00 be
       -0.12198321 -0.11280551 0.056193292 -0.12512553
000220 05 fd 8e 3d a6 e4 6d 3b fd b1 f0 3d 1a 2d 14 3e
       0.069818534 0.0036299615 0.117526986 0.1447033
000230 8b f6 1b be d6 1b d3 3d 68 77 39 be e8 75 d0 3c
       -0.15230767 0.10308044 -0.18111956 0.025446847
000240 ba b9 11 be 5b a8 02 3d 55 76 98 bd 3a c9 00 3e
       -0.14231005 0.031898838 -0.07444445 0.12576762
000250 eb 94 0e be 14 1c 6d bc 6b fd 26 3d 21 91 c9 3d
       -0.13923995 -0.014472026 0.040769022 0.09842134
000260 5a fd 5c bc 0b 02 26 3e 94 e8 c6 3d 64 65 c9 3d
       -0.013488138 0.16211717 0.097123295 0.09833792
000270 0f 50 5e 3b ad eb 1e be 79 10 d8 3d ae 49 97 3d
       0.003392223 -0.1551959 0.10550017 0.073871
000280 6b 56 40 3b d2 39 d2 3d b5 64 31 be 64 0e 6e 3b
       0.0029348384 0.102649346 -0.17323573 0.0036324495
000290 54 8f e5 bb fb 4d fe bd cb 2f 24 3e 75 d4 17 3e
       -0.0070056114 -0.12417217 0.16033857 0.1482714
0002a0 0c ed 28 be 4b 76 27 3e c4 f7 b6 bd fc c8 66 3d
       -0.16496676 0.16353719 -0.08933976 0.056344017
0002b0 17 ac 1f be 48 95 8e 3d fb 38 9c 3d c3 a6 0b be
       -0.15592991 0.06962067 0.07628056 -0.13637833
0002c0 6c cc a8 bd 46 6b d1 3d a0 73 dc bd 9c 3c 08 3d
       -0.082421154 0.10225539 -0.10764241 0.033260927
0002d0 ca 35 4e bc b4 79 fb 3d 89 56 9c 3c df 80 3a 3e
       -0.0125860665 0.122790724 0.019084232 0.18213223
0002e0 18 59 fe bd 2b 2a 18 3e 90 db a8 3d c5 7f a4 3d
       -0.12419337 0.14859836 0.08245003 0.080321826
0002f0 16 58 9e 3d db 77 25 be e3 87 91 bd 24 1e 22 be
       0.07731645 -0.16159002 -0.071059965 -0.1583181
000300 31 21 04 3e 87 e3 35 3d 7c 1f e0 bd 5e 20 9c 3d
       0.12903287 0.04440644 -0.10943505 0.07623361
000310 61 7c 8a 3d bb fc d6 3d 73 d2 d3 3d a9 38 09 3d
       0.06762005 0.10497423 0.103428744 0.0335013
000320 32 7c 21 bd 5a 90 54 3d 29 ea 46 bc c7 29 d0 3d
       -0.039425083 0.051895477 -0.012140789 0.101642184
000330 bf b5 14 3d b8 41 15 3e 10 10 e0 3d 86 df d9 bd
       0.03630614 0.14575851 0.10940564 -0.10638337
000340 01 bc 44 3e 4e bb 3b be 87 c0 70 3d 5d 83 65 bc
       0.19212343 -0.1833317 0.05877736 -0.01400837
000350 61 6a 10 bc be fc 55 bd b1 ad 31 bd 2e 0c 9a 3d
       -0.008814425 -0.052242987 -0.043378536 0.07521854
000360 57 57 07 3e 9e d9 17 3e 36 06 c8 3c 6e 6a 5d 3c
       0.13216911 0.14829108 0.024417024 0.013514144
000370 33 11 01 bd 88 1d 96 bc 84 f1 77 bd 29 52 bc 3d
       -0.031510543 -0.018324628 -0.06053306 0.09195358
000380 37 ff 16 be 32 f8 e9 bd cc 36 74 bd 9b 87 b9 3b
       -0.14745794 -0.114242926 -0.05962257 0.0056619174
000390 64 01 fd 3d bc b2 89 bd 37 fa 2e 3d 61 e3 15 3e
       0.12353781 -0.06723544 0.042719092 0.1463752
0003a0 59 8d cd 3c b4 97 98 bd 93 5b b3 3d e1 04 7b bd
       0.025091814 -0.0745081 0.08757701 -0.06128395
0003b0 54 28 87 3d 86 aa e0 bd f2 d7 09 3d 9a 2c f4 b9
       0.06599489 -0.10970025 0.033653207 -0.00046572537
0003c0 6c 36 51 3d e3 96 11 be dd 24 91 3d 57 7f ae 3d
       0.05107729 -0.14217715 0.07087109 0.08520382
0003d0 dc 8b a0 3d 7c 7d 7c bd 9b ad 80 3d 6a 77 0d 3e
       0.07839176 -0.06164311 0.062831126 0.13815084
0003e0 0b f3 f8 ba 48 97 8b bd 16 c0 cb bd de 65 8b bd
       -0.0018993331 -0.06815964 -0.09948747 -0.06806539
0003f0 23 72 01 be 86 f6 50 3d 21 b4 a6 bd b7 ac e8 3d
       -0.12641196 0.051016353 -0.081398256 0.11361068

bias_ih_l1 f4 [50]
000000 45 6e 21 be ff 90 00 bd b4 c4 09 bd e3 48 f1 3c
       -0.1576472 -0.03138828 -0.033634856 0.0294537
000010 7c 6b 91 3d 94 b4 7f bc 93 4b 5f bd 42 43 30 bd
       0.07100579 -0.015607018 -0.054515433 -0.043032892
000020 57 44 5c 3d 3f 59 b5 bd 2d 69 bf 3d cc 1d 17 3e
       0.05377611 -0.08854913 0.093462326 0.1475746
000030 3b 30 96 bd 59 99 ca 3d de 6f a4 bc da 66 b0 bd
       -0.07333418 0.0989253 -0.020072874 -0.086133674
000040 f4 89 b3 3d 4c 1e 06 3d e8 e6 ee bd 89 4c 85 3d
       0.08766547 0.032743737 -0.116651356 0.065087385
000050 63 c6 03 3e 71 b0 f1 bd 1d d6 d2 bd bf f2 27 be
       0.12868647 -0.11801232 -0.10294745 -0.16401194
000060 34 01 0b 3e e9 d9 09 be 5b 95 02 be fd 37 71 bd
       0.13574678 -0.13462032 -0.12752287 -0.058891285
000070 f0 30 b9 bd 59 12 9f bd 42 8f 29 3e 53 c5 f5 3d
       -0.09042537 -0.077671714 0.16558555 0.12000527
000080 59 9a 1a 3e 06 16 a3 bd fd 45 07 3e 43 e0 a3 3c
       0.15097941 -0.07963185 0.13210292 0.020004397
000090 db c1 1f be 1e 2b c7 bc 4a 38 8e 3d 73 ef 14 3d
       -0.15601294 -0.024312552 0.0694433 0.03636117
0000a0 eb 77 0b 3e c3 2c 99 bd f4 d0 20 3e 97 f6 aa 3d
       0.13619964 -0.07479241 0.1570471 0.083478145
0000b0 b0 e0 a9 3c c1 5e ba 3d 30 d8 f5 3d a9 e1 28 be
       0.020737022 0.09100104 0.12004125 -0.16492333
0000c0 f0 ad f7 3d 9d dd ba bc
       0.12093723 -0.022810752

bias_hh_l1 f4 [50]
000000 27 c7 a5 3d 48 39 81 bd d1 6b 1c be ed 5a 49 bc
       0.08094626 -0.06309754 -0.15275504 -0.012289745
000010 90 44 92 bd 63 8b 61 3d df 67 2b 3d 37 5e 8c bc
       -0.071419835 0.05506457 0.041847106 -0.017134769
000020 df 63 dc 3d 0d cf 97 bd 14 5f d6 3d 3d ff 72 3d
       0.107612364 -0.07412539 0.104673535 0.059325445
000030 f5 12 b7 bd 35 8f a5 3d eb 76 f4 3d ee ff 20 be
       -0.08939163 0.08083955 0.11936744 -0.1572263
000040 ec c1 a3 3d 2e d9 27 bd 90 25 12 be 4e f7 06 3e
       0.07995972 -0.040978603 -0.14272141 0.13180277
000050 78 f1 80 3d 92 29 76 bd 05 a6 10 bc df de b9 bd
       0.062960565 -0.06009824 -0.008828645 -0.090757124
000060 fb 6c 4d bc df 37 a0 bd b2 d5 ab bd 82 d6 d5 bd
       -0.01253819 -0.078231566 -0.083903685 -0.10441305
000070 a2 da ad bd 65 47 9d 3d 4b ce a7 3d 4a 0f de 3d
       -0.084889665 0.07679633 0.08193644 0.1084276
000080 40 40 53 bd 91 62 b2 3d c1 06 08 3d e3 4a fb bc
       -0.051574945 0.08710206 0.033209566 -0.030675357
000090 96 95 95 bd 17 4f 8c bd a4 e4 30 bd 10 fc e2 bc
       -0.07303922 -0.06851023 -0.0431868 -0.027708083
0000a0 d6 cb 2c 3d dd d4 10 3c 89 f6 19 bd 71 57 bc bc
       0.04218658 0.008839813 -0.03758863 -0.022990914
0000b0 a9 48 23 3e 09 40 87 3d 3a 21 72 3d 51 41 d5 3d
       0.15945686 0.066040106 0.05911372 0.10412849
0000c0 e5 e0 cb 3d 52 52 d3 bb
       0.099550046 -0.0064490223

weight f4 [1, 50]
000000 5c ed 72 bd 71 f5 21 be 68 6b 93 bb 32 d1 13 3e
       -0.059308395 -0.15816285 -0.004498888 0.1443527
000010 d2 fa 0f 3e 08 bc 91 3d 7d f3 c5 bd c1 10 00 3e
       0.14060524 0.07115942 -0.09665582 0.12506391
000020 d8 56 12 be c9 5b 22 3d 4c 34 55 3d ee 6c bc 3c
       -0.14290941 0.039638314 0.052051827 0.02300116
000030 0e 89 33 be 6e fa 75 3d 8b a6 be bb f6 af eb bd
       -0.17532751 0.06005328 -0.0058181933 -0.11508171
000040 14 c8 3c be 5f 81 19 be 23 a0 8f bc 2e 78 be bd
       -0.18435699 -0.14990757 -0.017532414 -0.09300266
000050 4a 97 23 3e d1 ac 05 be 45 68 f3 3d 9c 38 a1 bd
       0.15975681 -0.13054205 0.11885122 -0.078721255
000060 a6 8e 9f 3d 9d db 01 be e3 ab b6 3d f3 67 c4 3d
       0.0779088 -0.12681432 0.089195035 0.09590139
000070 e3 5c 4b 3d 07 0c 0f be ca 8d 29 3e 9e 70 21 3d
       0.04964913 -0.13969432 0.16557994 0.03941404
000080 3c 29 86 3a 7d ef 8b bd 78 ad ac 3d a6 0f 9a 3d
       0.0010235677 -0.06832788 0.08431524 0.07522516
000090 8b c0 06 be 2d 6f 14 3e 2b ae ca bd 3e 37 0f 3b
       -0.13159387 0.14495535 -0.09896501 0.0021852995
0000a0 45 5c f8 3d 61 ab f3 3d b5 ee 0a 3e 83 0f 11 3e
       0.12126974 0.11897922 0.13567622 0.14166074
0000b0 71 a6 c3 3d fe b9 7e bd f8 c5 4b 3d 51 bd f9 bd
       0.095532306 -0.062189095 0.049749345 -0.12194312
0000c0 43 e0 49 3d 66 a0 93 bd
       0.04928614 -0.07208328
