Backend/SavedModels/rnn_model.pth (torch, 211024 bytes, 13 tensors)

rnn.weight_ih_l0 f4 [100, 9]
0.020955957 0.040978864 -0.018537201 0.09676083 -0.1098122 -0.09094655 0.08208456 -0.05747782
0.18274423 -0.043973994 -0.11719966 -0.093904994 0.1982336 0.35580504 -0.15094796 0.000585802
-0.15124498 0.041530423 0.05120229 -0.0061671683 0.09681276 -0.02075723 0.4038092 0.0891954
0.16170378 -0.14429277 -0.17147893 -0.017308608 -0.23351696 0.10585214 -0.0617774 -0.14560372
-0.07321007 0.0868817 -0.092480265 0.110867344 -0.09959343 0.030408876 -0.0934996 -0.025455566
-0.12786946 -0.030393902 -0.023812069 0.16038935 0.07549438 -0.09708592 0.19933215 0.05443038
0.006197242 -0.099598415 0.061987165 -0.111470535 -0.010944808 -0.04343103 0.097145125 0.21860191
-0.027336424 0.18072249 0.18072037 -0.047276124 0.06750833 0.13982785 -0.18346773 0.092298366
0.073413216 -0.0838301 0.035819475 0.32157382 -0.07527013 -0.070125125 0.09812867 -0.15902728
0.002557031 0.02338816 -0.03737226 -0.07227686 0.2389902 0.06088693 0.0046160393 0.07027757
-0.021194221 -0.06339999 -0.06052944 -0.0406217 -0.08709963 -0.18209793 0.06973828 -0.1329824
-0.061196763 -0.06286638 0.10399124 0.29684675 0.07655819 0.10297118 0.1656367 0.10187386
0.046891086 -0.19173959 -0.062404122 0.016988672 -0.13418691 -0.110875666 -0.047677487 -0.20662788
-0.03475505 -0.045550447 -0.058827635 0.0058958647 -0.0026643055 -0.034709126 0.013200646 0.061100066
-0.33093908 0.088219754 -0.11514884 0.04609598 -0.15373434 0.0550367 -0.09927694 -0.12401444
-0.12141589 -0.20755169 -0.12445419 -0.07105766 0.04523818 -0.19116665 0.09534515 0.15709633
0.1177339 0.013749852 0.1904463 -0.03553841 0.023859045 0.043031536 -0.14118744 0.03104056
-0.14648059 0.03571246 -0.09230489 -0.119493134 0.046985783 -0.06469435 0.072811805 0.034831982
0.030248147 -0.10058268 -0.068009146 -0.027332932 0.020875234 0.09705001 0.13861068 -0.094618075
0.04738517 -0.07913705 -0.072559126 0.07892484 -0.06221326 0.03413339 0.036015477 0.16429858
-0.15520926 0.21076943 0.06249065 -0.087319165 0.08280378 0.054344356 0.21927321 0.07489782
7.340292e-05 -0.02423149 0.03117533 -0.07321557 0.010090291 0.024640586 0.12198144 -0.28206858
-0.05258265 -0.07927821 0.046943504 0.22309369 -0.071049854 0.12997858 0.049942292 0.06801478
0.3527275 -0.08916273 0.011032988 0.048154414 0.077912204 0.034628376 -0.055544212 0.07028423
-0.19662234 -0.01938687 0.06383635 0.02458228 0.06031141 -0.25080064 0.012009885 0.062293813
-0.05806844 -0.13503505 -0.28181845 0.05584921 -0.074234344 0.2126298 -0.17552684 0.03340923
0.019614493 0.07073041 0.017917704 -0.008393587 -0.005211272 -0.121341646 -0.21292019 -0.037717436
-0.03144287 -0.08352825 0.1345631 -0.011983775 0.3988234 0.01916733 0.07400057 0.24147335
0.026593037 0.0008635239 0.004240522 -0.037533518 0.00019503104 -0.03347317 -0.09883927 0.0776932
-0.2003287 0.20378155 0.06153714 0.053464863 0.035847045 0.09702941 -0.22153783 0.020994816
-0.16250166 0.014957136 -0.14493978 0.038407575 0.022042865 0.09552134 -0.031703733 -0.15355
0.10773955 0.034726646 -0.13927524 0.123625055 0.0775262 -0.044962354 0.10584271 0.045007307
00000000: d4ab ab3c 74d9 273d 54db 97bc 8b2a c63d
00000010: 38e5 e0bd 2f42 babd f31b a83d dd6d 6bbd
00000020: 4e21 3b3e 131e 34bd 6006 f0bd 4351 c0bd
00000030: c0fd 4a3e 142c b63e 1a92 1abe 8290 193a
00000040: f7df 1abe ce1b 2a3d 7eb9 513d f515 cabb
00000050: c545 c63d 110b aabc 14c0 ce3e 14ac b63d
00000060: ad95 253e 7cc1 13be 2c98 2fbe c8ca 8dbc
00000070: 121f 6fbe 02c9 d83d 4d0a 7dbd 2419 15be
00000080: 29ef 95bd 08ef b13d 4b66 bdbd 6b0e e33d
00000090: a4f7 cbbd 091c f93c b87c bfbd 3188 d0bc
000000a0: 36f0 02be a2fc f8bc 8711 c3bc 1b3d 243e
000000b0: cc9c 9a3d fcd4 c6bd ba1d 4c3e 64f2 5e3d
000000c0: 3c12 cb3b 41fa cbbd 41e6 7d3d aa4a e4bd
000000d0: da51 33bc bce4 31bd 06f4 c63d 2ed9 5f3e
000000e0: a3f0 dfbc 510f 393e c30e 393e 9ca4 41bd
000000f0: cf41 8a3d 082f 0f3e f7de 3bbe ed06 bd3d
00000100: ab59 963d 1eaf abbd 71b7 123d 53a5 a43e
00000110: 3a27 9abd c39d 8fbd aff7 c83d 0cd8 22be
00000120: dd93 273b 8798 bf3c a813 19bd e405 94bd
00000130: d9b9 743e 9364 793d 2542 973b b0ed 8f3d
00000140: 819f adbc dbd7 81bd b8ed 77bd f162 26bd
00000150: 4a61 b2bd e177 3abe f1d2 8e3d 8a2c 08be
00000160: 75a9 7abd 17c0 80bd 5cf9 d43d 4cfc 973e
00000170: 8aca 9c3d 8ee2 d23d ab9c 293e 3ea3 d03d
00000180: de10 403d 6257 44be 779b 7fbd d42b 8b3c
00000190: 4b68 09be c812 e3bd 7849 43bd 4296 53be
000001a0: 505b 0ebd 1b93 3abd 3ff5 70bd 1932 c13b
000001b0: a19b 2ebb 282b 0ebd 8647 583c 1044 7a3d
000001c0: d970 a9be 8fac b43d 28d3 ebbd 23cf 3c3d
000001d0: 896c 1dbe 2a6e 613d b551 cbbd 48fb fdbd
000001e0: e5a8 f8bd 6e88 54be d7e1 febd ae86 91bd
000001f0: ab4b 393d 31c1 43be 5144 c33d dcdd 203e
00000200: 791e f13d 0f47 613c 5b04 433e b990 11bd
00000210: 0b74 c33c d641 303d 7193 10be c648 fe3c
00000220: 02ff 15be 3a47 123d 590a bdbd d1b8 f4bd
00000230: 2a74 403d 797e 84bd 5b1e 953d fbab 0e3d
00000240: f6ca f73c 4bfe cdbd 6148 8bbd 50e9 dfbc
00000250: 8a02 ab3c 28c2 c63d f5ef 0d3e 1fc7 c1bd
00000260: f416 423d 9b12 a2bd e199 94bd 59a3 a13d
00000270: 55d3 7ebd 74cf 0b3d f784 133d e33d 283e
00000280: 2def 1ebe f1d3 573e 32f6 7f3d 64d4 b2bd
00000290: 0795 a93d 3098 5e3d 2889 603e 0764 993d
000002a0: e5ef 9938 1e81 c6bc 6863 ff3c 0bf2 95bd
000002b0: bf51 253c 0edb c93c 68d1 f93d 4b6b 90be
000002c0: e860 57bd 9d5c a2bd d547 403d ac72 643e
000002d0: 9682 91bd 1b19 053e 4a90 4c3d 554b 8b3d
000002e0: b398 b43e f39a b6bd b5c3 343c 903d 453d
000002f0: 6f90 9f3d 7cd6 0d3d 5482 63bd 2ef1 8f3d
00000300: 5e57 49be 37d1 9ebc a2bc 823d c760 c93c
00000310: 1909 773d f168 80be 1cc5 443c cc27 7f3d
00000320: 2cd9 6dbd a146 0abe 824a 90be 24c2 643d
00000330: 2d08 98bd a0bb 593e 4fbd 33be 1ed8 083d
00000340: 93ae a03c 1bdb 903d 26c8 923c 4185 09bc
00000350: 51c3 aabb f881 f8bd c007 5abe 997d 1abd
00000360: 3dca 00bd dc10 abbd e9ca 093e 9857 44bc
00000370: 9532 cc3e ce04 9d3c 9c8d 973d ca44 773e
00000380: a4d9 d93c 1c5e 623a 14f4 8a3b bfbc 19bd
00000390: 3f81 4c39 2a1b 09bd 3e6c cabd 9d1d 9f3d
000003a0: f722 4dbe 1cac 503e 5e0e 7c3d f9fd 5a3d
000003b0: 5ad4 123d 5bb7 c63d d0da 62be 52fd ab3c
000003c0: d666 26be c60e 753c 186b 14be 4351 1d3d
000003d0: 3d93 b43c b1a0 c33d c6db 01bd 363c 1dbe
000003e0: 8ea6 dc3d 873d 0e3d 2b9e 0ebe 222f fd3d
000003f0: 0ec6 9e3d 722a 38bd 10c4 d83d 9559 383d

rnn.weight_hh_l0 f4 [100, 100]
-0.0057983156 -0.03137597 -0.018038228 0.034627594 0.03194369 -0.009942286 -0.0530597 -0.10436464
-0.029673863 -0.011145743 -0.0785187 0.047279183 0.01771676 0.11180384 -0.1066552 -0.00031967863
-0.042346116 0.04934482 -0.0048326426 0.11788835 -0.06295467 -0.0014157721 -0.011216586 -0.013955106
-0.11952228 0.031806845 0.114477366 0.069827065 -0.029787837 0.027777174 -0.016968831 -0.005891729
-0.06632001 -0.044147823 0.07488792 -0.029076556 0.071827814 0.08217563 -0.037360843 0.08233205
0.10418965 -0.08041821 0.05960315 -0.14763345 -0.019426666 0.022645228 -0.044874683 -0.056345277
-0.007151051 0.025172738 -0.062754065 0.0044148727 0.09851771 -0.08989931 0.06408241 0.054958515
0.0129502285 -0.033258222 0.012618023 0.05098392 -0.08171439 -0.06569573 0.03485115 -0.05115929
-0.045208458 0.06356809 0.109900296 0.026852874 0.034919437 0.069345966 -0.015843853 -0.10358833
0.08110139 -0.05480004 0.032964017 -0.11151611 -0.11767873 0.034844853 -0.0716468 0.0709129
-0.09509975 0.056318756 -0.01970923 -0.011599054 -0.065027714 0.16192849 -0.07560541 0.07053505
0.0010697856 0.093337946 0.114284344 -0.008909727 -0.036651105 0.013814835 0.007053916 -0.089124426
-0.0014308316 -0.1346471 0.11272791 0.011237824 -0.041769296 0.24705996 0.1215953 -0.074870296
0.007341826 0.014567777 0.04159366 -0.025929103 0.059478473 0.008429441 -0.008265083 -0.017021911
-0.05445317 -0.20648004 0.033859644 -0.10071086 0.105381936 0.028001597 0.106203236 0.038977936
-0.051246915 -0.046048727 -0.34609723 0.1458534 0.06458279 0.09040402 0.0116313305 -0.039819114
-0.19177896 0.046412513 -0.015128492 0.1326693 0.033937424 0.14652593 -0.09295266 0.12423365
0.015684323 -0.039836057 -0.06583221 -0.016757479 -0.075603135 0.0033264207 -0.13465218 -0.076681376
-0.08159564 0.036131542 0.08723397 -0.04777421 -0.17521533 -0.051134672 0.026117729 -0.10349334
-0.011280458 0.14538902 0.039261647 0.093338355 -0.0854075 -0.06548759 -0.006522869 0.06720144
-0.0003653684 0.15488239 -0.08123242 0.09654812 -0.029720804 0.021770835 0.08093419 0.028466495
-0.15621543 0.08689976 -0.1265851 0.101480484 -0.11297908 -0.00065464666 0.23471224 0.048681486
0.053649332 0.042424425 -0.07021851 -0.044858098 -0.052787825 -0.068597935 -0.14257461 0.1718643
0.04105122 0.076440424 0.28415295 0.104379795 0.29626164 0.037227403 -0.012625937 0.08071115
0.2962684 0.2235213 0.11433319 -0.022082996 -0.07054511 -0.027716512 -0.04211591 0.0037532474
-0.037110776 0.019808237 -0.017852604 -0.056576822 0.028057188 -0.033649635 0.102442585 -0.07416494
0.060384084 0.02839135 0.058065463 0.03852645 0.0643327 0.04341385 -0.035500225 -0.09937403
0.07961024 0.00073983206 0.017980605 0.03612256 0.02159162 -0.08068722 -0.010105462 -0.019791156
0.07435079 0.06507992 0.081259966 0.013169992 0.017617827 -0.038774658 -0.063741975 0.028090054
-0.026723027 -0.013862393 0.0267383 0.051227693 -0.047944553 -0.06752826 -0.009339277 0.0135041755
0.037701383 0.09857706 0.08704168 -0.0017855263 0.035652474 -0.05319115 0.09855138 0.12541978
0.009732913 -0.08964898 -0.00046377192 -0.044401895 -0.12382133 -0.10635695 -0.016542329 -0.04136332
00000000: ccff bdbb 1784 00bd e8c4 93bc aad5 0d3d
00000010: 63d7 023d f8e4 22bc 2155 59bd 21bd d5bd
00000020: 9a16 f3bc a29c 36bc 6ace a0bd d1a7 413d
00000030: bd22 913c 69f9 e43d 0b6e dabd 8a9a a7b9
00000040: 1f73 2dbd cb1d 4a3d 255b 9ebb 726f f13d
00000050: 61ee 80bd 6e91 b9ba c6c5 37bc f5a3 64bc
00000060: 19c8 f4bd e547 023d 1c73 ea3d 7e01 8f3d
00000070: 9f05 f4bc f58c e33c 3802 8bbc 680f c1bb
00000080: c9d2 87bd 59d4 34bd d65e 993d f531 eebc
00000090: 761a 933d b24b a83d af07 19bd b59d a83d
000000a0: 6261 d53d 4db2 a4bd 6f22 743d 392d 17be
000000b0: ac24 9fbc 7c82 b93c 84ce 37bd 4eca 66bd
000000c0: 5d53 eabb 0f37 ce3c 3485 80bd a3aa 903b
000000d0: a7c3 c93d 211d b8bd a33d 833d 2e1c 613d
000000e0: 322d 543c c639 08bd d3bb 4e3c 84d4 503d
000000f0: e059 a7bd 7c8b 86bd 14c0 0e3d 678c 51bd
00000100: 812c 39bd fd2f 823d 6813 e13d 8ffa db3c
00000110: af07 0f3d 4205 8e3d f8ca 81bc 1e26 d4bd
00000120: 7c18 a63d 0276 60bd 4705 073d 8f62 e4bd
00000130: 8c01 f1bd 7ab9 0e3d 8fbb 92bd c83a 913d
00000140: a8c3 c2bd 7fae 663d 4075 a1bc f509 3ebc
00000150: 402d 85bd 95d0 253e 02d7 9abd ae74 903d
00000160: 0c38 8c3a f727 bf3d e90d ea3d 1bfa 11bc
00000170: 781f 16bd 9e57 623c 8924 e73b de86 b6bd
00000180: be8a bbba eee0 09be e4dd e63d da1e 383c
00000190: 4816 2bbd 49fd 7c3e f506 f93d 9955 99bd
000001a0: b393 f03b afad 6e3c 1d5e 2a3d 4569 d4bc
000001b0: b39f 733d a31b 0a3c 456a 07bc 8971 8bbc
000001c0: 4a0a 5fbd 816f 53be 69b0 0a3d 7f41 cebd
000001d0: 7cd2 d73d 9b63 e53c 1581 d93d 54a7 1f3d
000001e0: 49e8 51bd 979d 3cbd a833 b1be 985a 153e
000001f0: fb43 843d be25 b93d 5691 3e3c 5e19 23bd
00000200: b461 44be 0c1b 3e3d 7fdd 77bc 76da 073e
00000210: f801 0b3d e50a 163e f75d bebd 366e fe3d
00000220: 697c 803c 222b 23bd 0ad3 86bd fb46 89bc
00000230: d1d5 9abd 1400 5a3b 43e2 09be 200b 9dbd
00000240: 9d1b a7bd abfe 133d b9a7 b23d e4ae 43bd
00000250: a66b 33be 9772 51bd d9f4 d53c 51f4 d3bd
00000260: acd1 38bc dce0 143e d2d0 203d 2e28 bf3d
00000270: 21ea aebd 5c1e 86bd cbbd d5bb e9a0 893d
00000280: eb8e bfb9 7d99 1e3e 2f5d a6bd 05bb c53d
00000290: 0b79 f3bc c058 b23c d3c0 a53d 9132 e93c
000002a0: f0f6 1fbe 80f8 b13d 869f 01be 00d5 cf3d
000002b0: 9361 e7bd 989c 2bba 6858 703e 3d66 473d
000002c0: 67bf 5b3d 3cc5 2d3d b9ce 8fbd 20bd 37bd
000002d0: 0c38 58bd 137d 8cbd 14ff 11be 32fd 2f3e
000002e0: 5325 283d cc8c 9c3d 7f7c 913e 13c5 d53d
000002f0: 9baf 973e c37b 183d 05dd 4ebc e34b a53d
00000300: 7eb0 973e c5e2 643e 8527 ea3d 66e7 b4bc
00000310: f479 90bd bd0d e3bc bc81 2cbd 0bf9 753b
00000320: 7801 18bd e244 a23c a03f 92bc 19bd 67bd
00000330: 30d8 e53c 33d4 09bd 6bcd d13d cae3 97bd
00000340: 4d55 773d fa94 e83c 0dd6 6d3d e9cd 1d3d
00000350: ddc0 833d b9d2 313d af68 11bd 9d84 cbbd
00000360: b20a a33d 4af1 413a 104c 933c 40f5 133d
00000370: e9e0 b03c 573f a5bd 6191 25bc 1021 a2bc
00000380: 3a45 983d 9f48 853d a06b a63d f3c6 573c
00000390: 4353 903c 2dd2 1ebd 278b 82bd 1d1d e63c
000003a0: 40ea dabc 171f 63bc 480a db3c 21d4 513d
000003b0: 8261 44bd 424c 8abd c403 19bc 9e40 5d3c
000003c0: c46c 1a3d c5e2 c93d e942 b23d 5208 eaba
000003d0: 5408 123d f7de 59bd 4ed5 c93d 0b6e 003e
000003e0: cc76 1f3c e299 b7bd 6a26 f3b9 c3de 35bd
000003f0: 0a96 fdbd acd1 d9bd c783 87bc 966c 29bd

rnn.bias_ih_l0 f4 [100]
-0.124022685 -0.01599021 0.044356283 -0.011926215 -0.12117264 0.0506935 -0.076605946 -0.017436238
-0.16336322 0.044602834 0.039374102 0.050080337 -0.07404524 0.09910305 0.088170104 0.027139828
0.08500534 -0.05991472 0.09122525 0.070933096 -0.030810516 -0.12571546 -0.08952645 0.06127707
-0.004743864 0.038373776 0.020922339 -0.02437223 -0.11948203 0.06488032 0.07330561 0.047136888
-0.039831746 0.10440253 0.0099266805 -0.037156872 -0.004149169 0.003308849 -0.0072524757 0.079201505
-0.0025603338 -0.027397057 0.06568485 0.07825595 0.08255055 -0.09592321 0.041386068 -0.033708647
0.04740817 0.0353371 -0.058187388 -0.09567066 -0.04845155 0.117818005 -0.103684716 -0.0012676565
0.09138102 0.017765315 -0.031273376 0.096558094 0.10364241 -0.001340344 0.09357528 0.045531053
-0.05127193 -0.065009095 0.15296 0.08212195 -0.12784149 0.007246771 0.0010579076 0.11772673
0.0710802 -0.026095679 -0.04402002 -0.0759436 0.120920725 -0.107552886 0.07024482 0.12796868
-0.090759344 -0.0031793595 0.0581387 0.14518735 0.05996102 0.020438755 0.051744655 0.06163349
-0.09137081 -0.056719273 -0.074821435 0.09490527 -0.05137355 -0.059691217 -0.047439992 0.0076372544
-0.07484906 -0.079173096 -0.05092327 0.06815598
00000000: 9bff fdbd e7fd 82bc efae 353d 2c66 43bc
00000010: 5c29 f8bd fda3 4f3d 94e3 9cbd 71d6 8ebc
00000020: b048 27be 76b1 363d bd46 213d 0a21 4d3d
00000030: 08a5 97bd 8af6 ca3d 8792 b43d 5854 de3c
00000040: 4817 ae3d 2369 75bd 4ed4 ba3d 5f45 913d
00000050: 5666 fcbc 8ebb 00be a559 b7bd aafd 7a3d
00000060: 6a72 9bbb d22d 1d3d 5365 ab3c 45a8 c7bc
00000070: ffb2 f4bd f9df 843d 4021 963d 9c12 413d
00000080: 9d26 23bd fed0 d53d 84a3 223c ce31 18bd
00000090: c1f5 87bb 46d9 583b 2da6 edbb 6634 a23d
000000a0: 46cb 27bb cb6f e0bc c785 863d a844 a03d
000000b0: 4310 a93d 6373 c4bd 7084 293d 1412 0abd
000000c0: 122f 423d a3bd 103d e655 6ebd fbee c3bd
000000d0: 2275 46bd 914a f13d a758 d4bd 7e27 a6ba
000000e0: f925 bb3d 9188 913c 8318 00bd 40c0 c53d
000000f0: 7942 d43d 7bae afba 65a4 bf3d c57e 3a3d
00000100: 8402 52bd 7d23 85bd 8ca1 1c3e 8e2f a83d
00000110: e1e8 02be 5276 ed3b 7da9 8a3a b61a f13d
00000120: 7f92 913d 9bc6 d5bc 564e 34bd 5188 9bbd
00000130: 49a5 f73d b044 dcbd 84dc 8f3d 390a 033e
00000140: 09e0 b9bd cd5c 50bb d822 6e3d feab 143e
00000150: b099 753d 2d6f a73c 34f2 533d 6673 7c3d
00000160: 9f20 bbbd 7852 68bd fb3b 99bd b25d c23d
00000170: 126d 52bd c77e 74bd 7050 42bd ef41 fa3b
00000180: 774a 99bd 8125 a2bd eb94 50bd 5d95 8b3d

rnn.bias_hh_l0 f4 [100]
-0.08453672 0.027467968 0.0712693 0.028821606 0.055020742 0.0016174291 0.0069256346 0.097711414
-0.07200887 0.083091736 -0.06832883 -0.04432843 -0.020340877 -0.021828404 0.06605576 0.058549095
0.105948135 -0.00800243 0.04161406 0.012223323 0.11517608 -0.08759297 -0.13879101 0.038426112
0.02632862 -0.027057504 -0.09026083 -0.082788266 -0.08318025 0.10181637 0.05299141 0.068357565
-0.07749102 0.05918105 -0.09657274 0.09014531 -0.07934977 -0.11167003 -0.0655734 -0.019580731
0.0394921 0.054479487 -0.06003498 -0.068799205 -0.0719515 0.0638601 -0.00999597 -0.02150429
-0.09286604 0.076462604 0.08912047 -0.026954556 -0.11085058 -0.04313702 0.012169748 0.09650873
-0.10513737 -0.026783898 -0.036963787 -0.024742823 -0.0780482 0.079756945 0.112626985 0.12977946
0.06960179 -0.05136591 0.1190943 -0.05881976 -0.11501596 0.12514834 0.061880384 0.067509204
0.09680998 0.002760374 -0.122058526 -0.04805091 -0.013649913 -0.048810977 0.07134013 0.06719345
0.012517134 -0.03149591 0.06920242 0.16751727 0.03560922 0.016505612 0.0028943827 -0.0033477808
-0.12082459 0.08420552 -0.063229576 0.08897381 0.10209812 0.013714238 0.07053131 0.03251587
0.095844746 -0.06300667 0.04161525 -0.02094219
00000000: 9621 adbd 8104 e13c a4f5 913d 4a1b ec3c
00000010: 6e5d 613d eaff d33a 6ff0 e23b ec1c c83d
00000020: 6379 93bd 002c aa3d fcef 8bbd ba91 35bd
00000030: e9a1 a6bc 7bd1 b2bc 3e48 873d 2dd1 6f3d
00000040: 56fb d83d a01c 03bc 8173 2a3d 5544 483c
00000050: 70e1 eb3d f163 b3bd 3b1f 0ebe b364 1d3d
00000060: 1eaf d73c b3a7 ddbc acda b8bd e58c a9bd
00000070: 685a aabd 1a85 d03d 850d 593d 0dff 8b3d
00000080: 9db3 9ebd d467 723d eec7 c5bd 1b9e b83d
00000090: 2282 a2bd 42b3 e4bd 594b 86bd c567 a0bc
000000a0: 78c2 213d e225 5f3d 3de7 75bd 99e6 8cbd
000000b0: 4f5b 93bd 16c9 823d 23c6 23bc c429 b0bc
000000c0: 8d30 bebd 6d98 9c3d cb84 b63d cdcf dcbc
000000d0: a105 e3bd 72b0 30bd 9f63 473c 5ea6 c53d
000000e0: 4352 d7bd e869 dbbc 5767 17bd 76b1 cabc
000000f0: bcd7 9fbd 9c57 a33d faa8 e63d e8e4 043e
00000100: 628b 8e3d 0f65 52bd b6e7 f33d fdec 70bd
00000110: 7d8d ebbd e326 003e 4976 7d3d 4442 8a3d
00000120: 5044 c63d 64e7 343b d2f9 f9bd 08d1 44bd
00000130: e2a3 5fbc 05ee 47bd c61a 923d b89c 893d
00000140: aa14 4d3c db01 01bd 00ba 8d3d a689 2b3e
00000150: f9da 113d c736 873c afaf 3d3b 7166 5bbb
00000160: e272 f7bd f273 ac3d 827e 81bd e737 b63d
00000170: d218 d13d afb1 603c b872 903d 5c2f 053d
00000180: 404a c43d a409 81bd c174 2a3d f58e abbc

rnn.weight_ih_l1 f4 [100, 100]
0.04496794 -0.12001213 -0.14036372 0.06875257 -0.031757332 0.016196065 -0.0014452743 0.05930985
-0.023403365 -0.13568226 0.066563375 -0.02802547 -0.03968076 -0.06263001 -0.011071839 0.071062736
-0.16491722 0.062464543 -0.025823755 0.016053114 -0.03809867 0.014817182 0.18335707 -0.08685853
-0.032448348 0.16872333 -0.14685534 -0.018805197 0.14099991 -0.12600696 0.02012084 -0.137051
-0.05754931 0.031849712 0.06673392 -0.082033515 0.08511832 0.17423324 0.03340501 -0.020139989
0.1288152 0.051314753 -0.12621447 0.05531821 0.0118435975 -0.014927085 0.06891999 -0.06050672
0.1291814 0.09886165 -0.034671728 -0.03837222 0.0013757597 0.041561082 -0.09452291 0.09641073
0.09286242 -0.04008545 0.03529773 0.07180208 0.048351306 -0.16961761 -0.0811208 -0.1728719
0.05116477 -0.036819506 -0.16278146 -0.11051552 0.08191869 -0.043816097 -0.06631205 -0.2044894
-0.06554935 0.028998347 -0.20778479 0.021611761 0.11004724 -0.027605226 -0.08028781 0.0033718774
0.017280301 0.016903065 0.102741435 -0.19599363 -0.124643765 0.039923422 -0.021117466 -0.15899633
0.04617373 -0.012591175 0.13195509 -0.035770763 -0.06601224 0.011818491 0.05476879 0.048691113
0.04726894 0.08038776 -0.046023086 -0.034562375 -0.20426513 0.04112797 0.13898157 0.050842598
0.089302346 -0.16621925 0.0017247922 0.12537841 0.17206222 0.035589315 0.03335608 -0.096013926
-0.0760295 -0.008104495 0.041097634 -0.0047787847 -0.006859258 -0.006486767 0.1716108 -0.16870035
0.03773802 0.087475665 0.023182256 -0.068557076 0.11740238 -0.12668684 0.0038653926 0.070847765
-0.021997593 -0.04560138 0.16408412 -0.25571468 0.21027948 -0.12163555 0.17157249 -0.04042461
0.12542737 -0.16408627 -0.00045302496 -0.051408112 -0.03107226 0.084343635 0.0039951503 0.13715617
0.07587991 0.024041438 -0.08776155 0.059571747 -0.08318923 0.015104967 -0.004790118 -0.01369347
-0.0071814503 -0.0003565448 -0.06170598 -0.10178377 -0.08968994 0.1799376 0.11572387 -0.0917975
0.13123266 -0.18522848 0.21867147 0.1516354 0.1933042 -0.039565615 -0.17850147 -0.2455654
-0.09823337 -0.040931776 0.010806935 0.0053030285 -0.013849599 -0.15903457 -0.0070246835 -0.27500507
0.08392974 -0.07227633 -0.08756675 0.024518237 -0.12931496 0.12751244 -0.12816548 -0.14262316
-0.1921487 -0.1087344 -0.060866132 -0.1523025 -0.06126727 -0.07536047 0.06696805 0.042448387
0.026217962 0.05325485 0.05419581 -0.07423037 0.25420654 -0.014022329 0.059635244 -0.06981216
0.015238213 -0.053943876 -0.041715667 -0.05337012 -0.056158617 0.06313465 0.083740205 0.07116324
0.037646767 -0.07592389 -0.07625753 -0.05386465 -0.043785103 -0.008491467 0.11566379 -0.0012023079
-0.08522164 -0.0042023007 -0.06499764 0.1201962 0.11564175 0.060526233 0.072593436 -0.065760314
0.0020301507 0.03287147 0.11760419 -0.064346954 -0.0936651 0.100060776 0.09858383 0.04073126
0.03174811 0.02554966 -0.008956184 0.07486816 -0.11258041 0.10981188 0.012902867 -0.09118842
0.05985117 0.030565692 -0.016041445 0.09974337 -0.023953788 0.045268763 0.011797505 -0.0944649
0.10452833 0.06404649 -0.049317546 -0.043414522 -0.055608705 0.07446098 -0.093403466 0.060747504
00000000: 4d30 383d ebc8 f5bd 82bb 0fbe 26ce 8c3d
00000010: fa13 02bd 9cad 843c 5c6f bdba e3ee 723d
00000020: 6ab8 bfbc 4af0 0abe 6152 883d ac95 e5bc
00000030: 4b88 22bd 2a44 80bd a966 35bc 5789 913d
00000040: 0fe0 28be d2da 7f3d 578c d3bc d281 833c
00000050: 5a0d 1cbd c4c3 723c f5c1 3b3e e3e2 b1bd
00000060: 8fe8 04bd cfc5 2c3e 3f61 16be 5b0d 9abc
00000070: 4862 103e f807 01be 76d4 a43c 1957 0cbe
00000080: d3b8 6bbd d874 023d cbab 883d 3001 a8bd
00000090: 8452 ae3d 336a 323e b1d3 083d 9efc a4bc
000000a0: 22e8 033e 6b2f 523d 5e3e 01be 5995 623d
000000b0: a60b 423c bb90 74bc ec25 8d3d e5d5 77bd
000000c0: 2148 043e fa77 ca3d f103 0ebd 302c 1dbd
000000d0: d652 b43a f43b 2a3d 3a95 c1bd fd72 c53d
000000e0: a72e be3d a430 24bd 5a94 103d f80c 933d
000000f0: 050c 463d 3db0 2dbe a922 a6bd 5505 31be
00000100: 2692 513d 0dd0 16bd 2fb0 26be f655 e2bd
00000110: fcc4 a73d 8278 33bd 9dce 87bd ab65 51be
00000120: bd3e 86bd f18d ed3c 89c5 54be 260b b13c
00000130: 7360 e13d 5b24 e2bc ef6d a4bd b7fa 5c3b
00000140: 6b8f 8d3c 4c78 8a3c 1a6a d23d 8eb2 48be
00000150: 3b45 ffbd be86 233d 89fe acbc efcf 22be
00000160: aa20 3d3d 374b 4ebc 3c1f 073e 5d84 12bd
00000170: 6d31 87bd 58a2 413c 3d55 603d 5570 473d
00000180: 139d 413d 57a2 a43d b482 3cbd 4791 0dbd
00000190: e12a 51be cd75 283d 2f51 0e3e 5440 503d
000001a0: 26e4 b63d 6135 2abe 6c12 e23a 3363 003e
000001b0: 1431 303e 1ac6 113d 63a0 083d f3a2 c4bd
000001c0: 5bb5 9bbd b7c8 04bc fe55 283d 5a97 9cbb
000001d0: a0c3 e0bb f28e d4bb beba 2f3e c9bf 2cbe
000001e0: 2f93 1a3d 7126 b33d b7e8 bd3c a767 8cbd
000001f0: a970 f03d 32ba 01be 8752 7d3b a218 913d
00000200: 4c34 b4bc 83c8 3abd ab05 283e 09ed 82be
00000210: 8153 573e 0f1c f9bd b3b0 2f3e 4794 25bd
00000220: 0870 003e 3b06 28be fb83 edb9 5091 52bd
00000230: 418b febc 5bbc ac3d c0e9 823b ab72 0c3e
00000240: ed66 9b3d 8df2 c43c 54bc b3bd 8101 743d
00000250: 1d5f aabd d37a 773c 6cf6 9cbb 935a 60bc
00000260: 5f52 ebbb a2ee bab9 69bf 7cbd 0274 d0bd
00000270: 5caf b7bd 9041 383e a300 ed3d 5400 bcbd
00000280: db61 063e 89ac 3dbe 6aeb 5f3e 4f46 1b3e
00000290: 89f1 453e 8e0f 22bd 17c9 36be 7f75 7bbe
000002a0: 942e c9bd 14a8 27bd 920f 313c 07c5 ad3b
000002b0: 6ee9 62bc f5d9 22be 512f e6bb 77cd 8cbe
000002c0: 5be3 ab3d 9d05 94bd 3256 b3bd 78da c83c
000002d0: 246b 04be 9f92 023e d03d 03be ce0b 12be
000002e0: a1c2 44be 24b0 debd c44e 79bd 30f5 1bbe
000002f0: 64f3 7abd 9756 9abd 8c26 893d 5cde 2d3d
00000300: 0dc7 d63c c221 5a3d 6dfc 5d3d 1806 98bd
00000310: 5c27 823e e9bd 65bc 1644 743d aef9 8ebd
00000320: b3a9 793c 41f4 5cbd 0cde 2abd a09a 5abd
00000330: 9406 66bd bd4c 813d fc7f ab3d 08be 913d
00000340: 7f33 1a3d fc7d 9bbd e82c 9cbd 2ea1 5cbd
00000350: 0258 33bd cb1f 0bbc 23e1 ec3d c296 9dba
00000360: af88 aebd 74b3 89bb 7c1d 85bd 6d29 f63d
00000370: 95d5 ec3d 5bea 773d deab 943d 58ad 86bd
00000380: 470c 053b 3ca4 063d 77da f03d 56c8 83bd
00000390: 7dd3 bfbd aaec cc3d 52e6 c93d d2d5 263d
000003a0: 4e0a 023d 854d d13c f5bc 12bc 7a54 993d
000003b0: 8f90 e6bd 0de5 e03d 8c66 533c ffc0 babd
000003c0: 8026 753d e764 fa3c 5969 83bc 4146 cc3d
000003d0: bc3a c4bc bd6b 393d 534a 413c d076 c1bd
000003e0: f312 d63d ce2a 833d 3201 4abd 6dd3 31bd
000003f0: f4c5 63bd 007f 983d 514a bfbd 60d2 783d

rnn.weight_hh_l1 f4 [100, 100]
0.13157643 -0.047803257 0.0052583897 0.080116406 -0.036990203 0.035702936 -0.0140732145 0.07591911
-0.08998962 0.01315301 -0.029035727 -0.0048427447 0.15965007 0.13865785 0.077892475 -0.02324628
-0.024591377 0.033032767 -0.085519195 0.10558812 -0.2234912 -0.01954813 -0.0073609995 -0.08415245
-0.07735579 0.033901963 -0.123015724 0.04428513 0.04071363 -0.074632786 0.025769778 -0.021312477
-0.026381643 0.11311649 -0.12938824 -0.010142012 -0.049209077 -0.20221469 -0.071247675 0.0030998765
-0.051736318 0.03110654 -0.013335658 0.043689746 -0.06656564 0.060476772 0.04147141 -0.16079794
-0.12115575 -0.050569914 0.032439444 0.00094996154 -0.11675357 -0.009838388 -0.00023194686 -0.023220932
-0.106264345 0.033029493 -0.14443158 -0.02627876 -0.014271561 -0.15955096 0.15125455 0.08060292
-0.048314746 0.024486257 0.049958665 -0.061060756 -0.041184183 -0.031432647 0.062066007 -0.08083881
0.05374818 0.12270464 -0.07317873 -0.07038079 -0.031884655 0.017786097 0.015355684 -0.11135731
0.08419062 -0.0072364435 0.095134154 0.096585535 0.038365036 0.08275548 0.1464823 0.008910341
-0.038516637 0.008405162 0.051964074 0.09562419 -0.00908452 0.016940797 0.030985057 -0.0013856019
0.06305775 0.09294865 -0.10377624 0.024997393 -0.02711124 0.22181848 -0.027442588 0.057338253
-0.024128266 0.07378379 0.018294675 -0.016278991 0.06108922 -0.01902374 0.099920236 0.00655545
0.040279754 0.09801398 -0.037081715 0.009170771 0.07369835 -0.07117807 0.017856628 -0.054318428
0.037075076 0.0459717 -0.10649683 0.002112232 -0.0061510243 0.007224247 -0.14655288 -0.054399148
0.051669955 0.08636126 0.05701645 -0.013696794 0.102153294 0.030505775 0.1024747 -0.12456533
0.013008424 0.042240415 -0.057512593 0.046276357 0.11444855 -0.090849884 0.051000655 0.068058416
0.102805965 -0.113225415 0.021146705 -0.05674614 -0.0638079 -0.051983103 0.10154213 -0.015015247
-0.051264416 -0.0036527705 -0.018081618 -0.0010439247 0.06451017 0.075255714 0.031945787 -0.13298339
-0.025643302 -0.02855741 -0.09873695 0.01826762 -0.0019676096 -0.122497536 -0.11494793 -0.013191279
0.0026756101 -0.058459304 0.014070108 0.015848305 0.14127904 -0.085205846 0.0378079 -0.041636422
0.10598444 0.05985149 0.1166068 0.096189246 0.092674635 0.09272407 -0.07003722 -0.010237944
-0.0426415 0.027736563 0.064709246 -0.13515864 0.102289245 -0.08969679 0.0090639405 -0.049021848
0.12992129 0.08170799 -0.06830208 -0.086382076 -0.022569858 0.067858025 0.027971487 -0.16758826
-0.04918604 0.073284365 -0.05832976 -0.021076314 0.025881762 -0.050037764 -0.04020596 -0.048190534
-0.08458157 -0.13618769 -0.022052081 -0.028783213 0.066809595 -0.027827345 -0.07735457 -0.08517805
-0.10513511 0.008677807 -0.004341765 0.092365645 0.100294285 -0.016975319 -0.031812765 0.080109924
-0.061672606 0.18608306 0.06895702 -0.09780676 -0.08347202 0.056241907 0.04999453 0.090659015
0.01355957 0.08377719 -0.060691267 -0.020409273 -0.0979879 -0.0011442252 -0.015347581 0.049974777
0.047056217 -0.11029548 -0.038043372 0.087299526 -0.081062086 0.04519485 0.11112361 -0.10934647
-0.06824826 -0.03187762 0.06336085 -0.08751287 0.13691923 0.025142262 -0.04881533 -0.075604014
00000000: f9bb 063e 59cd 43bd 924e ac3b 1214 a43d
00000010: 0a83 17bd 3e3d 123d 5793 66bc 7a7b 9b3d
00000020: 7a4c b8bd b97f 573c 55dc edbc e3af 9ebb
00000030: 4f7b 233e 53fc 0d3e 1786 9f3d fc6e bebc
00000040: db73 c9bc 5e4d 073d b024 afbd 963e d83d
00000050: e1da 64be 6623 a0bc 8a34 f1bb 1f58 acbd
00000060: b66c 9ebd c9dc 0a3d abef fbbd 5364 353d
00000070: 56c3 263d 13d9 98bd 241b d33c 8197 aebc
00000080: 511e d8bc 9ea9 e73d 5a7e 04be ae2a 26bc
00000090: 758f 49bd 5e11 4fbe 4dea 91bd 4c27 4b3b
000000a0: 76e9 53bd 24d3 fe3c ce7d 5abc 05f4 323d
000000b0: 9153 88bd 7eb6 773d eddd 293d 37a8 24be
000000c0: 8120 f8bd 6622 4fbd 39df 043d d706 793a
000000d0: 7f1c efbd 3131 21bc c336 73b9 d339 bebc
000000e0: 1fa1 d9bd ef49 073d dfe5 13be 8e46 d7bc
000000f0: 44d3 69bc 5461 23be 79e2 1a3e 2513 a53d
00000100: afe5 45bd 6797 c83c 75a1 4c3d d81a 7abd
00000110: bfb0 28bd 85bf 00bd ed38 7e3d d18e a5bd
00000120: 0d27 5c3d 924c fb3d bbde 95bd ce23 90bd
00000130: 7c99 02bd 26b4 913c 6896 7b3c 4d0f e4bd
00000140: 226c ac3d b01f edbb b2d5 c23d a3ce c53d
00000150: a824 1d3d b57b a93d 75ff 153e aefc 113c
00000160: 9fc3 1dbd ceb5 093c 48d8 543d 9ed6 c33d
00000170: 3dd7 14bc 6dc7 8a3c 60d4 fd3c 169d b5ba
00000180: 6c24 813d dd5b be3d a388 d4bd 55c7 cc3c
00000190: 6418 debc 6224 633e 47cf e0bc 84db 6a3d
000001a0: a4a8 c5bc f51b 973d b7de 953c 855b 85bc
000001b0: b138 7a3d add7 9bbc fba2 cc3d 1acf d63b
000001c0: 62fc 243d 8ebb c83d ffe2 17bd 0041 163c
000001d0: 29ef 963d cfc5 91bd 1048 923c 007d 5ebd
000001e0: 09dc 173d d24c 3c3d 031b dabd 5f6d 0a3b
000001f0: 888e c9bb 60b9 ec3b f511 16be a4d1 5ebd
00000200: e0a3 533d 2cde b03d 158a 693d 8568 60bc
00000210: bf35 d13d 3fe7 f93c 41de d13d 1c1c ffbd
00000220: 4921 553c 4904 2d3d 5392 6bbd 478c 3d3d
00000230: 0064 ea3d 810f babd 10e6 503d 3662 8b3d
00000240: ef8b d23d bae2 e7bd db3b ad3c a46e 68bd
00000250: b7ad 82bd 3cec 54bd 52f5 cf3d 8302 76bc
00000260: a3fa 51bd 5263 6fbb e71f 94bc 4dd4 88ba
00000270: e81d 843d ab1f 9a3d 96d9 023d cc2c 08be
00000280: e711 d2bc 3bf1 e9bc 9936 cabd faa5 953c
00000290: 03f3 00bb fddf fabd d269 ebbd 3c20 58bc
000002a0: 4a59 2f3b 0673 6fbd 4f86 663c 4ed4 813c
000002b0: 74ab 103e 6780 aebd 75dc 1a3d f48a 2abd
000002c0: 5f0e d93d d626 753d 8ccf ee3d defe c43d
000002d0: 33cc bd3d 1ee6 bd3d ad6f 8fbd 0dbd 27bc
000002e0: daa8 2ebd ca37 e33c 4886 843d 0767 0abe
000002f0: 067d d13d f3b2 b7bd ec80 143c 22cb 48bd
00000300: 160a 053e 8556 a73d f6e1 8bbd 16e9 b0bd
00000310: 6ce4 b8bc 26f9 8a3d 7624 e53c 429c 2bbe
00000320: 4d77 49bd 1d16 963d 30eb 6ebd 3ca8 acbc
00000330: fd05 d43c 66f4 4cbd 01af 24bd 7063 45bd
00000340: 1a39 adbd c974 0bbe 91a6 b4bc c6ca ebbc
00000350: 78d3 883d 2cf6 e3bc 136c 9ebd d471 aebd
00000360: 1451 d7bd 5c2d 0e3c 5d45 8ebb 332a bd3d
00000370: 1767 cd3d d30f 8bbc 1a4e 02bd ac10 a43d
00000380: 6a9c 7cbd 8f8c 3e3e 5739 8d3d e94e c8bd
00000390: 61f3 aabd ea5d 663d 10c7 4c3d 6fab b93d
000003a0: f528 5e3c 6093 ab3d 6897 78bd 5931 a7bc
000003b0: e1ad c8bd d4f9 95ba 6c74 7bbc 5ab2 4c3d
000003c0: 05be 403d 99e2 e1bd 5ed3 1bbd 18ca b23d
000003d0: e103 a6bd 3c1e 393d c694 e33d 0bf1 dfbd
000003e0: bec5 8bbd 1b92 02bd 55c3 813d f339 b3bd
000003f0: 8e34 0c3e 25f7 cd3c 95f2 47bd 47d6 9abd

rnn.bias_ih_l1 f4 [100]
0.03648607 0.05653068 0.12053573 -0.022488242 -0.024602251 0.10472496 -0.10106596 0.05300656
0.010236378 -0.09256156 -0.094549865 0.027551448 0.0398185 0.019912478 0.103156686 -0.069911696
-0.08673387 -0.08388892 0.09770128 -0.07212218 0.083129354 0.07989737 -0.020586904 0.01589236
-0.026240876 0.027786147 -0.045722466 -0.09684759 -0.08719636 0.13222726 0.09919723 -0.008793588
0.022497166 0.047018394 -0.056035396 0.049412776 0.06820937 0.011730052 0.050634578 -0.11260029
0.11575565 -0.023846066 0.0067827883 -0.0695438 0.12992704 -0.014111911 0.039849315 -0.05494817
0.06268514 -0.061031435 0.11082118 0.13124527 0.0778003 -0.018655293 0.05352456 -0.15799071
0.1363065 0.012346397 0.063199006 -0.005512909 0.1276784 0.077022776 0.03214076 -0.03394208
0.07601019 -0.12718217 -0.118732095 0.10416703 0.09256472 -0.013324727 -0.068033725 0.0051983106
-0.05683499 -0.10587159 -0.03225435 0.099648036 0.12357234 -0.08137305 0.05910855 -0.03753658
-0.043044362 0.15740792 -0.092203565 0.08596035 0.0935835 -0.09499044 0.01114889 0.04046491
-0.073686145 -0.15074371 0.110161796 -0.06564922 0.1142668 -0.07519795 -0.03327496 0.0656845
0.116137356 0.055328976 0.012405317 -0.062363923
00000000: 6b72 153d b78c 673d 70db f63d 4339 b8bc
00000010: a98a c9bc 0a7a d63d acfb cebd 681d 593d
00000020: 7bb6 273c ea90 bdbd 5ca3 c1bd 93b3 e13c
00000030: b918 233d 7e1f a33c d043 d33d dd2d 8fbd
00000040: 87a1 b1bd f4cd abbd 9c17 c83d cbb4 93bd
00000050: b93f aa3d 3ba1 a33d dea5 a8bc b230 823c
00000060: 1bf7 d6bc c69f e33c 7b47 3bbd 0758 c6bd
00000070: 0194 b2bd 9566 073e eb27 cb3d fb12 10bc
00000080: fa4b b83c 5c96 403d 5f85 65bd 0d65 4a3d
00000090: 5bb1 8b3d 672f 403c 3466 4f3d fb9a e6bd
000000a0: 4c11 ed3d d358 c3bc 2742 de3b fb6c 8ebd
000000b0: 980b 053e a535 67bc 0939 233d 5511 61bd
000000c0: 1161 803d 19fc 79bd 37f6 e23d 2965 063e
000000d0: c455 9f3d fcd2 98bc 923c 5b3d 51c8 21be
000000e0: ee93 0b3e 8b48 4a3c 7b6e 813d a2a5 b4bb
000000f0: 20be 023e 1ebe 9d3d 08a6 033d da06 0bbd
00000100: 3bab 9b3d 0b3c 02be d029 f3bd 8655 d53d
00000110: 9292 bd3d f54f 5abc 4455 8bbd 9756 aa3b
00000120: cecb 68bd 34d3 d8bd 231d 04bd 4514 cc3d
00000130: 7f13 fd3d eaa6 a6bd cf1b 723d f5bf 19bd
00000140: 494f 30bd 8b2f 213e 39d5 bcbd fb0b b03d
00000150: b5a8 bf3d 598a c2bd d5a9 363c 89be 253d
00000160: c3e8 96bd 8f5c 1abe 829c e13d 1973 86bd
00000170: b604 ea3d 6201 9abd 534b 08bd 9885 863d
00000180: 6cd9 ed3d a3a0 623d ac3f 4b3c 5071 7fbd

rnn.bias_hh_l1 f4 [100]
-0.07237702 0.08283505 0.057330437 0.052882414 0.10532789 0.10837782 -0.07662303 -0.11362979
0.09911959 -0.008865885 0.07253118 -0.1336253 0.0062389746 -0.095583044 -0.013382502 0.013093505
0.014635692 0.059192274 0.029239517 -0.11576642 -0.016233128 0.03969257 -0.118420295 -0.065148026
0.022850212 -0.012609986 -0.06340583 0.022476444 -0.07823403 0.06745848 0.029739907 -0.07206372
-0.07913334 -0.054572407 -0.15911575 0.042346008 -0.0009078471 -0.06058015 -0.064995475 -0.020134043
0.06738489 -0.097637355 0.09461718 0.10567816 0.1027033 0.042741295 0.086251035 -0.0034645165
0.056688454 0.09246195 0.13821788 0.066381484 0.035959966 -0.09375834 0.05265086 -0.06421811
0.11015335 -0.021318983 0.100074686 -0.014428971 0.051625874 0.055637475 0.064632304 -0.025723942
0.100635976 -0.069548145 -0.12797596 0.09879917 -0.017131183 0.056231022 -0.09906772 0.08316737
0.042901233 -0.10276518 -0.1314048 0.019982278 0.09063056 -0.121721774 0.11334737 0.042592756
-0.0993728 0.1428804 0.03415362 0.00032051408 0.05829902 0.038416117 -0.09399127 -0.05241626
-0.0073600565 -0.07964315 -0.034920033 -0.045456003 0.10281367 -0.07622807 -0.11813687 0.05337197
0.111095846 -0.07471902 -0.0018456496 -0.07779241
00000000: 673a 94bd 6ca5 a93d 52d3 6a3d 3b9b 583d
00000010: 26b6 d73d 31f5 dd3d 89ec 9cbd bcb6 e8bd
00000020: 36ff ca3d 3842 11bc 3a8b 943d 12d5 08be
00000030: 5070 cc3b 0bc1 c3bd 4842 5bbc 2486 563c
00000040: 8bca 6f3c 9973 723d b687 ef3c f216 edbd
00000050: 56fb 84bc ad94 223d 5786 f2bd 546c 85bd
00000060: 5e30 bb3c 1d9a 4ebc eada 81bd 8520 b83c
00000070: 2a39 a0bd ac27 8a3d 1ba1 f33c 2596 93bd
00000080: a910 a2bd 5187 5fbd 3def 22be 0273 2d3d
00000090: 96fc 6dba e422 78bd 591c 85bd 26f0 a4bc
000000a0: 1701 8a3d 18f6 c7bd a7c6 c13d cb6d d83d
000000b0: 1c56 d23d 7f11 2f3d 62a4 b03d f10c 63bb
000000c0: 2732 683d b15c bd3d fd88 0d3e 04f3 873d
000000d0: c24a 133d 5f04 c0bd 6ea8 573d c984 83bd
000000e0: 1498 e13d 26a5 aebc f5f3 cc3d 7e67 6cbc
000000f0: a775 533d 1fe4 633d f15d 843d 04bb d2bc
00000100: 3c1a ce3d 426f 8ebd 210c 03be 3857 ca3d
00000110: b256 8cbc 8052 663d 04e4 cabd a753 aa3d
00000120: 34b9 2f3d 8d76 d2bd fb8e 06be e0b1 a33c
00000130: 849c b93d 4449 f9bd aa22 e83d be75 2e3d
00000140: f783 cbbd 3d4f 123e abe4 0b3d ac0a a839
00000150: f4ca 6e3d 385a 1d3d 7f7e c0bd 6fb2 56bd
00000160: a12c f1bb f31b a3bd 4f08 0fbd 1330 3abd
00000170: f98f d23d 761d 9cbd bef1 f1bd 919c 5a3d
00000180: 3886 e33d 4906 99bd b9e9 f1ba a151 9fbd

rnn.weight_ih_l2 f4 [100, 100]
-0.061658233 -0.061072975 0.0058298884 -0.10971466 0.053682614 0.008767595 0.10994354 -0.062666796
0.04900227 -0.07002432 0.041899897 0.029798998 -0.09532612 0.06913113 0.08979934 0.066453144
0.013458584 0.078941815 0.0017389497 0.03177009 0.10037621 -0.0606808 0.09258181 0.08424497
-0.014644091 -0.03771451 -0.07680985 0.07284102 0.06806216 -0.0481755 0.02833371 -0.087827906
0.02708124 -0.039980974 -0.011136863 -0.006622976 -0.023595247 0.09472512 0.09691414 0.056732904
-0.05293423 0.08955275 0.10562915 -0.07293433 0.05053185 -0.07418171 -0.017524568 -0.051311176
-0.0028986004 -0.11326044 0.07259715 0.024053367 0.037238512 0.13660787 -0.02204882 -0.038274135
-0.0047384426 0.07193221 -0.06263745 0.07601216 -0.011188705 0.027621567 0.03340217 0.101840146
-0.024189137 0.05534809 -0.0014106589 0.05696586 0.10964053 0.0071920366 -0.01603812 -0.016512446
0.110041834 0.06188341 0.024054633 0.048504908 -0.10630702 0.1307446 -0.01117155 -0.023298867
-0.056903366 0.025908286 0.0210047 -0.039252963 -0.01788383 -0.021955356 -0.08377006 0.07930887
-0.06364796 0.039097317 0.06495191 -0.0024706325 -0.06361406 -0.032044422 0.10615313 0.05470734
-0.088595554 -0.069274925 0.0057224985 -0.00010490794 -0.091947466 -0.10295758 -0.062225454 0.012922465
0.04268586 -0.05433722 -0.047521986 -0.07179081 -0.04181233 0.023567293 0.09047803 0.09176873
-0.020840889 -0.043370858 0.13794787 0.034404952 -0.08283156 -0.03145455 0.022509322 0.03450277
-0.0039764913 0.08236428 0.022276305 -0.045319658 -0.08948512 -0.09502547 0.06233382 -0.072055
0.037789516 -0.059745286 -0.09781098 -0.057572864 -0.10102903 0.0985908 0.048571162 0.15827692
0.05629365 -0.052809965 -0.11281615 -0.0721804 0.026635908 0.08133952 0.018261151 -0.049609844
-0.062330373 -0.039325412 0.05044805 -0.07567539 0.084729575 0.06266264 0.03302244 0.009879917
0.057005513 0.013639551 0.055270717 -0.00036302066 0.071289755 -0.16145101 0.05243749 -0.034585852
0.016996916 0.112099536 0.123202786 -0.06702068 0.005396167 0.017567633 -0.110701814 0.0863684
-0.07795944 -0.038535547 0.013984945 -0.0064327964 0.078479186 -0.06294932 -0.043094005 -0.018632842
0.045102406 -0.10608212 0.06507017 0.041241348 -0.009041656 -0.115635246 -0.030477606 0.0009288431
0.026563305 0.013175732 -0.027669076 0.028217252 0.027602805 0.04817118 0.0013208351 0.14076377
-0.018701434 -0.1003141 -0.10031538 0.047813877 0.040052127 -0.07716284 0.00011583331 -0.038030222
-0.08308278 -0.022068556 -0.03917293 0.015942689 -0.09762085 -0.079369456 0.03607228 -0.078924894
0.07378287 -0.057759233 0.07767035 0.050283846 -0.107476264 0.08123458 -0.039405853 -0.0663235
-0.033884227 -0.069120795 -0.07460564 -0.027373953 -0.029798388 -0.067558944 -0.081322685 -0.09608812
-0.079331994 -0.052970693 0.034838628 0.08149512 -0.040731493 0.07969653 -0.0335844 0.034002263
-0.017691642 -0.010638577 -0.027935991 0.004628826 -0.009911631 0.013866568 0.11045595 0.042447273
0.07763308 0.062466353 -0.059851583 -0.009830875 -0.045164555 -0.005939538 -0.05433093 0.1836475
-0.09706039 -0.07726507 -0.0306624 0.092091374 0.060297564 -0.039681714 0.010640702 0.00939627
00000000: 588d 7cbd a827 7abd a608 bf3b 14b2 e0bd
00000010: 4de2 5b3d f5a5 0f3c 142a e13d 7357 80bd
00000020: 9bb6 483d e968 8fbd 3a9f 2b3d 071d f43c
00000030: 573a c3bd 9f94 8d3d b7e8 b73d 9618 883d
00000040: 6581 5c3c 3fac a13d 78ed e33a 5b21 023d
00000050: 0b92 cd3d 6e8c 78bd 889b bd3d a088 ac3d
00000060: c5ed 6fbc 887a 1abd 7c4e 9dbd ac2d 953d
00000070: 2c64 8b3d ac53 45bd 191c e83c 1edf b3bd
00000080: 7ad9 dd3c 17c3 23bd 6477 36bc 8d05 d9bb
00000090: d24a c1bc 3eff c13d ec7a c63d c360 683d
000000a0: 90d1 58bd 6f67 b73d 1954 d83d 985e 95bd
000000b0: 7cfa 4e3d 95ec 97bd af8f 8fbc ab2b 52bd
000000c0: 72f6 3dbb 17f5 e7bd d1ad 943d 910b c53c
000000d0: 6987 183d efe2 0b3e ba9f b4bc 57c5 1cbd
000000e0: f044 9bbb 3251 933d 1048 80bd 43ac 9b3d
000000f0: d550 37bc a046 e23c b7d0 083d 9191 d03d
00000100: 4c28 c6bc aeb4 623d dce5 b8ba 0955 693d
00000110: 378b e03d 2dab eb3b 6062 83bc 1c45 87bc
00000120: 9d5d e13d 7579 7d3d 390e c53c 15ad 463d
00000130: 7fb7 d9bd eae1 053e e008 37bc 44dd bebc
00000140: 8113 69bd 9d3d d43c 0c12 ac3c b7c7 20bd
00000150: 1c81 92bc b8db b3bc a38f abbd b06c a23d
00000160: dd59 82bd 8224 203d 8205 853d 56ea 21bb
00000170: 1748 82bd 0341 03bd d066 d93d ce14 603d
00000180: 9671 b5bd 03e0 8dbd cc83 bb3b 0502 dcb8
00000190: f44e bcbd 6cdb d2bd 1ee0 7ebd bfb8 533c
000001a0: 5ed7 2e3d b490 5ebd 6aa6 42bd 0f07 93bd
000001b0: 6843 2bbd 3210 c13c 8c4c b93d 3ef1 bb3d
000001c0: 83ba aabc a4a5 31bd 3542 0d3e 35ec 0c3d
000001d0: 98a3 a9bd 7cd6 00bd 7865 b83c c752 0d3d
000001e0: 3a4d 82bb 9bae a83d cc7c b63c 1ba1 39bd
000001f0: f943 b7bd b79c c2bd bf51 7f3d 9291 93bd
00000200: 2ec9 1a3d 79b7 74bd 2051 c8bd 86d1 6bbd
00000210: 4fe8 cebd f9e9 c93d 8ef2 463d 5813 223e
00000220: 2c94 663d 434f 58bd 270c e7bd 51d3 93bd
00000230: 8c33 da3c 5695 a63d 6998 953c b133 4bbd
00000240: 224e 7fbd af13 21bd 9da2 4e3d b3fb 9abd
00000250: b386 ad3d 4555 803d 8a42 073d 60df 213c
00000260: 9d7e 693d 6c78 5f3c 8c63 623d cf53 beb9
00000270: 5d00 923d 6a53 25be b2c8 563d e5a9 0dbd
00000280: 1e3d 8b3c 7194 e53d be51 fc3d 2342 89bd
00000290: 54d2 b03b ffe9 8f3c a2b7 e2bd eae1 b03d
000002a0: 33a9 9fbd 73d7 1dbd 1c21 653c 35ca d2bb
000002b0: b2b9 a03d 93eb 80bd 5783 30bd e7a3 98bc
000002c0: 4dbd 383d 9541 d9bd 8243 853d b0ec 283d
000002d0: 7423 14bc 2cd2 ecbd 2cac f9bc 9b7d 733a
000002e0: 4a9b d93c 07df 573c 42aa e2bc de27 e73c
000002f0: 471f e23c 254f 453d df1f ad3a 6124 103e
00000300: c033 99bc 7b71 cdbd 2672 cdbd 7cd8 433d
00000310: b30d 243d 8d07 9ebd 89eb f238 94c5 1bbd
00000320: 4e27 aabd 1ec9 b4bc cb73 20bd 3e9a 823c
00000330: 71ed c7bd 748c a2bd 87c0 133d 60a3 a1bd
00000340: 791b 973d f294 6cbd a211 9f3d 6ff6 4d3d
00000350: 841c dcbd 515e a63d 0868 21bd 9dd4 87bd
00000360: 30ca 0abd 348f 8dbd d7ca 98bd 573f e0bc
00000370: c01b f4bc 585c 8abd 828c a6bd d9c9 c4bd
00000380: d078 a2bd ccf7 58bd f3b2 0e3d eae6 a63d
00000390: 11d6 26bd ef37 a33d cc8f 09bd f545 0b3d
000003a0: 10ee 90bc 6d4d 2ebc 05da e4bc 68ad 973b
000003b0: 6564 22bc 9a30 633c bb36 e23d 31dd 2d3d
000003c0: 18fe 9e3d b8dc 7f3d ef26 75bd ae11 21bc
000003d0: 78fe 38bd 75a0 c2bb 1c8a 5ebd 170e 3c3e
000003e0: 99c7 c6bd 263d 9ebd b72f fbbc 679a bc3d
000003f0: 94fa 763d 4b89 22bd 5756 2e3c d0f2 193c

rnn.weight_hh_l2 f4 [100, 100]
0.07363879 0.09425081 0.06822767 -0.031638753 -0.07763856 -0.10344348 -0.015724959 -0.03312802
0.10145234 0.021776572 -0.014748304 0.027482586 -0.011937967 0.100267015 -0.06234219 0.110980995
0.024770157 -0.088373825 -0.14146757 0.055950258 0.028106995 -0.058092583 -0.0009742052 -0.018488893
-0.06669796 0.03810562 0.12356229 0.03394214 -0.067894295 0.06745668 0.13124825 -0.007184227
0.08486404 -0.07143082 -0.02916208 -0.035563007 0.069698825 0.10228638 -0.0143308 0.08258742
-0.037941106 -0.12093136 0.056919325 -0.0064828354 -0.07718643 -0.07629824 -0.072729744 0.028969519
0.1160943 -0.051177572 0.06282838 -0.063929744 0.013767568 -0.0034475995 -0.05896986 -0.07175941
-0.03030927 0.045341443 -0.016182687 -0.081200644 -0.057599775 -0.025767235 -0.08071818 0.08536704
-0.027644223 -0.027496183 0.038695775 0.108712144 -0.030250544 0.06498772 0.17599851 0.11855214
-0.05996208 -0.0733 0.10903076 -0.08686628 0.13949044 0.02292161 -0.07326959 0.0975
0.07067515 0.027222453 0.07068269 0.09497876 0.03343268 -0.027546229 -0.017887076 0.09666858
-0.015165164 -0.0020770535 0.018997353 -0.0016524411 0.09123813 -0.09814597 -0.06664039 -0.047756687
-0.0028361392 -0.031125674 0.031671036 -0.038512185 0.055374935 -0.10312648 0.1114663 0.06421907
-0.0682106 0.08424461 0.18639363 0.04078984 -0.15649775 0.072562665 -0.04847291 0.043369282
0.092895925 -0.07578308 -0.033474274 -0.01617056 0.10622678 0.07057816 0.08293801 0.04741328
-0.07539682 0.06468199 0.09186375 0.03323192 0.044001147 0.06848907 -0.075913005 -0.008338019
0.09062455 -0.022594625 -0.115522556 -0.023125637 -0.1200664 0.06586861 0.07028357 -0.013713427
-0.0053985827 -0.08213245 0.05700387 -0.07049683 -0.04067087 0.14331055 -0.014822643 0.009075063
-0.05601431 -0.095633805 -0.044540193 0.06364703 -0.082615376 0.11461352 -0.04083002 0.00921402
-0.040817045 -0.009620349 -0.10021317 -0.05759151 -0.042959094 0.07421391 0.058851033 -0.04809995
0.038428545 0.00819023 -0.104270115 0.019765379 0.071225055 0.033469625 -0.112970166 0.07248612
-0.12040652 -0.041477434 -0.12144666 -0.005374263 -0.043049295 -0.041991528 0.09473665 -0.095858164
-0.044140644 -0.14267431 0.065161034 0.0070472527 -0.05471438 -0.008719632 -0.019084444 0.10501415
0.09663332 -0.017928371 -0.080272995 -0.0466534 0.051040616 -0.07052962 -0.042399008 0.00019905748
-0.16891763 0.02529139 -0.089268506 0.018660972 -0.11222847 -0.08257829 -0.07884665 0.06848902
0.096734226 0.024840856 -0.10018031 -0.08516853 -0.03450267 0.042619813 -0.16876888 0.04689024
-0.057066776 -0.081253 0.09427071 0.07020169 -0.061026234 -0.032619257 -0.1023668 -0.0221671
0.03748337 -0.089842334 -0.14503686 0.005571214 -0.06540865 -0.0011347209 0.119946465 0.04529949
-0.004742843 -0.15475152 0.0448866 -0.09319326 0.0068506845 0.02568994 -0.006900193 -0.08871441
0.10259826 0.083863296 -0.03553224 0.019971179 -0.016441023 -0.05115489 -0.08913184 -0.048063263
0.11442004 -0.13890809 0.089667775 0.117010765 -0.060164765 -0.09457852 0.08572974 -0.04583102
0.087725416 0.041684523 -0.05500247 -0.058686603 0.14423218 -0.087879755 -0.089060746 -0.03842905
00000000: efcf 963d 9206 c13d f3ba 8b3d a397 01bd
00000010: f700 9fbd 2dda d3bd a1d1 80bc 3fb1 07bd
00000020: 3fc6 cf3d c864 b23c dfa2 71bc 2923 e13c
00000030: 7697 43bc cb58 cd3d 865a 7fbd 014a e33d
00000040: c9ea ca3c 56fd b4bd e0dc 10be 192c 653d
00000050: a440 e63c 7df2 6dbd ce61 7fba 0576 97bc
00000060: f198 88bd a314 1c3d 3a0e fd3d ea06 0b3d
00000070: 2a0c 8bbd ba26 8a3d f165 063e aa69 ebbb
00000080: 33cd ad3d 524a 92bd 50e5 eebc 84aa 11bd
00000090: 42be 8e3d 867b d13d bbcb 6abc 9823 a93d
000000a0: 2268 1bbd dcaa f7bd 3d24 693d f76d d4bb
000000b0: eb13 9ebd 4042 9cbd 55f3 94bd 7c51 ed3c
000000c0: d9c2 ed3d 939f 51bd 2aac 803d 99ed 82bd
000000d0: 5e91 613c 1ff1 61bb 618a 71bd 99f6 92bd
000000e0: 254b f8bc f3b7 393d 8e91 84bc 864c a6bd
000000f0: beed 6bbd cf15 d3bc 934f a5bd ead4 ae3d
00000100: 2376 e2bc ad3f e1bc 767f 1e3d 79a4 de3d
00000110: fdcf f7bc 4818 853d f438 343e 77cb f23d
00000120: cc9a 75bd 4f1e 96bd 854b df3d f3e6 b1bd
00000130: 95d6 0e3e 1ac6 bb3c 5e0e 96bd 14ae c73d
00000140: 22be 903d 9f01 df3c 16c2 903d 3984 c23d
00000150: b5f0 083d a1a8 e1bc eb87 92bc 2dfa c53d
00000160: 4f77 78bc 2d1f 08bb 56a0 9b3c b996 d8ba
00000170: 0fdb ba3d c100 c9bd c27a 88bd 849c 43bd
00000180: 85de 39bb 45fb febc 7db9 013d f4be 1dbd
00000190: d4d0 623d fa33 d3bd 7248 e43d 4a85 833d
000001a0: 00b2 8bbd 7088 ac3d f9dd 3e3e 3f13 273d
000001b0: f240 20be bc9b 943d 888b 46bd fda3 313d
000001c0: 3840 be3d 2934 9bbd 521c 09bd 1f78 84bc
000001d0: 6d8d d93d 488b 903d 67db a93d 6d34 423d
000001e0: a669 9abd fe77 843d 1023 bc3d 321e 083d
000001f0: 8c3a 343d ff43 8c3d 4778 9bbd 309c 08bc
00000200: 5d99 b93d 5d18 b9bc 1797 ecbd fa71 bdbc
00000210: 5fe5 f5bd 1fe6 863d d5f0 8f3d 48ae 60bc
00000220: 98e6 b0bb 0f35 a8bd e47c 693d a460 90bd
00000230: 8096 26bd 00c0 123e acda 72bc 93af 143c
00000240: 436f 65bd a8db c3bd c76f 36bd 6059 823d
00000250: 4032 a9bd 7eba ea3d 613d 27bd 67f6 163c
00000260: c62f 27bd ab9e 1dbc 903c cdbd 13e5 6bbd
00000270: e0f5 2fbd 76fd 973d c80d 713d 7404 45bd
00000280: 4067 1d3d 5030 063c 928b d5bd 01eb a13c
00000290: 71de 913d 7217 093d e75c e7bd 9a73 943d
000002a0: b297 f6bd 3ee4 29bd 07b9 f8bd 961a b0bb
000002b0: 7554 30bd 4fff 2bbd 4a05 c23d 4951 c4bd
000002c0: d2cc 34bd 3719 12be 2673 853d a4ec e63b
000002d0: 301c 60bd cadc 0ebc fb56 9cbc a911 d73d
000002e0: b1e7 c53d 85de 92bc 2b66 a4bd a317 3fbd
000002f0: f70f 513d d571 90bd 95aa 2dbd 16ba 5039
00000300: bef8 2cbe e42f cf3c 68d2 b6bd e5de 983c
00000310: 0ad8 e5bd ce1e a9bd 5a7a a1bd f943 8c3d
00000320: 981c c63d 0d7f cb3c 562b cdbd d76c aebd
00000330: ac52 0dbd 1d92 2e3d c0d1 2cbe fb0f 403d
00000340: dabe 69bd f967 a6bd 0111 c13d e7c5 8f3d
00000350: a5f6 79bd c59b 05bd afa5 d1bd c797 b5bc
00000360: 2a88 193d 42ff b7bd 8b84 14be bb8e b63b
00000370: f8f4 85bd eaba 94ba 7ea6 f53d f58b 393d
00000380: da69 9bbb 2f77 1ebe 03db 373d 1cdc bebd
00000390: b57b e03b b673 d23c 041b e2bb e7af b5bd
000003a0: 091f d23d 85c0 ab3d 418a 11bd 999a a33c
000003b0: 53af 86bc ca87 51bd c18a b6bd fcdd 44bd
000003c0: 0e55 ea3d ec3d 0ebe bda3 b73d 57a3 ef3d
000003d0: 546f 76bd 62b2 c1bd 1393 af3d 4fb9 3bbd
000003e0: 62a9 b33d 64bd 2a3d 454a 61bd 5d61 70bd
000003f0: 9ab1 133e 4dfa b3bd 7b65 b6bd c867 1dbd

rnn.bias_ih_l2 f4 [100]
0.07686934 0.10538053 -0.06702395 0.006175533 0.026164047 -0.11017135 0.07798313 0.05963759
-0.0035285894 0.076756224 0.054254875 -0.062068854 -0.060164597 -0.09520326 -0.050118037 -0.018523812
0.03600595 0.09458502 0.050500564 0.004793289 -0.00023067599 0.05702672 -0.062261157 -0.02812462
-0.061719753 -0.004680407 -0.051442835 -0.04223227 -0.1078903 -0.058271214 -0.071581215 -0.055744074
-0.053712744 0.12119889 0.032784477 0.0774507 0.082522355 -0.055109985 -0.047885604 -0.042963766
0.06021869 -0.091537505 -0.09825047 0.05121515 0.05186781 -0.011679554 0.09697626 0.063444145
0.006728522 -0.008678578 0.05126037 -0.052634683 -0.02701597 -0.06927771 -0.0010749022 0.064705625
-0.024806619 -0.050546195 0.11067737 -0.030849846 -0.020606121 -0.043110937 0.04122321 -0.09312665
0.061060324 -0.106820665 -0.06832117 -0.029137062 -0.06683221 -0.06481194 0.052808307 0.038388107
0.05899418 0.087750345 0.06250572 -0.035948385 -0.03283224 -0.0025032542 0.019599002 -0.10525363
0.07109332 0.0548767 0.028202744 -0.047713697 0.018973557 0.040198192 -0.08581021 -0.04405576
0.04492375 -0.028477393 0.0120367855 0.05736561 -0.08454791 0.0890393 0.07988083 0.06426429
0.0953816 0.122257665 -0.014499295 0.019291699
00000000: ac6d 9d3d bfd1 d73d da43 89bd 205c ca3b
00000010: fc55 d63c 84a1 e1bd 9fb5 9f3d 8c46 743d
00000020: e83f 67bb 5e32 9d3d 5c3a 5e3d e93b 7ebd
00000030: 276f 76bd edf9 c2bd 9248 4dbd 40bf 97bc
00000040: fa7a 133d cab5 c13d aed9 4e3d 0611 9d3b
00000050: 9de1 71b9 da94 693d 8e05 7fbd 9a65 e6bc
00000060: dacd 7cbd 195e 99bb b9b5 52bd bffb 2cbd
00000070: 97f5 dcbd ccad 6ebd 2c99 92bd e653 64bd
00000080: e501 5cbd 2037 f83d 0449 063d 799e 9e3d
00000090: 7b01 a93d 02bb 61bd b223 44bd c6fa 2fbd
000000a0: e0a7 763d 0478 bbbd 8b37 c9bd fac6 513d
000000b0: 5773 543d 9a5b 3fbc 7d9b c63d 01ef 813d
000000c0: ef7a dc3b 9830 0ebc 65f6 513d 7797 57bd
000000d0: 9850 ddbc 79e1 8dbd bce3 8cba 6284 843d
000000e0: 4037 cbbc 8709 4fbd d1aa e23d d1b8 fcbc
000000f0: 2bce a8bc 1895 30bd abd9 283d 2fb9 bebd
00000100: 641a 7a3d cbc4 dabd f8eb 8bbd d9b0 eebc
00000110: 53df 88bd 1fbc 84bd 864d 583d d93c 1d3d
00000120: e2a3 713d 74b6 b33d 0003 803d 9d3e 13bd
00000130: 197b 06bd a30d 24bb 168e a03c 378f d7bd
00000140: 6099 913d 64c6 603d 7109 e73c 706f 43bd
00000150: 6f6e 9b3c dca6 243d 43bd afbd d073 34bd
00000160: f701 383d 6c49 e9bc f035 453c 34f8 6a3d
00000170: 7427 adbd 3d5a b63d 9098 a33d ff9c 833d
00000180: 6e57 c33d 3a62 fa3d 738e 6dbc a009 9e3c
