Backend/SavedModels/rnn_model.pth (torch, 37780 bytes, 9 tensors)

weight_ih_l0 f4 [50, 9]
0	0xbd6d97d1	-0.05800611
1	0x3c04dffa	0.008110041
2	0xbc94583d	-0.018108482
3	0xbd92b8ae	-0.07164131
4	0x3e13954c	0.14412421
5	0x3cc9107c	0.024543993
6	0x3dc54809	0.0963288
7	0x3d0cdb6e	0.034388952
8	0xbe5c9ef6	-0.21545014
9	0x3ddd788f	0.1081401
10	0xbc242604	-0.010018829
11	0x3dc10c55	0.0942618
12	0xbcd66f12	-0.02617601
13	0x3da7c1d1	0.081912644
14	0xbd6efccc	-0.058346555
15	0xbcc47fd7	-0.02398674
16	0x3e446a04	0.19181067
17	0x3db261b6	0.08710043
18	0xbdc7ad78	-0.097498834
19	0xbdb7dabd	-0.08977268
20	0xbdf75381	-0.12076474
21	0xbe1bd89a	-0.15219346
22	0xbd328e2d	-0.04359262
23	0x3d93e098	0.07220572
24	0xbe46065e	-0.19338366
25	0x3d95f8a8	0.07322818
26	0xbe88a404	-0.26687634
27	0xbdb9d37f	-0.09073543
28	0xbe681ce0	-0.22667265
29	0x3cfbfd0e	0.030760314
30	0xbe344545	-0.17604549
31	0x3dedf078	0.116181314
32	0x3e19afd6	0.15008482
33	0x3d977c18	0.07396716
34	0x3e6ee9b4	0.23331338
35	0x3e1d9c41	0.15391637
36	0x3d225e06	0.03964045
37	0x3d89e252	0.0673262
38	0x3e10a624	0.14125878
39	0xbe6a4edd	-0.22881646
40	0xbeb45ae8	-0.35225606
41	0xbbbd5412	-0.005777844
42	0x3d45b2e9	0.048266325
43	0x3e213ab1	0.15745045
44	0xbdbe22ad	-0.09283958
45	0x3da72c05	0.08162693
46	0xbcb9dc4e	-0.022688057
47	0x3def1dc1	0.11675597
48	0xbd6bdc1f	-0.05758297
49	0xbe427b3d	-0.18992324
50	0xbcaf2092	-0.021377835
51	0x3b0bcec8	0.0021332968
52	0x3e51a8be	0.20474526
53	0xbd5add5f	-0.053433772
54	0x3d12bf4b	0.035826962
55	0x3e329614	0.17440063
56	0xbb05a5cc	-0.0020393012
57	0x3d53fcca	0.05175475
58	0x3e58df4f	0.21178935
59	0x3e18e8b8	0.14932525
60	0x3e043cbe	0.12913796
61	0x3de10246	0.10986762
62	0x3cac0c11	0.021001847
63	0xbd9a43da	-0.07532473
64	0x3d2ea6e4	0.042639628
65	0xbda3db2e	-0.080007896
66	0xbe06e3e9	-0.13172878
67	0x3ed76b16	0.42073888
68	0x3db790c2	0.08963157
69	0xbe04560e	-0.12923452
70	0x3d800d01	0.0625248
71	0xbed8c86e	-0.42340416
72	0xbe068df3	-0.13140087
73	0xbe1d9bf8	-0.15391529
74	0x3d788865	0.06067695
75	0xbcea27f3	-0.028583502
76	0xbdc7c8d5	-0.097551025
77	0x3c7c4924	0.015398297
78	0x3e0d4142	0.13794425
79	0xbbab38e9	-0.00522529
80	0x3e8e65f8	0.2781217
81	0xbd181fa6	-0.037139557
82	0x3e497a1b	0.19675486
83	0xbde4bcd1	-0.11168826
84	0x3d67672a	0.05649487
85	0xbbe7eb36	-0.0070776
86	0xbd735385	-0.059405822
87	0x3d89621e	0.067081675
88	0xbd38129d	-0.044939626
89	0xbe3a31d7	-0.18183075
90	0x3dbb439f	0.09143757
91	0xbca4fbbb	-0.020139566
92	0x3d93263b	0.07185026
93	0x3d1254a1	0.03572524
94	0xbe055ce3	-0.13023715
95	0xbd56cfae	-0.052444153
96	0xbd05572f	-0.032553848
97	0xbc42103a	-0.011844689
98	0xbcd8f93d	-0.026486034
99	0xbd980630	-0.07423055
100	0xbe095c01	-0.13414003
101	0x3e20be39	0.15697564
102	0xbdabce70	-0.08388984
103	0xbcecd8a2	-0.028911892
104	0x3c9e94dc	0.019358091
105	0xbdc1e61b	-0.09467717
106	0x3c648c24	0.013949428
107	0xbe142fb2	-0.1447132
108	0x3d0ff71b	0.035147768
109	0xbd30db5f	-0.04317796
110	0x3c18edfa	0.009334082
111	0xbe3fea7d	-0.18741794
112	0xbcdc3094	-0.026878633
113	0x3e1d0703	0.15334706
114	0x3d9c0248	0.076176226
115	0xbdee7378	-0.11643118
116	0xbe7cabd6	-0.24674925
117	0x3d558199	0.052125547
118	0x3beb7ea3	0.007186727
119	0xbda655d1	-0.08121837
120	0xbe15c993	-0.14627676
121	0x3d4fe5b6	0.05075618
122	0xbda8a53f	-0.08234643
123	0x3a990117	0.0011673298
124	0xbd1023dd	-0.035190452
125	0x3e3964fc	0.18104929
126	0xbd481f51	-0.04885799
127	0x3e142261	0.1446624
128	0xbe16624d	-0.14685936
129	0x3cb44ce2	0.022009317
130	0x3dd07385	0.101782836
131	0xbd02e97b	-0.031960946
132	0x3defca0c	0.11708459
133	0xbe89d2e1	-0.269187
134	0x3de9a72d	0.114088394
135	0x3ca6b54f	0.020350127
136	0x3d6ba4d9	0.057530258
137	0xbcf2e120	-0.029648364
138	0xbe4c5381	-0.19953729
139	0x3e82c3b0	0.25539923
140	0x3d3e404a	0.04644803
141	0xbdfadb31	-0.12248839
142	0xbd686ec4	-0.05674626
143	0x3e5348db	0.20633261
144	0xbe125dd6	-0.14293608
145	0x3e46b3cf	0.19404529
146	0xbcedd480	-0.029031992
147	0xbd5bb686	-0.053640865
148	0x3d6752d1	0.056475464
149	0x3ba5f8f7	0.0050650793
150	0x3db90c11	0.090355046
151	0xbdf613f4	-0.120155245
152	0x3dd6ec28	0.10494262
153	0x3d06dca9	0.03292528
154	0x3d825161	0.06363178
155	0x3d1af5e3	0.037832152
156	0x3ec9f6d9	0.39446142
157	0x3f0776ba	0.5291554
158	0xbe00f8bd	-0.12594886
159	0x3d30dd06	0.043179534
160	0xbdf45af4	-0.119314104
161	0x3e0ad7a6	0.13558826
162	0xbe14f70d	-0.14547367
163	0x3e17a9ae	0.14810821
164	0x3da6c11f	0.08142304
165	0x3d6d318d	0.057908583
166	0x3d59b4ea	0.05315105
167	0xbddcc9ef	-0.10780703
168	0x3cfa9d3c	0.030592553
169	0xbdea28a3	-0.11433532
170	0xbd9c3dff	-0.07629012
171	0xbbcc8cdb	-0.006242377
172	0x3e54c452	0.20778015
173	0x3c90556d	0.01761886
174	0x3d8622f6	0.06549637
175	0xbc274a47	-0.01021058
176	0xbdf17032	-0.11788978
177	0x3cbded35	0.023184398
178	0xbe17761b	-0.14791147
179	0x3e022422	0.12709096
180	0x3d4bd46d	0.049763132
181	0x3d0abe69	0.033872996
182	0x3d790e01	0.06080437
183	0xbc853bb2	-0.016263817
184	0xbe933230	-0.28749228
185	0xbda91632	-0.082561865
186	0x3afe10df	0.001938369
187	0xbe02ad09	-0.1276132
188	0xbe42849d	-0.189959
189	0x3d018a9e	0.031626336
190	0x3c6b4629	0.014359989
191	0xbd6e7d65	-0.058225054
192	0xbe938466	-0.2881195
193	0x3e57aaf1	0.21061303
194	0x3cbe1c3d	0.023206824
195	0xbde18772	-0.11012162
196	0xbcc511e9	-0.024056392
197	0x3d6a8275	0.05725332
198	0xbe74b74c	-0.23898047
199	0xbd7a20ea	-0.061066546
200	0xbda49007	-0.080352835
201	0x3de92242	0.11383487
202	0xbbebb942	-0.0071937153
203	0xbe13aa8b	-0.14420526
204	0xbd555b97	-0.0520893
205	0x3e918e0c	0.28428686
206	0x3cc13864	0.02358646
207	0xbd3e997e	-0.0465331
208	0xbdeb5845	-0.114914455
209	0xbd37378b	-0.044730704
210	0xbe1476f9	-0.1449851
211	0x3e2ee3e9	0.17079128
212	0xbd6d3ee6	-0.057921313
213	0x3e0cef86	0.13763246
214	0xbe818fdd	-0.2530507
215	0x3db842a2	0.08997084
216	0xbdde034a	-0.10840471
217	0xbd347f29	-0.044066582
218	0x3cc88155	0.024475733
219	0x3e54e722	0.20791295
220	0xbdd7a047	-0.10528617
221	0x3e1d7ac4	0.15378863
222	0xbe0d3158	-0.13788354
223	0xbddd3a0a	-0.10802086
224	0xbe2391a8	-0.15973532
225	0x3df0f0d5	0.11764685
226	0x3e677250	0.226022
227	0x3ce50690	0.02795723
228	0xbd3bd070	-0.04585308
229	0x3e1793b2	0.14802435
230	0xbe39e433	-0.18153457
231	0x3d4914a7	0.04909196
232	0x3c98b844	0.018642552
233	0x3de5401f	0.11193871
234	0xbe09d2b6	-0.13459286
235	0xbe0d3fc6	-0.13793859
236	0xbd1184f4	-0.035527185
237	0x3d2c84cc	0.042118832
238	0xbbb4c8f5	-0.00551712
239	0xbc5f7936	-0.013639739
240	0xbdfa96bd	-0.12235782
241	0xbe1b2251	-0.1514981
242	0xbd8f25c8	-0.06989628
243	0xbd302b64	-0.04301013
244	0xbe0c83dd	-0.13722177
245	0xbe4a9a7f	-0.19785498
246	0x3dbf63d1	0.0934521
247	0xbf0e3770	-0.5555334
248	0x3ba77604	0.005110504
249	0xbe3a6ebe	-0.18206307
250	0xbb87f6e1	-0.0041493033
251	0xbe2c6d9d	-0.16838689
252	0x3e0211fd	0.12702174
253	0x3d8919e6	0.06694393
254	0x3cfbb9eb	0.030728301
255	0x3e19ad63	0.15007548

weight_hh_l0 f4 [50, 50]
0	0x3da96e83	0.082730316
1	0xbdb9635e	-0.09052156
2	0xbd64786c	-0.055778906
3	0xbd660e76	-0.056166135
4	0x3de337e7	0.11094647
5	0xbc5c8dbd	-0.013461527
6	0x3d991b49	0.07475907
7	0x3da175db	0.07883807
8	0xbc16f4ff	-0.009213685
9	0xbd9e5a0d	-0.077320196
10	0x3a209dc4	0.00061270245
11	0xbd9d8407	-0.07691198
12	0xbd1138ba	-0.03545449
13	0xbd66b071	-0.05632061
14	0x3ddcab2a	0.107748345
15	0x3b6e14c2	0.003632829
16	0xbc1ae534	-0.00945406
17	0x3df12978	0.11775488
18	0x3d83e72c	0.06440577
19	0x3da068fd	0.07832525
20	0x3d40e611	0.04709441
21	0xbcb621a2	-0.022232834
22	0x3e1e7298	0.15473402
23	0x3d115d07	0.03548911
24	0xbce7a672	-0.02827761
25	0x3dd6460b	0.104625784
26	0x3c403829	0.01173214
27	0x3c94364f	0.018092303
28	0xbe0af725	-0.1357084
29	0xbe2f24fd	-0.17103954
30	0xbc23a4a1	-0.009987981
31	0x3d7d3d89	0.061826263
32	0x3e1178f4	0.14206296
33	0x3df6980c	0.120407194
34	0x3d18ca50	0.037302315
35	0x3db32fa0	0.08749318
36	0xbdca8987	-0.098895125
37	0xbd005fcd	-0.031341363
38	0x3dadbab1	0.08482874
39	0x3cd24eb4	0.025672294
40	0x3e17e0b8	0.14831817
41	0x3db06142	0.086123005
42	0xbd657c71	-0.05602688
43	0x3e1e00d9	0.15430011
44	0xbe0f927e	-0.14020726
45	0xbd9e4ae7	-0.0772913
46	0x3e0242fd	0.12720867
47	0xbda44fad	-0.080230094
48	0x3c6623c8	0.014046617
49	0xbe2f11b7	-0.17096601
50	0xbdc442d2	-0.095830575
51	0xbb665df7	-0.0035151222
52	0xbde07235	-0.10959283
53	0xbbf09335	-0.007341767
54	0x3e1a98a8	0.15097296
55	0x3b05568f	0.0020345782
56	0xbd7e746f	-0.06212276
57	0x3da063bf	0.07831525
58	0xbe1c7f40	-0.15282917
59	0xbe00cd58	-0.12578332
60	0x3df61ec6	0.12017588
61	0xbd40c2a7	-0.047060635
62	0x3d81b1e9	0.06332762
63	0x3d2abb44	0.041682497
64	0xbaf3df05	-0.0018605894
65	0xbcc70ef9	-0.024299132
66	0x3cca3f74	0.02468846
67	0x3e03b130	0.1286056
68	0x3d2b7e6b	0.04186861
69	0x3cf73484	0.030176409
70	0x3d4166e2	0.047217257
71	0x3d4ac859	0.049507473
72	0x3c299260	0.01034984
73	0xbd41a06c	-0.04727213
74	0x3c935666	0.017985534
75	0xbd86cba8	-0.06581813
76	0xbe4c1d15	-0.19932969
77	0x3e0c3ab2	0.13694265
78	0xbe0015ee	-0.12508366
79	0xbdd4fee2	-0.104001775
80	0xbd56c6ff	-0.05243587
81	0x3d937bca	0.07201345
82	0xbda30cdd	-0.07961438
83	0xbbe3c1a8	-0.006950576
84	0xbd72f690	-0.05931717
85	0x3e033658	0.12813699
86	0x3ac14415	0.0014745021
87	0xbcbc05fe	-0.022952076
88	0xbc14a8ad	-0.009073419
89	0x3e17fc08	0.14842236
90	0xbc81ee9e	-0.015860852
91	0x3d8e4f38	0.069487035
92	0xbd6599ab	-0.056054752
93	0x3cced27e	0.025246855
94	0xbdaf17ba	-0.08549447
95	0x3d382954	0.04496129
96	0xbceac91d	-0.028660351
97	0xbe055dc0	-0.13024044
98	0xbdeed23d	-0.116611935
99	0xbcb13a8a	-0.021634359
100	0xbe00abf7	-0.125656
101	0xbdad5fcd	-0.08465538
102	0x3e84217e	0.25806803
103	0x3db266fd	0.0871105
104	0xbcb341fa	-0.021882046
105	0x3d8d4322	0.0689757
106	0xbd26ffa2	-0.040771134
107	0x3e576176	0.21033272
108	0xbc3ccc4b	-0.011523317
109	0x3d9c90bd	0.07644794
110	0x3e100ebe	0.14068124
111	0x3e4d5aa3	0.20054106
112	0xbd94b672	-0.07261361
113	0x3bc38fc2	0.005968065
114	0xbcb5ca58	-0.022191212
115	0x3dab6bed	0.083701946
116	0xbe4135db	-0.188682
117	0x3e2c3fb4	0.16821176
118	0xbde23070	-0.11044395
119	0xbda65ee5	-0.081235684
120	0x3c6c5953	0.014425593
121	0x3d2ef3a1	0.04271281
122	0xbd6d2bfc	-0.057903275
123	0xbe3050cc	-0.17218322
124	0x3e08ffdd	0.13378854
125	0xbe00e044	-0.1258555
126	0x3e122fee	0.14276096
127	0xbd57b7dd	-0.05266558
128	0xbd024231	-0.031801406
129	0x3ddd83ea	0.10816176
130	0x3c875110	0.016518146
131	0xbdfae86d	-0.12251363
132	0xbd2858a5	-0.041100163
133	0xbe6a5d03	-0.22887044
134	0x3e186c6d	0.14885111
135	0x3cc70a87	0.024297012
136	0x3c7519be	0.014959751
137	0x3dc8ac1f	0.097984545
138	0xbcf33cc3	-0.02969206
139	0xbe124edc	-0.14287895
140	0xbe381888	-0.17978108
141	0x3d6f3507	0.05840018
142	0xbe2a2a04	-0.1661759
143	0xbc0f998d	-0.008764637
144	0x3e065ec8	0.13122094
145	0x3d8a0250	0.06738722
146	0x3b1373a8	0.0022499356
147	0x3e02def1	0.12780358
148	0xbe164e0d	-0.14678212
149	0x3dde6234	0.108585745
150	0x3dd65825	0.10466031
151	0x3dd7c3f9	0.10535426
152	0xbdb6f627	-0.089336686
153	0x3e7e8b5f	0.24857853
154	0x3e5bfcc8	0.21483147
155	0xbe0964c4	-0.13417345
156	0x3e1074ef	0.14107107
157	0xbccd351f	-0.025049744
158	0x3e1c7a9f	0.15281151
159	0x3dcf8cd6	0.10134284
160	0xbdc109e8	-0.094257176
161	0xbd2b9b27	-0.04189601
162	0xbd9ea966	-0.07747154
163	0xbddc82d2	-0.107671395
164	0xbd30d4d5	-0.043171722
165	0x3d3a2ecf	0.045454796
166	0xbd964f5c	-0.07339355
167	0xbdd743d7	-0.10510986
168	0xbd98b784	-0.07456878
169	0xbd921369	-0.071326084
170	0x3ce8c88a	0.028415937
171	0xbd68921d	-0.05677997
172	0xbe0e8d42	-0.13921073
173	0xbdf366ec	-0.11884865
174	0xbd9d1f0e	-0.07671939
175	0xbc20ff45	-0.009826486
176	0xbd0f64e6	-0.035008334
177	0xbe2658f5	-0.16244872
178	0x3d434a6e	0.047678404
179	0xbe5b2206	-0.21399698
180	0xbc1bd6c2	-0.0095116515
181	0x3c376fa6	0.011196053
182	0xbd9fee5a	-0.07809134
183	0x3e0eff54	0.13964587
184	0xbd689fd4	-0.05679305
185	0xbb79c5fa	-0.0038112388
186	0x3e678732	0.22610167
187	0xbe23f78c	-0.160124
188	0x3e04fd97	0.12987362
189	0x3cfaaae3	0.030599063
190	0xbe9251b1	-0.2857795
191	0x3d80ee51	0.06295455
192	0xbe8b94fc	-0.27262104
193	0x3cadc204	0.021210678
194	0xbdcddb77	-0.10051625
195	0xbcab7637	-0.020930393
196	0xbe5d181f	-0.21591233
197	0x3da7d1e2	0.08194329
198	0x3d3c9315	0.046038706
199	0x3d6b5cb3	0.05746145
200	0xbb8b0c6c	-0.004243424
201	0xbe0297e7	-0.12753259
202	0xbdd11318	-0.1020872
203	0x3bd56328	0.0065120645
204	0x3e738dd6	0.23784575
205	0x3ddc587d	0.10759065
206	0x3e29ab63	0.16569285
207	0x3c85d537	0.01633702
208	0x3d886698	0.06660193
209	0x3dc0a08a	0.094056204
210	0xbd3e0919	-0.046395395
211	0x3cb0efbc	0.02159869
212	0xbd69a4cb	-0.057041924
213	0x3d773e7e	0.06036233
214	0x3dc52034	0.09625283
215	0x3d0439af	0.032281574
216	0xbd1a7631	-0.037710372
217	0x3cebd230	0.028786749
218	0x3d7e35c6	0.062063
219	0x3e13eba1	0.14445354
220	0x3e2255bb	0.15853016
221	0xbd67d0db	-0.056595664
222	0xbe454bbb	-0.1926717
223	0x3ba40dd4	0.0050065313
224	0x3d7706f8	0.06030938
225	0xbcd42619	-0.025897073
226	0x3dd54107	0.104127936
227	0x3dd55590	0.104167104
228	0x3dca1e5e	0.09869073
229	0xbdd887bd	-0.10572765
230	0xbe57419d	-0.21021123
231	0xbdfa3042	-0.12216236
232	0x3dafdd78	0.08587164
233	0xbe1c5519	-0.15266837
234	0xbe06c572	-0.13161257
235	0xbe40f4e7	-0.18843423
236	0xbcf2d5a8	-0.029642895
237	0x3ce43609	0.027857797
238	0x3df98e1e	0.1218531
239	0xbd93c2a9	-0.07214863
240	0x3df37215	0.11886994
241	0xbca7403e	-0.020416375
242	0xbea1190e	-0.31464428
243	0xbc840b1c	-0.016118579
244	0x3dd01f4c	0.101622194
245	0x3d836179	0.06415076
246	0x3dec45e6	0.115367696
247	0x3e241464	0.16023403
248	0x3d4f0a8f	0.05054718
249	0xbd5c51be	-0.053788893
250	0x3dbcb1a8	0.09213573
251	0x3d37dca8	0.04488817
252	0xbdb64098	-0.08899039
253	0xbe348020	-0.17627001
254	0x3d24324b	0.040087026
255	0x3c197604	0.009366516

bias_ih_l0 f4 [50]
0	0x3d569510	0.05238825
1	0x3dfa42ef	0.12219798
2	0xbe04bf73	-0.12963657
3	0xbd7fd932	-0.062462993
4	0x3e250fb5	0.16119273
5	0xbe20a450	-0.1568768
6	0x3e21d8be	0.15805337
7	0x3bce734c	0.0063003656
8	0x3cfcff81	0.030883553
9	0x3dfc47fd	0.12318418
10	0xbdb0b9e0	-0.08629203
11	0xbd82a521	-0.06379152
12	0xbdba4bcb	-0.090964876
13	0xbdc5ddef	-0.09661471
14	0x3df54cec	0.11977562
15	0x3e2b7afc	0.16746134
16	0xbdcc6998	-0.09981078
17	0xbd57acdb	-0.052655082
18	0x3e08d0e3	0.13360934
19	0x3e0b5f6c	0.1361062
20	0xbcce65ff	-0.02519512
21	0x3d97f723	0.074201845
22	0x3e3190a1	0.17340328
23	0x3e124860	0.14285421
24	0xbdbbeba9	-0.09175808
25	0x3d3a022c	0.045412228
26	0x3df44b33	0.119284056
27	0x3b8b42ae	0.004249892
28	0xbe2891b9	-0.16461839
29	0xbd83950b	-0.06424912
30	0x3d1d88c3	0.038460504
31	0x3db9267c	0.090405434
32	0x3dd5ae81	0.104336746
33	0x3d60879f	0.05481684
34	0xbc701a60	-0.014654726
35	0x3db780ba	0.089600995
36	0x3db9670b	0.09052857
37	0x3d84d023	0.064850114
38	0x3e10620a	0.14099899
39	0x3bafd358	0.0053657703
40	0x3e14388e	0.14474699
41	0xbd8075e5	-0.062724866
42	0xbc82346a	-0.015894134
43	0x3db0aa7a	0.08626266
44	0x3cf8002a	0.030273516
45	0xbaed6805	-0.0018112665
46	0x3e352191	0.17688586
47	0xbd19d1ea	-0.037553705
48	0x3ceb6352	0.028733883
49	0xbdbd201c	-0.0923464

bias_hh_l0 f4 [50]
0	0x3dcb9638	0.09940761
1	0x3d006b1e	0.031352155
2	0xbdc96634	-0.09833947
3	0xbd965602	-0.073406234
4	0xbda0d73d	-0.078535534
5	0xbde3a7ec	-0.11116013
6	0x3d63d8ed	0.0556268
7	0x3e179140	0.14801502
8	0x3e19367a	0.14962187
9	0xbde8687f	-0.11348056
10	0xbe1e5be1	-0.15464737
11	0x3e00755b	0.12544768
12	0x3d95a67f	0.07307147
13	0xbd38518a	-0.044999637
14	0x3da38fe7	0.079864316
15	0xbdc2b056	-0.0950629
16	0xbda37aeb	-0.07982429
17	0xbe47c8f9	-0.19510259
18	0x3db894cb	0.09012755
19	0x3da3ea9e	0.08003734
20	0xbdbdfa7b	-0.09276291
21	0xbe20b3f1	-0.15693642
22	0xbdc74862	-0.09730603
23	0x3d54bd76	0.051938497
24	0xbd2e930d	-0.042620707
25	0x3dbc3072	0.09188928
26	0x3d9af764	0.07566717
27	0x3da4510d	0.08023272
28	0x3dc550b7	0.09634536
29	0x3c76dc67	0.015067196
30	0x3d5221a8	0.05130163
31	0xbc04645d	-0.008080569
32	0x3d5e64c9	0.054295335
33	0x3d5698d4	0.052391842
34	0xbe141e58	-0.144647
35	0x3db0a7b6	0.08625738
36	0x3ccac134	0.02475033
37	0xbc413ac5	-0.011793797
38	0x3e0019d7	0.12509857
39	0xbd3c3855	-0.04595216
40	0x3d8c2361	0.068426855
41	0x3c9b2d3d	0.01894247
42	0xbe222912	-0.1583598
43	0x3dbcc7cc	0.09217796
44	0x3dedaa8d	0.116047956
45	0x3dfe6562	0.12421681
46	0x3ddc2761	0.107496984
47	0x3def13db	0.11673709
48	0x3de17f93	0.11010661
49	0xbe2b6af6	-0.16740021

weight_ih_l1 f4 [50, 50]
0	0x3d8d77d5	0.06907622
1	0xbe07e05e	-0.13269183
2	0x3c6a410c	0.014297735
3	0xbe2ec95f	-0.17069004
4	0x3e04c9b9	0.12967576
5	0x3c82d37b	0.015969982
6	0x3e37b06e	0.17938396
7	0x3cae59ff	0.021283148
8	0x3d5fa7f6	0.05460354
9	0xbc81f371	-0.015863152
10	0xbe01e3fc	-0.12684625
11	0xbded10ed	-0.11575494
12	0x3da9fd83	0.08300307
13	0xbdde2eb2	-0.1084875
14	0xbd8a5f7f	-0.06756496
15	0x3d14e6ae	0.036352806
16	0x3e29a613	0.16567259
17	0xbe0f1d52	-0.13976029
18	0x3e110b34	0.1416443
19	0x3daf75b3	0.08567371
20	0x3d845012	0.06460585
21	0x3b43bb3e	0.0029866244
22	0x3c0f5154	0.0087474175
23	0x3e047f16	0.12939104
24	0xbe0f5b6d	-0.1399972
25	0x3d6308ca	0.055428304
26	0x3e12b222	0.14325765
27	0x3e5f77ec	0.2182309
28	0x3dbc70df	0.09201216
29	0xbe7777f3	-0.24166851
30	0xbcf6b8d2	-0.030117426
31	0xbd94cb74	-0.07265368
32	0x3d745184	0.05964805
33	0xbda0656a	-0.07831843
34	0x3ad4dd5f	0.001624029
35	0x3d9263f3	0.0714797
36	0x3cd2098f	0.025639324
37	0xbbf42dbf	-0.0074517424
38	0x3d055a1f	0.03255665
39	0x3de1da04	0.11027911
40	0x3dade5d4	0.08491102
41	0xbdd15b54	-0.102224976
42	0xbd1d7aef	-0.038447317
43	0x3ddf6403	0.109077476
44	0x3d8164df	0.06318068
45	0xbd7cc59e	-0.0617119
46	0x3e2aeac7	0.16691123
47	0xbdec6fe7	-0.11544781
48	0xbd802ebe	-0.06258915
49	0xbab54eff	-0.0013832747
50	0x3e108946	0.14114866
51	0xbd3e78ff	-0.04650211
52	0xba1014ab	-0.0005496244
53	0xbdee8c4a	-0.11647852
54	0x3df295c8	0.11844975
55	0x3daa8af8	0.083272874
56	0x3dbbe383	0.09174254
57	0xbd90fbb0	-0.070792556
58	0x3e2680e6	0.16260108
59	0xbd7550a1	-0.059891347
60	0xbc8e56ec	-0.017375432
61	0xbd5334a6	-0.05156388
62	0xbc9c8475	-0.01910613
63	0xbc3b7b4f	-0.011442973
64	0xbd4426bb	-0.0478885
65	0xbd2c389f	-0.042046186
66	0x3ccb9cb6	0.024854999
67	0x3dcf92e1	0.10135437
68	0xbc32be3a	-0.010909611
69	0xbd8ebf7f	-0.06970119
70	0x3cc9432a	0.02456816
71	0xbc13f0bb	-0.009029563
72	0x3d6e9e74	0.05825658
73	0x3e07c0d2	0.13257149
74	0xbe2c3263	-0.16816096
75	0x3df3c6c0	0.11903143
76	0x3ca2d702	0.019877914
77	0x3d08d814	0.033409193
78	0xbda75fe6	-0.08172588
79	0x3b80ca44	0.003930362
80	0xbd2c7d82	-0.04211188
81	0x3e262f85	0.16229065
82	0x3d2a4da2	0.041577943
83	0xbadb5dd5	-0.0016736338
84	0xbcd12f6d	-0.02553531
85	0xbd129b58	-0.03579268
86	0x3cea3d42	0.028593663
87	0xbd884e60	-0.06655574
88	0x3e1f39f1	0.15549447
89	0xbda496cc	-0.08036575
90	0x3e1b3bc2	0.15159515
91	0xbd1caf81	-0.03825331
92	0xbdc5892f	-0.09645306
93	0xbe0ff235	-0.14057238
94	0x3d2e09d2	0.042489834
95	0x3d90afe5	0.07064799
96	0xbd9dd647	-0.07706886
97	0xbca7ec0f	-0.020498304
98	0x3da4122b	0.08011278
99	0x3d6e2aa7	0.058146145
100	0x3d807a41	0.06273318
101	0xbdcb8743	-0.099379085
102	0xbda58450	-0.08081877
103	0x3c5031f7	0.012707225
104	0xbc9cb374	-0.019128539
105	0xbe9f052a	-0.31058627
106	0x3e19a382	0.1500378
107	0xbd9b1c59	-0.07573766
108	0x3df60a76	0.12013714
109	0xbd97c6e1	-0.0741098
110	0xbbff6503	-0.007794024
111	0xbde19e32	-0.110165015
112	0xbb8dc0ad	-0.0043259473
113	0x3d5476c5	0.05187108
114	0x3d3533a2	0.044238694
115	0x3e633673	0.2218874
116	0x3dc46864	0.095902234
117	0xbd1ed62f	-0.03877848
118	0x3e620291	0.22071292
119	0x3da10d7a	0.078638986
120	0xbde6c325	-0.112676896
121	0x3da56e9e	0.08077739
122	0x3dbe6e7d	0.09298418
123	0x3e56a5f5	0.20961745
124	0x3dc281b9	0.09497399
125	0x3dc5c934	0.09657517
126	0x3d89e188	0.0673247
127	0x3d86ce3c	0.06582305
128	0xbe3e6dd4	-0.18596584
129	0xba0630b5	-0.0005118952
130	0x3e717ea5	0.23583467
131	0x3d4f132d	0.050555397
132	0x3dc1fd2c	0.09472117
133	0xbd68c214	-0.056825712
134	0xbc62ff4e	-0.013854815
135	0x3c47b19d	0.012188342
136	0x3e10f0fd	0.1415443
137	0x3da66a2c	0.081257194
138	0xbddc8e24	-0.10769299
139	0x3ddfe9ee	0.109332904
140	0xbe0e9950	-0.13925672
141	0x3e1de4c7	0.15419303
142	0x3e1f04af	0.1552913
143	0x3e03b311	0.12861277
144	0xbe4bea3f	-0.19913577
145	0x3de8c243	0.113651775
146	0x3d7024e0	0.058628917
147	0x3d7ba216	0.061433874
148	0x3d8f7d05	0.070062675
149	0x3da541ec	0.08069214
150	0x3d8a171b	0.06742688
151	0x3def410c	0.116823286
152	0xbc7b1159	-0.01532396
153	0x3dea3e22	0.11437632
154	0xbe00b743	-0.12569909
155	0xbce5a63e	-0.028033372
156	0xbdadc234	-0.08484307
157	0x3e2a9355	0.16657765
158	0x3df58033	0.11987343
159	0xbd4d1462	-0.050068267
160	0x3cfd8c26	0.030950617
161	0x3d613e25	0.054990906
162	0xbd5d098c	-0.053964183
163	0x3db61534	0.08890763
164	0x3d66d4db	0.05635534
165	0x3d105ddb	0.035245758
166	0xbe024e9b	-0.12725298
167	0x3e0259c8	0.12729561
168	0x3dcb7366	0.0993412
169	0x3d53322f	0.05156153
170	0x3dcaf9d5	0.09910933
171	0x3e2b3ee8	0.16723216
172	0x3da24e06	0.07925038
173	0x3dfeedb7	0.12447684
174	0x3e3fad6a	0.18718496
175	0xbdcc8ce2	-0.09987809
176	0xbce10e4e	-0.027472641
177	0xbe42e79d	-0.19033666
178	0xbde40498	-0.11133689
179	0x3de25635	0.11051599
180	0xbc848c17	-0.016180081
181	0xbdb5b78d	-0.088729
182	0xbc6a44c7	-0.014298624
183	0xbd735209	-0.059404407
184	0xbada0ace	-0.00166353
185	0x3e6a44ca	0.22877803
186	0xbe085633	-0.13314132
187	0x3dd8d466	0.10587387
188	0x3dda7cac	0.106683105
189	0x3d3815da	0.044942714
190	0xbe7baed2	-0.24578407
191	0x3df0d171	0.11758698
192	0x3d994ee9	0.07485754
193	0x3dbd3fcd	0.09240685
194	0xbce5026c	-0.027955256
195	0x3d551adf	0.05202758
196	0xbe4f7eb7	-0.20263182
197	0xbcc5aecc	-0.024131201
198	0xbd4c4e89	-0.049879584
199	0x3db28433	0.08716621
200	0xbd310c4b	-0.043224614
201	0x3d00326e	0.031298093
202	0x3dd5aeb0	0.104337096
203	0x3d116977	0.03550097
204	0x3cfe519c	0.031044774
205	0x3decc036	0.11560099
206	0xbe030c89	-0.1279775
207	0xbd99dd93	-0.07512965
208	0xbc8acabf	-0.01694238
209	0xbde47d39	-0.11156697
210	0x3e0b99ce	0.1363289
211	0xbdf71ec7	-0.12066417
212	0xbd52adad	-0.05143516
213	0x3db2118b	0.08694752
214	0xbe1835b7	-0.1486424
215	0x3bb5b461	0.0055451845
216	0xbc25e7e3	-0.010126087
217	0xbce13e8e	-0.027495649
218	0xbc786fea	-0.015163401
219	0x3d40fe17	0.04711732
220	0xbca66d3d	-0.02031576
221	0x3bc1466f	0.005898289
222	0xbda46f88	-0.080290854
223	0x3dc23e87	0.094845824
224	0xbd0d36f2	-0.034476228
225	0x3d9dc964	0.07704428
226	0xbdf3750f	-0.118875615
227	0xbe4b4aac	-0.19852704
228	0x3e411c74	0.1885851
229	0xbc1fb3c9	-0.009747454
230	0x3dacefe3	0.08444192
231	0xbd07a98d	-0.03312068
232	0xbd0c7337	-0.034289565
233	0xbd5818d8	-0.052758068
234	0x3dcdf82b	0.100571
235	0x3df3d3f5	0.11905662
236	0x3d948ca6	0.07253389
237	0x3cf64ec7	0.03006686
238	0xbdc21feb	-0.09478744
239	0xbc7bea8e	-0.015375746
240	0xbd07ae33	-0.033125114
241	0xbe0df8cf	-0.13864444
242	0xbc4c551b	-0.012471463
243	0x3d3a9c7b	0.045559388
244	0x3d338644	0.043829218
245	0xbd293327	-0.04130855
246	0xbd966148	-0.07342774
247	0x3db497bd	0.08818004
248	0xbde76575	-0.11298648
249	0x3d323e48	0.043516427
250	0x3d0afdc4	0.033933416
251	0x3d9c445f	0.07630228
252	0xbc6f763e	-0.0146155935
253	0x3e5d2b0d	0.21598454
254	0xbe4cca15	-0.19998963
255	0xbdb5992b	-0.08867105

weight_hh_l1 f4 [50, 50]
0	0xbd8cc463	-0.06873395
1	0x3d7bb0a2	0.061447747
2	0xbd8a070d	-0.06739626
3	0xbe28b824	-0.16476494
4	0x3dfe027e	0.12402819
5	0x3dcce9b7	0.10005515
6	0x3d9e79fa	0.07738109
7	0x3d1bcf1a	0.038039304
8	0x3d424b23	0.047434937
9	0xbd5cc834	-0.053901866
10	0xbc551058	-0.013004385
11	0xbd530449	-0.05151776
12	0x3e0394d7	0.12849747
13	0x3d9cbdbe	0.07653378
14	0xbd3c7629	-0.046011124
15	0x3d81c3e3	0.063361906
16	0xbd511b72	-0.051051565
17	0x3cabc7b8	0.020969257
18	0x3d91f621	0.071270235
19	0x3c86f93e	0.01647627
20	0x3d43e58e	0.047826342
21	0xbdaa5205	-0.08316425
22	0xbdde0fb5	-0.1084284
23	0xbcc183ec	-0.023622476
24	0x3e08d048	0.13360703
25	0xbd15c5ed	-0.03656571
26	0xbe14ab36	-0.14518437
27	0x3e267999	0.16257323
28	0xbdd0438f	-0.10169136
29	0x3dc326c2	0.09528877
30	0xbdd4800b	-0.10375985
31	0x3d0373d1	0.032092873
32	0xbdd68a25	-0.10475568
33	0xbe26b9b2	-0.16281775
34	0x3df82419	0.1211626
35	0x3c605964	0.013693187
36	0x3e303a7f	0.17209814
37	0x3d1e3959	0.03862891
38	0xbca3e380	-0.020005941
39	0xbd88d3c6	-0.066810176
40	0xbdb0a6ff	-0.08625602
41	0xbd9a0cb6	-0.07521956
42	0xbd7d9ec7	-0.061919
43	0xbc9d1c9f	-0.019178687
44	0xbd767785	-0.060172576
45	0xbc0480c1	-0.008087338
46	0xbe459a48	-0.19297135
47	0x3ca4899a	0.020085145
48	0xb98652ce	-0.00025620166
49	0xbd6d4195	-0.057923872
50	0x3ca1048d	0.01965549
51	0x3dd3cc5e	0.10341714
52	0xbd5f536a	-0.05452291
53	0xbdf02e98	-0.11727637
54	0xbdcaddb3	-0.09905567
55	0xbd594e08	-0.053052932
56	0xbdaadaa7	-0.08342486
57	0xbd4a04ad	-0.049320865
58	0x3d32b8a9	0.043633137
59	0xbe2fcbcf	-0.1716759
60	0xbe092faa	-0.13397089
61	0xbd4b81cc	-0.04968433
62	0x3e0e3344	0.13886744
63	0x3c911b44	0.017713197
64	0x3d812aea	0.06307013
65	0x3da25d4b	0.079279505
66	0xbd80ca2a	-0.0628856
67	0xbe215b95	-0.15757592
68	0xbda677c2	-0.08128311
69	0xbd7ec9fb	-0.062204342
70	0xbcef6ef9	-0.02922772
71	0xbdace781	-0.08442593
72	0xbe2020b5	-0.15637477
73	0xbc455798	-0.01204481
74	0x3dccf9b4	0.100085646
75	0xbde94666	-0.113903806
76	0xbd7a3300	-0.061083794
77	0x3dc1ddd0	0.094661355
78	0xbd7f5ebf	-0.062346216
79	0x3dc3cd64	0.095606595
80	0xbd6ce44a	-0.0578349
81	0x3d230bb8	0.039806098
82	0x3d383e83	0.04498149
83	0xbdfce21c	-0.123478144
84	0xbd392df0	-0.045209825
85	0xbd12c502	-0.035832413
86	0x3d761958	0.060082763
87	0x3cb5eaf2	0.022206757
88	0x3df778fd	0.120836236
89	0xbd719508	-0.058980018
90	0xbe131713	-0.14364271
91	0xbe027225	-0.12738855
92	0xbc03727e	-0.0080229025
93	0x3df6864e	0.12037335
94	0x3e01fc9b	0.12694018
95	0xbdd9290a	-0.10603531
96	0xbdd284af	-0.10279214
97	0x3df1a61b	0.1179926
98	0x3de42652	0.111401215
99	0x3e156bcc	0.14591902
100	0xbe16b9c2	-0.14719298
101	0x3da7fdf2	0.08202733
102	0xbdb281f9	-0.087161966
103	0xbdd00744	-0.10157636
104	0xbd13b90b	-0.036065143
105	0xbd7666b5	-0.060156543
106	0x3c14a645	0.009072845
107	0x3d969217	0.07352083
108	0x3dd88150	0.105715394
109	0x3defa3f2	0.11701192
110	0xbd7a08bb	-0.061043482
111	0xbd99edd0	-0.07516062
112	0xbd357aae	-0.04430645
113	0xbcf7d1da	-0.030251432
114	0xbd441bc7	-0.047878053
115	0x3e041668	0.12899172
116	0xbda2d406	-0.079505965
117	0xbd4445f0	-0.04791826
118	0x3db7ff9f	0.08984303
119	0x3dc4ea18	0.09614962
120	0xbd3c4924	-0.04596819
121	0x3dd10d8a	0.102076605
122	0x3df80152	0.12109627
123	0x3d47a7db	0.048744064
124	0x3e15f568	0.14644396
125	0x3d934c7b	0.07192322
126	0xbd97caac	-0.074117035
127	0xbd00c17b	-0.031434517
128	0x3c294879	0.01033222
129	0x3e4e177e	0.20126149
130	0x3d3fe01b	0.046844583
131	0x3d59c67b	0.0531678
132	0xbe05c2d6	-0.13062605
133	0x3d6b19e8	0.057397753
134	0x3ddba0e4	0.10724047
135	0x3e02b9b0	0.12766147
136	0x3d97a67c	0.07404801
137	0x3cfd5f0e	0.030929115
138	0xbdf5443e	-0.11975907
139	0xbdb7de24	-0.08977917
140	0x3d517710	0.051138937
141	0xbc4d369d	-0.012525228
142	0xbd7528ef	-0.05985349
143	0x3e02a01d	0.12756391
144	0xbc09a3a8	-0.008400835
145	0x3d4197fd	0.047264088
146	0xbded060f	-0.11573421
147	0xbe031aec	-0.12803239
148	0xbe3bdfb5	-0.18347056
149	0xbc176f6b	-0.009242873
150	0xbd097d5f	-0.03356683
151	0x3dd6df48	0.10491806
152	0xbd9f5f3c	-0.077818364
153	0xbd92c935	-0.071672834
154	0xbd2371ff	-0.039903637
155	0x3d52ae5e	0.05143582
156	0xbdfa1990	-0.12211907
157	0xbe320ef1	-0.17388512
158	0xbd3857fe	-0.04500579
159	0x3e6f83f8	0.23390186
160	0xbd8b11a4	-0.06790474
161	0x3d200a84	0.03907253
162	0xbd1466ec	-0.036230966
163	0x3d405dc1	0.04696441
164	0xbc9079c8	-0.017636195
165	0xbdf1bba9	-0.118033715
166	0xbdad80bf	-0.08471822
167	0x3dff8ba9	0.1247781
168	0x3e28d6c1	0.16488172
169	0xbe20e570	-0.15712523
170	0xbe0a51be	-0.13507745
171	0x3de059ed	0.10954652
172	0x3e14b171	0.14520814
173	0xbb6d7fc6	-0.003623949
174	0xbc719231	-0.014744327
175	0x3e1e93a3	0.15486006
176	0x3dfd1a75	0.12358562
177	0xbd2cc729	-0.04218212
178	0xbd8ec496	-0.069710895
179	0x3dfed50e	0.12442981
180	0x3e2237da	0.15841618
181	0xbda0d287	-0.07852655
182	0x3dc06762	0.09394719
183	0xbde07ea5	-0.109616555
184	0x3e09a88d	0.13443203
185	0xbdee61b2	-0.11639728
186	0xbd7301da	-0.059327938
187	0xbdd63a39	-0.10460324
188	0xbdd3eba3	-0.103476785
189	0xbcf0f6a5	-0.029414484
190	0xbd84f9ea	-0.0649298
191	0x3e0e7f40	0.1391573
192	0x3d872edd	0.06600735
193	0x3cfaeabc	0.030629508
194	0xbd0b0783	-0.03394271
195	0xbddd5dd3	-0.10808911
196	0x3e65cdd3	0.22441797
197	0xbe3bfed7	-0.18358932
198	0xbe256308	-0.16151059
199	0xbc88cea7	-0.016700102
200	0xbe331d38	-0.17491615
201	0xbd81d232	-0.0633892
202	0x3d0ae67d	0.033911217
203	0x3bcb45b7	0.006203379
204	0xbccec2b6	-0.02523933
205	0xbd418a7c	-0.04725121
206	0xbd7accf6	-0.061230622
207	0xbd2f6bbe	-0.04282736
208	0x3de6afa4	0.112639695
209	0xbca45e7d	-0.020064587
210	0xbd7275bf	-0.059194323
211	0xbd7cc982	-0.06171561
212	0xbb6f0293	-0.003647004
213	0x3e2177a6	0.15768299
214	0x3d72f93f	0.05931973
215	0xbddda7a5	-0.10822991
216	0x3d03885d	0.032112468
217	0xbdd995e3	-0.10624292
218	0x3e15680e	0.14590475
219	0xbd8b0a76	-0.06789105
220	0xbdcfcffe	-0.10147093
221	0x3de7c150	0.11316168
222	0xbd7b711b	-0.061387163
223	0x3e1cdc7c	0.15318483
224	0x3d8fd6c1	0.07023383
225	0x3d46a932	0.0485012
226	0x3d4a5fb8	0.04940769
227	0x3c2dcf4a	0.010608504
228	0xbdb5841a	-0.08863087
229	0xbda73f3d	-0.081663586
230	0x3e19e0ab	0.1502711
231	0xbdb71630	-0.08939779
232	0x3dd116d5	0.10209433
233	0xbd8f6a4f	-0.07002699
234	0xbdc7b7ef	-0.097518794
235	0x3dcaa25c	0.09894249
236	0xbd46f8e3	-0.0485772
237	0xbd03e333	-0.032199096
238	0x3d86b04b	0.06576594
239	0x3c9579e6	0.018246602
240	0x3e3ecc0d	0.18632527
241	0x3d95ff98	0.07324141
242	0xbc27d0c0	-0.010242641
243	0xbdc4966a	-0.09599002
244	0xbdf5a433	-0.11994209
245	0xbdcb2097	-0.099183254
246	0xbceaa110	-0.028641254
247	0x3dd75a34	0.10515252
248	0xbdc531e2	-0.09628655
249	0x3caf0946	0.021366727
250	0xbdfb3468	-0.12265855
251	0xbd9f6bde	-0.07784246
252	0xbe01288f	-0.12613128
253	0xbd6e1cf3	-0.058133077
254	0x3d0d94a9	0.0345656
255	0xbc59834f	-0.013275935

bias_ih_l1 f4 [50]
0	0xbd4a08a2	-0.04932464
1	0x3e120323	0.14259009
2	0x3d9906d2	0.07472004
3	0xbde95b21	-0.113943346
4	0xbe243174	-0.1603449
5	0xbda27f33	-0.079344176
6	0x3e24dbc3	0.16099457
7	0x3cd584d3	0.026064312
8	0x3c1fbba9	0.0097493315
9	0x3d8e7bc0	0.06957197
10	0x3cae8ff6	0.02130888
11	0x3e02a354	0.12757617
12	0xbd091dc5	-0.033475656
13	0x3d5d1798	0.05397758
14	0xbcc33d54	-0.023832954
15	0x3d6823dd	0.056674827
16	0x3d0ccac1	0.03437305
17	0x3d59d09e	0.05317747
18	0xbd0ad253	-0.033891987
19	0xbc6b96fc	-0.014379259
20	0x3e0a3365	0.13496168
21	0x3d0723e2	0.032993205
22	0xbd42b4de	-0.04753577
23	0x3d2194ac	0.039448425
24	0x3e0dd371	0.1385019
25	0xbdae829c	-0.085210055
26	0xbdd8a2e5	-0.10577945
27	0xbc81f47e	-0.015863653
28	0xbd0c584f	-0.034263905
29	0xbe1e0c75	-0.1543444
30	0xbe0e4321	-0.13892795
31	0x3dbf0513	0.0932714
32	0x3cc86413	0.024461782
33	0xbddc995e	-0.1077144
34	0xbd12f036	-0.035873614
35	0x3d6386fe	0.05554866
36	0x3bb14c07	0.0054106745
37	0xbe10b269	-0.14130558
38	0x3de3e04a	0.11126764
39	0xbe09209a	-0.13391343
40	0xbcd54a1b	-0.026036313
41	0xbddf402c	-0.10900912
42	0x3d6f8a22	0.058481343
43	0x3d13b4e8	0.036061198
44	0xbd68d16a	-0.056840338
45	0xbe215d51	-0.15758254
46	0x3cad37aa	0.021144707
47	0xbccf0e72	-0.025275443
48	0xbd782ed2	-0.060591526
49	0x3e087b14	0.133282

bias_hh_l1 f4 [50]
0	0x3db15ba7	0.086600594
1	0x3d939254	0.07205644
2	0x3d2f638b	0.04281954
3	0xbdb9cf81	-0.09072781
4	0xbdf1a539	-0.11799092
5	0x3d2bb8bc	0.041924223
6	0x3d82fedb	0.06396266
7	0x3d8a2b24	0.0674651
8	0xbdfa5d67	-0.12224846
9	0xbdceb09a	-0.10092278
10	0x3d032f72	0.03202767
11	0x3e150ef4	0.14556485
12	0x3de97d54	0.114008576
13	0xbd7b8bd6	-0.061412655
14	0x3df27dce	0.118404016
15	0x3d2fc59e	0.04291307
16	0x3d107d41	0.0352757
17	0xbd0bb231	-0.034105483
18	0xbd95d41d	-0.07315848
19	0x3dfda7c0	0.123855114
20	0x3e13930b	0.14411561
21	0x3d0e9964	0.034814253
22	0xbd12948c	-0.035786197
23	0x3dab0cf5	0.08352081
24	0x3e2f2e27	0.1710745
25	0xbd582da8	-0.052777916
26	0x3c390a7f	0.011294006
27	0xbe228b06	-0.15873346
28	0x3c95b692	0.018275533
29	0x3be4a5e2	0.0069777826
30	0x3dd56dff	0.10421371
31	0x3d44ec98	0.048077196
32	0x3c132925	0.008981978
33	0xbe079950	-0.13242078
34	0x3c66d457	0.014088712
35	0xbda8f083	-0.08248999
36	0x3de51473	0.11185541
37	0xbdac2499	-0.08405418
38	0x3e171f81	0.14758112
39	0xbd01e7da	-0.03171525
40	0xbd5b051c	-0.05347167
41	0x3af40673	0.0018617645
42	0x3caa220a	0.020768184
43	0xbcaf9e7c	-0.021437876
44	0x3db2254a	0.086985186
45	0xbd75f003	-0.060043346
46	0x3c865b5e	0.01640099
47	0x3cb933a4	0.022607632
48	0x3c92c554	0.017916359
49	0xbd55f2de	-0.05223357

weight f4 [1, 50]
0	0x3dd98efd	0.10622976
1	0x3c77a93c	0.015116032
2	0x3d92b8c3	0.07164147
3	0xbd8d0fac	-0.06887755
4	0xbd0608b1	-0.032723133
5	0xbe05a78e	-0.13052198
6	0x3d227bae	0.03966873
7	0x3d079207	0.033098247
8	0xbdec0419	-0.11524219
9	0xbdb03274	-0.08603373
10	0x3df2f8a3	0.1186383
11	0x3db19149	0.08670289
12	0x3e13861b	0.14406626
13	0xbc8826bc	-0.016620032
14	0xbe28e389	-0.16493048
15	0xbdc41f10	-0.09576237
16	0xbe1c1efd	-0.15246196
17	0xbb6e3077	-0.0036344805
18	0xbd035fec	-0.0320739
19	0xbdcc2a6c	-0.09969029
20	0x3d88499f	0.06654667
21	0x3d90dfac	0.07073912
22	0x3d2655db	0.040609222
23	0x3e08e0e7	0.13367043
24	0x3d01b0d7	0.03166279
25	0xbd664bb9	-0.05622456
26	0xbd9a771c	-0.075422496
27	0xbe0f083e	-0.13967988
28	0x3d9761a3	0.073916696
29	0xbe0d461b	-0.13796274
30	0xbd86d7a3	-0.06584098
31	0x3d0ce8ca	0.034401692
32	0xbe2e262f	-0.17006753
33	0x3c8a17f6	0.016857129
34	0xbe027bdb	-0.1274256
35	0x3e110d7b	0.14165299
36	0xbdd7842a	-0.10523255
37	0xbe041fa6	-0.12902698
38	0xbb9ffd8a	-0.004882519
39	0xbcc4bf36	-0.024016958
40	0xbe549984	-0.20761687
41	0xbd96dc43	-0.0736623
42	0xbdf507e3	-0.11964395
43	0x3dbe24eb	0.09284385
44	0x3d1fc68a	0.0390077
45	0xbc6e4053	-0.014541703
46	0x3dcdd5e1	0.1005056
47	0xbe0a673c	-0.13515943
48	0xbd1f1b0b	-0.03884415
49	0x3e0bff67	0.13671647
