Backend/SavedModels/rnn_model.pth (torch, 37780 bytes, 9 tensors)

weight_ih_l0 f4 [50, 9]
00000000: f646 5e3d c28c aabc fbf6 79bd d39a 39be
00000010: ea7a 663d 22f8 bfbd 448f a3bd f3f5 113e
00000020: 758f 8a3e 2c48 f03d b52c 323e c954 703d
00000030: a483 593e bf0d dabc 6093 d6bc 53ac 2a3e
00000040: 6b8f 0d3e 31c4 01bc 1f56 87bd d779 6a3e
00000050: 02f0 f3bc faa7 643d 4c57 373e 0867 9d3d
00000060: 38b4 30bd 685f 053e e997 873d 5395 093e
00000070: 65b7 e7bb 3344 2e3c 68fc 87be 5057 b7bb
00000080: dfbb b23d d2b6 8e3e 0f64 83bd 289e 0d3e
00000090: 0091 ec3d 846d 633d 5ace ddbd 6e89 99bd
000000a0: 09fc 493d 84ae 2bbd faf1 aabd afe0 3cbe
000000b0: 82a8 b03d f180 833d 11c0 833d c48e 013e
000000c0: 94da d23c e66c ebbc b212 2dbd 948d a4bd
000000d0: cb9c edbb f267 a73c 6a23 1abd 73a5 b33d
000000e0: d958 e73d 4d88 693d 518a ad3d a6f0 eebb
000000f0: eaea b83d b66c e83d dce8 943d 5d55 b23d
00000100: ff9a 973d ae63 f63b fd5b 0abe 31c3 103e
00000110: 2e00 ba3d e872 abbd 9bbb 933d 2650 6fbe
00000120: ebe7 c13d eb87 1ebc d9ae cb3d e04c 8bb7
00000130: 2d76 3c3e d15d fabd 5a85 0d3e dd9e 073e
00000140: f7ed 213d 0204 eb3d af5b c53d fff9 cfbd
00000150: 3a56 413d 5ff2 0a3e e1e6 9c3d b54a 9f3d
00000160: 2b73 c4bd 55db 2c3d 6f14 983a 47ea 06bd
00000170: 34f9 9ebd 17a4 173e 006b afbe b8e9 4d3e
00000180: 405c eb3d 1216 4c3e d448 b53e 2593 293d
00000190: 4cbd 39be 20a8 123e 918c 0ebe 99a1 203e
000001a0: 80e7 4d3d 2df0 123e 8e1b 24bd 54c8 dbbe
000001b0: 5174 63be dbe9 063d f5f3 ab3c d663 69be
000001c0: 8174 b83d 2a12 b83d a09b e03d c70b cf3d
000001d0: dd2a f6bb fee5 1ebe 35e7 0b3e 6844 ecbd
000001e0: e5b0 6d3d 680e 883e e6cc 9cbd 9dc8 cd3c
000001f0: f128 f6bd 707f 9d3c 2b0f 863d 1815 d13d
00000200: 1ceb d2bd d036 0d3e 1349 853d 750d 5d3d
00000210: 49f9 43bd 8ca8 cbbd 3a55 a2bd 098f f33d
00000220: 29ea 10be 20c7 e5bd 2145 073c 5e84 f0bd
00000230: 2d28 f53d fb8d f8bd 0650 8fbe 0cc2 413d
00000240: 2af5 d03d 98ae 35bd a534 a73d 65a2 d03b
00000250: c75c 1ebe 7226 d0bd c713 de3c 64af fe3c
00000260: 8b26 fbbd f1ab c73c 3163 f8bd d3f0 0f3e
00000270: 6189 f5bd 76b9 4e3d 9209 b0bd e08a cf3d
00000280: 6453 25bd 834a f83d 19f9 0abe 9c09 b43d
00000290: a04c d3bd df3f 853b ca46 173e fea4 babd
000002a0: abe8 fa3d 8867 bebe e205 3c3e 4c6d f83d
000002b0: 519c 603e aad7 273d 9f97 37be 895e 6f3d
000002c0: 71dd dabc 8b23 b9bc 098a f33c ca87 0fbe
000002d0: f5c5 163d 3647 0dbe 0563 1a3e 20f1 b33d
000002e0: 7a5a a83e 2a10 303d 5460 763e 8f1b 8dbe
000002f0: eff2 5ebd 4675 1dbe 64d5 ac3c dbae 023d
00000300: b279 bdbd 3e83 c13d bb57 3dbe 8b40 5d3e
00000310: c8c4 023e ed05 903d da3a 3abe 1a63 113d
00000320: 3a26 eb3d 7321 a93d bd55 30be 0341 273d
00000330: a00a 093e 968e b4be 0f86 52be 2c75 ca3b
00000340: aab3 6a3e ae76 d5bc c76f 043e b3ed e03d
00000350: c489 d7bd dfc4 8bbd 41ca 023e f492 03be
00000360: b76d c7bd 1d87 48bd 72ae 85bd 1daf 273e
00000370: 2e7a 14bf 90ac 64bc 97c7 a7bd c917 07be
00000380: dba3 a9be e90a 85bd 34ce 52bd 9865 de3d
00000390: d16f a13c 0301 7a3e fe14 1abe fcb3 003d
000003a0: c2e8 223d 979c 223e dae8 ca3d 9a5f d1bd
000003b0: 3952 8abd 16ce 50bc 9b5f c3bd 5bbf c73d
000003c0: f2a5 34bb 5d86 5fbc 0e1b a4bd 2ff6 913d
000003d0: 7613 b13d 658c d2bc 8668 0ebc e382 8f3d
000003e0: cc3b f33d 265a 943c 1a19 66bd a196 9f3d
000003f0: b078 9bbd f077 83bd 79cd e73d 57f4 ebbd
0.054266892 -0.020819072 -0.061026555 -0.18125467 0.056269564 -0.093734995 -0.0798631 0.14253978
0.27062574 0.11732516 0.17399867 0.058674607 0.21241623 -0.026617883 -0.02619332 0.16667299
0.13824241 -0.007920311 -0.06608223 0.2289804 -0.02977753 0.055824257 0.17904395 0.07685667
-0.04314062 0.13024676 0.066207714 0.13435869 -0.007071423 0.010636377 -0.26559758 -0.0055951253
0.0872724 0.27873856 -0.06415569 0.13829863 0.11551094 0.055524364 -0.10830374 -0.07496916
0.049312625 -0.041914478 -0.083469346 -0.18445085 0.0862589 0.06421078 0.06433118 0.12652117
0.025738992 -0.02873845 -0.042254157 -0.080348164 -0.007251357 0.020435307 -0.03763143 0.08771791
0.11296243 0.057014752 0.084736474 -0.007291871 0.09029181 0.1134886 0.07270977 0.08707688
0.0740261 0.007519207 -0.13511653 0.1413696 0.090820655 -0.08371526 0.07213517 -0.23370418
0.09468063 -0.00967596 0.09945459 -1.6605889e-05 0.18404455 -0.12224925 0.13820401 0.13244195
0.03953358 0.11475374 0.09636628 -0.10155105 0.047201373 0.1356902 0.07661224 0.07777921
-0.09592279 0.04220136 0.0011602769 -0.032938268 -0.077623755 0.14808689 -0.34261322 0.20108688
0.11492205 0.19930294 0.35407126 0.041400094 -0.18138617 0.14321947 -0.1392081 0.15686645
0.050269604 0.14349432 -0.04006534 -0.42926276 -0.2221234 0.032937866 0.020990351 -0.2279199
0.09006596 0.089878395 0.10967183 0.10109668 -0.007512434 -0.15517423 0.13662417 -0.11536485
0.058030028 0.2657349 -0.07656269 0.025120074 -0.12019528 0.019225806 0.06545862 0.102091014
-0.1029875 0.1379044 0.065080784 0.05396791 -0.04784516 -0.09944257 -0.07926412 0.11892516
-0.14151825 -0.11219621 0.008256228 -0.11743997 0.119705535 -0.121364556 -0.2799074 0.0473042
0.10203011 -0.04435596 0.08164338 0.006367015 -0.15465079 -0.10163583 0.02710904 0.031089492
-0.12263211 0.02437398 -0.12128294 0.14056711 -0.119890936 0.050469838 -0.085955754 0.1013391
-0.04036273 0.12123587 -0.13571586 0.08790895 -0.103173494 0.004066452 0.14773098 -0.09113501
0.12251409 -0.37188363 0.18361619 0.12130222 0.2193463 0.040977158 -0.17928933 0.058439765
-0.02671692 -0.022599956 0.029728906 -0.14016643 0.03680988 -0.13796696 0.15076835 0.08786225
0.32881528 0.042984165 0.24060184 -0.27560088 -0.0544309 -0.15376768 0.021097846 0.031905036
-0.09251727 0.094488606 -0.18490498 0.21606652 0.12770379 0.0703238 -0.18186513 0.0354949
0.114819005 0.08258333 -0.17220207 0.040833484 0.1338296 -0.35265034 -0.20558952 0.0061785188
0.22920099 -0.026057567 0.12933265 0.109828375 -0.105243236 -0.068246596 0.12772466 -0.12849027
-0.09737723 -0.04895698 -0.065274134 0.16375394 -0.5799893 -0.013957158 -0.081923656 -0.13192667
-0.33132824 -0.064962216 -0.051466182 0.10859221 0.019706639 0.24414448 -0.1504707 0.031421646
0.039772756 0.15880047 0.09907694 -0.10223313 -0.06753964 -0.012744447 -0.0953972 0.09753295
-0.0027564731 -0.013642875 -0.08012973 0.07127034 0.0864629 -0.025701711 -0.0086919125 0.070073865
0.1187664 0.018109392 -0.056176282 0.07792402 -0.07591379 -0.06419361 0.11318488 -0.115212135

weight_hh_l0 f4 [50, 50]
00000000: 859f 413c 2fbb cabb 8d43 01be 590c 343e
00000010: bc51 12bd 1be0 e93d 85c0 52be f438 29bd
00000020: f380 cd3b d691 01be 3c15 54be ff30 573e
00000030: 9afe 033e 234d 233d 2d5d d3bd b8ad 283c
00000040: 6711 933d fe52 61bd 23e3 ee3d 7c3e e5bd
00000050: 78a1 a93b 3bec fd3d bac5 52bd bf37 913c
00000060: 03a0 03be e1eb 7b3c ecd3 153b 63f2 9cbd
00000070: 477e 883d 6d43 023e 281b 7bbd 95d3 99bd
00000080: 095c a13c e116 d03d 981c 523d ee3e b2ba
00000090: 95e9 fa3d dbf5 933d 3f57 10be 68f0 25be
000000a0: 4dd9 3abe 9734 3b3d 8586 0a3e 834c 9cbd
000000b0: 3713 803d a913 213d e62d 7dbc 14e6 17be
000000c0: 7c33 093d cf2d 923d 79fc 0fbe 0b8c 683e
000000d0: 9fa3 253d 7943 c4bd 3ab2 1c3e 6171 aebd
000000e0: 06de 0b3e 917d 113d 3d5e d03d 7e65 163e
000000f0: cfce ad3d 8148 89bd 07d5 a3bd cd4e 3f3d
00000100: 23cb d23d 35d8 46bd 4383 21bd 2531 1fbe
00000110: b76c a13d 61f4 2d3d 9585 4dbd 3c6b cf3d
00000120: f11e e63d 4b92 ef3d ec03 46bc 6122 9e3b
00000130: ba87 a13d c953 413c de94 11be 3f17 013e
00000140: 4831 91bd 766a 0d3e 59d5 cebd 9147 09be
00000150: 4b43 91bc 9dda 103c dbd6 283e 76df e1bc
00000160: 01e9 86bd 7dbe 06be d4f0 71bd 80de ab3d
00000170: 6d69 b53a 88b9 d2bc 7e60 6d3d ca96 cabd
00000180: d905 f4bc 0bb8 693d 24f9 8b3c 9993 4a3c
00000190: 966f 773d 3c25 99bd 9a5a 6f3d df27 0cbe
000001a0: db13 83bd dec1 bbbd 2ae5 38bc 3137 9c3d
000001b0: 5f8f dbbd b8e9 903c 651a c13d c7d1 96bd
000001c0: b7b5 a33d bca0 bb3d 7c0e 513d 7ddf c83d
000001d0: 0514 01be 0082 66b6 0198 2f3e 79b3 b53c
000001e0: 71ea cdbd 63a8 c0bd 7134 13bc 054b 0e3e
000001f0: 9f71 343e 56f5 233d d865 b73d ddf0 503c
00000200: 8f51 19bd 5386 293d 0620 07be b8b8 8e3d
00000210: 0b3f f43d c69c a63d e90c 8fbb 4d1f dc3a
00000220: 9376 b93d 7859 4d3d 4f92 90bb dfa7 71bd
00000230: 36e9 64bd 7385 cbbb 97ab 03be 5b2c 0f3e
00000240: 3257 f73d 4c46 453d 0be3 f2bd 0e83 f03d
00000250: f8f3 98bd c2de 74bd 0891 3dbe 4fc8 ef3d
00000260: d764 f9bd 2821 333e b51e f13d 382a 093e
00000270: a5a3 023d 943d d63c f23a 7c3d 20e7 77bd
00000280: 4208 6f3d 218a be3d e11c 4f3d cb39 e8bd
00000290: c0e6 d9bc 360d dfbd c059 3c3e 6a3a 143e
000002a0: 4894 dc3d 39b8 123c 7c58 803c e8a6 953c
000002b0: 751f 143e 7736 63bb dd28 20be 6421 d53d
000002c0: c5fe 9c3d b113 73bd 6b43 6b3d 95a3 d9bd
000002d0: 5d1f aebb 232f 1abe 5cb1 ad3b ef97 abbc
000002e0: fcb0 2ebc 9f20 82bc 30e2 06be 91ad 393d
000002f0: aca3 5ebe ef96 84bd 9e2f dcbd d72a 093b
00000300: a311 4cbd 7b71 eb3d 4590 12be 5a00 35bd
00000310: 24a2 c3bd 3f2d 2bbb ddd6 08bd bccd 5cbd
00000320: 8622 643c 7ccd 2b3e 1426 5bbc fd82 8abd
00000330: 9278 09bd 87d5 a8bd af5c b1bc a585 093e
00000340: a011 833d 649c c83d 2b77 f63c da44 00bd
00000350: ab5e 09be 4fd3 073e afe2 dd3c c884 0a3d
00000360: 3c80 a7bc 7d83 c83b dbed a0bd 8164 dcbd
00000370: ff74 9dbd 51db 213d 8745 4dbd 06eb e93d
00000380: 1423 71bd cca1 c13d 86c7 f33d cafc bb3d
00000390: 79e2 393d 3499 a2bd c415 fdbd b377 acbc
000003a0: d54a ca39 0896 a93d 0c4f 953d efda dfbd
000003b0: 3b7b 2c3c f3a6 debd f4d0 a2bd 2150 303d
000003c0: 2458 ce3d 5332 fd3d 2e52 bcbd 54f1 1e3e
000003d0: 588b 0e3e ea64 06be ab74 e6bd 2106 07bd
000003e0: 9f17 cc3d 7fd4 233d 666e 2c3d 85d7 b7bb
000003f0: 9ab7 7b3d 2e8d b33d ff35 123d a0a0 c7bd
0.011817818 -0.006186865 -0.12623425 0.17582835 -0.03572248 0.11419698 -0.20581253 -0.04131408
0.0062714755 -0.12653288 -0.20711225 0.21014784 0.12890092 0.039868485 -0.10320506 0.010295324
0.071810536 -0.05501079 0.11664417 -0.111935586 0.0051767193 0.12398573 -0.051458098 0.017726777
-0.12854008 0.015376062 0.002286191 -0.07663419 0.066647105 0.12721033 -0.061305195 -0.07511059
0.019697206 0.10160614 0.0512968 -0.0013599077 0.122515835 0.072246276 -0.14095782 -0.16204989
-0.18246956 0.04570445 0.13527878 -0.07631781 0.06253665 0.03932539 -0.015452838 -0.14833862
0.033496365 0.071376435 -0.14061154 0.22709672 0.040439244 -0.09583182 0.15302363 -0.08517719
0.13658914 0.03552014 0.101742245 0.14687154 0.08486711 -0.06703282 -0.07999616 0.04670601
0.102926515 -0.048546035 -0.03943182 -0.15546091 0.07882064 0.042469386 -0.050176222 0.10127875
0.1123637 0.11697825 -0.012085896 0.0048258756 0.07887216 0.011799761 -0.14216945 0.12606524
-0.07089478 0.13810143 -0.100992866 -0.13406207 -0.017732283 0.008841184 0.16488211 -0.027572375
-0.06587411 -0.13158603 -0.059067562 0.08392048 0.0013840623 -0.025723234 0.05795335 -0.09892042
-0.029787945 0.057060283 0.017086573 0.012364292 0.06040915 -0.07477805 0.058436014 -0.13687085
-0.064002715 -0.091678366 -0.011285106 0.076277144 -0.10720705 0.01768957 0.094288625 -0.073642306
0.07993644 0.09161517 0.051039204 0.09808252 -0.12605293 -3.434834e-06 0.17147829 0.022180306
-0.10054482 -0.09407117 -0.008984671 0.13895805 0.17621468 0.040028892 0.08954972 0.012752739
-0.037431296 0.041387867 -0.1319581 0.06968826 0.11926087 0.08135371 -0.0043655527 0.0016793996
0.09055819 0.050134152 -0.0044119726 -0.058997985 -0.05588647 -0.0062109767 -0.12858425 0.13981764
0.12077178 0.048162743 -0.11859711 0.11743747 -0.07468408 -0.05978275 -0.18512356 0.11708128
-0.12177437 0.17493117 0.11773435 0.13395011 0.031894345 0.02615241 0.061579652 -0.060523152
0.058357485 0.0930369 0.05056465 -0.11339148 -0.026599288 -0.10891192 0.18393612 0.14475408
0.1077047 0.008955055 0.015667193 0.018268064 0.14465125 -0.0034669915 -0.15640588 0.104067594
0.07665781 -0.05934495 0.05743734 -0.10626904 -0.0053137974 -0.15057044 0.005300684 -0.020946471
-0.010662314 -0.015884696 -0.13172221 0.04533154 -0.21742123 -0.06474101 -0.1075127 0.0020930076
-0.049821507 0.11496254 -0.14312847 -0.04418979 -0.0955241 -0.0026119498 -0.033408035 -0.05390714
0.013924247 0.16777605 -0.013375778 -0.06763265 -0.03356225 -0.08243852 -0.02165064 0.13429888
0.06399846 0.09795454 0.03008612 -0.031315662 -0.13415019 0.13264202 0.02708563 0.033818036
-0.02044689 0.0061191902 -0.07857867 -0.10761357 -0.07688331 0.039515797 -0.050115135 0.1142178
-0.058871344 0.094546884 0.119032905 0.09179075 0.045381997 -0.079393774 -0.12357667 -0.02105317
0.00038584197 0.08280569 0.072904676 -0.1093043 0.010527427 -0.10871687 -0.07950011 0.043045167
0.10075405 0.12363114 -0.09195362 0.15521747 0.13920343 -0.13124433 -0.112527214 -0.03296483
0.09965443 0.039997574 0.04209747 -0.0056104087 0.061454393 0.08767162 0.035696026 -0.09747434

bias_ih_l0 f4 [50]
00000000: 4d10 ed3d 9185 bf3d a3b0 d93d d2f1 f7bd
00000010: ca4c 21be a1db d13c f3d5 9e3d 83bb 0bbd
00000020: 0c74 bb3d aa9b 6e3d f17c 48bd eedc 703d
00000030: c9ef 1e3e ffaf 1c3d 54fa 5b3d 2e69 913c
00000040: ec13 97bd 781d a6bd e364 8b3c 1384 16bc
00000050: caab 433d 7f56 253e 1150 30bd 6990 8cbb
00000060: 9c09 613d ccae 1dbe 1df9 bbbd 0d44 c33d
00000070: f84b 2f3d df00 973d a2ea 853d a5d9 2f3d
00000080: 6512 96bd 7776 01be c279 17bd fa31 babc
00000090: 7254 2b3d a89a d13d 00f6 d93b a6f4 cc3d
000000a0: 1b6e a4bd e437 f53d c2ca 12bd 9843 b9bd
000000b0: 5e5d 8dbd d2a3 8cbc 65ff d33d 4858 943d
000000c0: 86ec c63d 7715 a73d
0.11575375 0.09351648 0.10629394 -0.121066704 -0.15751949 0.025617423 0.07755651 -0.034114372
0.091529936 0.05825392 -0.04894728 0.058804445 0.15521158 0.03825378 0.05370553 0.017750349
-0.07376847 -0.081110895 0.01701588 -0.009186762 0.047771253 0.16146277 -0.043045107 -0.004289676
0.054940805 -0.15398711 -0.09178374 0.09534464 0.04279706 0.07373213 0.06538893 0.04293217
-0.07327727 -0.12642847 -0.03698135 -0.022728909 0.04182858 0.102345765 0.00665164 0.100076005
-0.080288135 0.11973551 -0.035837896 -0.090460956 -0.06902574 -0.01716796 0.10351447 0.07243401
0.09713082 0.08158391

bias_hh_l0 f4 [50]
00000000: f486 39bd 1a84 0fbe c875 dcbc 88cf dcbd
00000010: 1902 f0bd b593 03be 7a74 3c3c 6efe 99bd
00000020: 18d4 99bd 563d 733c 2e0d 163e d01b 11be
00000030: 3d4d e03d 263a d5bb 7551 093e de5b 363d
00000040: eb65 15be 41ae e4bc 9c74 9d3d 2676 8d3d
00000050: 9c2b 90bc c7ef 24bd b2cf 073e 56d3 023e
00000060: 3a9e e8bd 3209 623b d079 ac3d d88d e13d
00000070: 0dcf e4bd ba24 233e c649 0ebe 0985 203e
00000080: bb6e 82bd c772 b1bd 3226 0b3e 3178 13be
00000090: 16a5 84bd 4569 e83d 0794 5f3d 0786 663d
000000a0: 577d 883d 12bf 3abd e4a1 42bc addc e53c
000000b0: 4dd5 b6bd 9da5 6fbd c35c 6ebc 6565 2a3d
000000c0: d5b1 1c3e dc20 2b3e
-0.045294717 -0.14015236 -0.026911631 -0.10781771 -0.1171915 -0.12849315 0.01150238 -0.07519232
-0.07511157 0.014846167 0.14653465 -0.14170766 0.10952232 -0.006507176 0.1340998 0.044521205
-0.1458966 -0.027915122 0.07688257 0.06907301 -0.01759892 -0.040267732 0.13262823 0.12775931
-0.11358304 0.0034490344 0.084216714 0.11013383 -0.11172304 0.15931979 -0.1389533 0.15675749
-0.063687764 -0.0866447 0.13588789 -0.14401318 -0.064768 0.113482036 0.05458453 0.056280162
0.06664532 -0.045592375 -0.011879418 0.028059328 -0.08927403 -0.05850755 -0.014548483 0.041600604
0.15302213 0.16711754

weight_ih_l1 f4 [50, 50]
00000000: be31 163d 2c89 98bd 1eba d2bd 0b4c de3d
00000010: 249b f43c 2aa4 84bd 0f26 0c3d 7812 fb3d
00000020: 6c9a b13b 13c9 a9bd efaf e0bd 3d59 8a3d
00000030: bbc7 fd3d 20f2 87bd 149d b7bd d7ec b73d
00000040: 0617 b63b aca2 90bc 0464 a4bd d330 17be
00000050: 1d98 c8bd 8ac5 15bc 0848 f8bc e608 603e
00000060: 7108 cdbd 52c2 bcbd 922a 4a3e 4a43 d7bd
00000070: 5608 233d b26b bdbd 60ee 953d a7f1 bebd
00000080: 6687 75bd 417d 88bd 3b8e b93d 801e 033e
00000090: 64ef c93d 7934 a23c 11df 883d ddb4 62bd
000000a0: 9bc8 a13d bf92 3fbd de95 cbbd ce6d a8bd
000000b0: 5744 213d 7d78 033e d796 11be 45f8 453d
000000c0: 0b07 2dbd 4b6a 7f3b 604e 423e 24ac 88bc
000000d0: e15b b43d adb9 e93b e9a9 1d3d 58d0 57bd
000000e0: 60fd d53c 5a15 dbbc 2351 8bbd 7061 36be
000000f0: d48d dcbd ccc6 eb3d e474 87bd 3a81 9cbd
00000100: bc7d 1fbe 9fdd ca3d a822 03be 9903 77bd
00000110: c919 51bd cf30 edbd 6a98 b43d 83f5 773d
00000120: bd5a 49bd 6707 f53d 65bd 0abe 1ce7 213e
00000130: 7bb8 8abd 07e0 cdbd eccf 863d ec7d b3bc
00000140: a76b 6e3c 5113 a33d dfbc 3b3e 7109 5dbd
00000150: 84f6 223e 21fe fb3d 58da 073e 77e4 043c
00000160: 51cb 1c3d 4042 e63d 0fcd 443d 01fe 0e3e
00000170: 1866 f3bc e052 7dbe 1e70 023d e606 223e
00000180: 4066 25be 9501 d1bd 92a3 08bd d29c c43d
00000190: 1d9e 9cbd f9f5 8c3d ef19 febd 9057 d5bc
000001a0: 4a71 ff3d 98bd 533d af40 713d 27c7 503e
000001b0: bf6f d1bc cc48 e3bd e77b 90bd 026e 1e3e
000001c0: 15a7 adbd 30ee c9bb ecb8 f2bd 7be4 2e3e
000001d0: 43b2 213e 536a 72be 0de5 4cbe ebc6 b5bd
000001e0: 0627 5a3e f7c4 093d 20e9 5e3e fd35 f53d
000001f0: 0ebf 3cbe ac10 78bd e6b7 e43c e6cd 93bd
00000200: d78e d8bd 704e 553e 233d 3c3d defb 0c3e
00000210: 583d 57be 0f05 403e 8c84 dd3d 1163 383e
00000220: c174 043e cfd0 e83c fb7d cbba 61f6 2ebe
00000230: 552f 05be 1f4e ad3e 08c1 f2bd f352 7dbb
00000240: a767 bd3b 2d91 993d de97 8bbd 472c 383e
00000250: 633a cb3d af3f 193e 8f20 853d f8f4 a13d
00000260: 78f9 163e b6b5 8fbc dbcf 593d c874 8bbc
00000270: 950c cb3d de07 c4bd 22d6 0cbe 9f16 1c3d
00000280: fd11 b4bb 62b0 b23d 4854 00be 2312 58bb
00000290: 6cde 143d 84b4 b4bc bf06 05be 33f9 4d3d
000002a0: 3951 58bc a4fd 84bc a524 c63d 3609 cdbd
000002b0: 2a16 27bc 84cc 563d 9425 173d e74c 33bd
000002c0: 2d65 bcbd a41f 183d fcd3 443c 1c54 63bd
000002d0: 78d0 ecbd 9964 f03c e570 ea3d e4b4 fdbd
000002e0: ac7b acbd b582 4ebd 39c6 f2bd 0af5 a33d
000002f0: 821e d93d adac 5b3d 927b 42bd 91a5 c3bc
00000300: 3aef f3bc b653 1f3e 0184 93bc b01c 1b3d
00000310: a56d 193e 9aeb 3cbd 590a 6cbd fe1f 193e
00000320: 3492 c6bd 19f0 1e3d 67d1 17be 806b 4ebb
00000330: da08 a6bd a393 bbbc 9aa8 02be ab84 39bd
00000340: 015e f23b 20fc 293d 0433 ccbd 5d48 b6bd
00000350: 7cd1 ed3d 183e babd 9246 b2bb 9656 6c3d
00000360: 32e9 79bd 13e2 cdbd 791b c53c 9a5e bdbc
00000370: dce4 bb3d e989 00be 8015 a73d 8022 6f3c
00000380: 1997 d8bd ae53 efbd 28e9 adbd 10d1 5f3d
00000390: a531 3d3d 32dd 2f3e 82a5 8abd a4b6 27be
000003a0: 771a c0bd 82e7 043e 3943 03bd 6d12 633d
000003b0: 0287 353e 9541 50bd 1527 ed3d bad4 12bd
000003c0: bcdc 94bd 2a9b c63d 2abb 333e ec62 a3ba
000003d0: 2af3 b13c 7ed1 253e 7304 3c3c 4fc2 2a3e
000003e0: 7c35 a537 fd82 13be 9179 dd3d 9658 0abe
000003f0: 1403 f6bd 09e5 8f3d 4077 3c3c 8484 5e3d
0.03666853 -0.074480385 -0.10289405 0.10854348 0.029859133 -0.06476624 0.034215983 0.12259382
0.00542002 -0.08290305 -0.10971057 0.06755302 0.12391611 -0.066379786 -0.08965507 0.089807205
0.005556944 -0.017655693 -0.08026889 -0.14764719 -0.09794638 -0.009141335 -0.030307785 0.21878394
-0.10011376 -0.09216751 0.19742802 -0.10510881 0.03980287 -0.09249057 0.07320857 -0.09323435
-0.05994358 -0.06664515 0.090603314 0.12804604 0.09860113 0.019800412 0.066831715 -0.055348266
0.078995906 -0.046770807 -0.09940694 -0.082240686 0.039371815 0.12838931 -0.14217697 0.04833247
-0.042243045 0.0038973268 0.1897521 -0.016683646 0.08806587 0.00713273 0.038492117 -0.052688926
0.026121795 -0.02674358 -0.06802585 -0.17810607 -0.10769239 0.11512527 -0.06614092 -0.076418355
-0.15575308 0.09905552 -0.12806189 -0.060306165 -0.05104998 -0.11581575 0.08818133 0.060536873
-0.0491588 0.119643025 -0.13548811 0.15810817 -0.06773468 -0.100524954 0.06582627 -0.02191063
0.0145520335 0.07962669 0.18333767 -0.053964082 0.15914351 0.123043306 0.13266885 0.008111111
0.038279835 0.11243105 0.04804712 0.13964082 -0.029711768 -0.24738646 0.031845205 0.15822944
-0.16152287 -0.1020538 -0.033359118 0.096002236 -0.07647345 0.06882853 -0.1240729 -0.02604273
0.1247278 0.051694483 0.058899578 0.2038847 -0.02556598 -0.11097869 -0.070548825 0.15471652
-0.08479134 -0.0061624274 -0.11851677 0.17079346 0.15790658 -0.23673372 -0.20009251 -0.08875831
0.21303949 0.033635106 0.21768618 0.11973188 -0.18432257 -0.060562775 0.02791972 -0.072170064
-0.105741195 0.20830703 0.045956742 0.13767955 -0.21019495 0.1875193 0.10816297 0.18006541
0.12935163 0.02841988 -0.0015525216 -0.17086174 -0.13006337 0.33848664 -0.11853224 -0.0038654178
0.0057801786 0.07498393 -0.06816076 0.1798564 0.09923246 0.149657 0.06500351 0.07908052
0.14743602 -0.017542701 0.053176742 -0.01702346 0.09914509 -0.09571813 -0.1375356 0.03810751
-0.0054953084 0.087250486 -0.12532151 -0.0032969795 0.03634493 -0.022058733 -0.12990855 0.050286483
-0.013202959 -0.016234227 0.09674958 -0.100115225 -0.010198155 0.052441135 0.03690107 -0.04377451
-0.09198985 0.03713955 0.012013432 -0.055500135 -0.115632 0.029344844 0.11447314 -0.12388018
-0.08422026 -0.05041762 -0.11854214 0.08005722 0.10601522 0.053631473 -0.047481127 -0.02388266
-0.029777158 0.15559277 -0.01800728 0.037869155 0.14983232 -0.046123125 -0.057627056 0.1495361
-0.09695855 0.038803194 -0.14825974 -0.003149718 -0.08107157 -0.022897547 -0.12759629 -0.045292538
0.00739646 0.04150021 -0.09970668 -0.08900521 0.116122216 -0.09093875 -0.0054405415 0.057699762
-0.061013408 -0.10052886 0.024060952 -0.023116399 0.09174511 -0.12552609 0.08158398 0.014595628
-0.105756946 -0.116858825 -0.08491737 0.054642737 0.046189923 0.17174223 -0.06769849 -0.16378266
-0.09380048 0.12978938 -0.03204653 0.055437494 0.17727283 -0.050843794 0.1157972 -0.035847403
-0.07268664 0.09697564 0.17551866 -0.0012465394 0.021722395 0.16193196 0.01147567 0.16675685
1.9694438e-05 -0.14405437 0.108142026 -0.13510355 -0.12012306 0.07026107 0.011503041 0.054325595

weight_hh_l1 f4 [50, 50]
00000000: 634f 163e e3b1 513d 0f0d e83d f90e ebbd
00000010: c254 76bb b0ee c2be ad3e 82bb 8115 c73d
00000020: 6f60 0ebe 64c3 c93d 43a1 05bd 46c9 d33d
00000030: 74a4 403e d227 c83d 8c22 b0bd 8f9f fdbd
00000040: 95eb cd3d a73a f5bc b8b9 8b3d 8563 3bbd
00000050: 235f d6bd 97a1 cbbb a47d fb3c 9872 b6bd
00000060: b5e6 dc3d 80c9 f1bd 6b96 b33c a3d5 0e3e
00000070: e710 d8bd 99b2 a4bd d14e 7d3d af78 93bd
00000080: 99c2 923c d505 033e e8d1 493e 36c9 953d
00000090: bb2e 903d af6e 7dbd f175 8fbc 65b4 723e
000000a0: f69a aabd 53c7 8abd 5fc7 923d 6935 9fbd
000000b0: 18b1 c33d 51cb 0d3e 2303 8c3d 959b 17be
000000c0: 6e8b 27bd 6391 1e3e 8f41 043e b7b8 2bbd
000000d0: 1e00 f83d 46e8 f43c ad47 3ebd d3dc 54bc
000000e0: 2100 8cbd 9b33 dcbd 3822 0d3d 975d 133d
000000f0: fc7b 493d 4be3 06be b59e 0a3e 9db6 94bd
00000100: a075 1d3e 8b8c f8bd 08a7 e23d 0223 34be
00000110: 961d f43c 4ca4 743d 349d 1bbe ab36 7ebd
00000120: 0aa2 5abd a865 cdbd cc54 af3c 4ba8 d5bd
00000130: 202e 06be f35e 9fbd 6826 163c e262 663d
00000140: 1a5e 763d f314 f0bc 2a5b 1e3e 2019 f53c
00000150: d1f0 ae3d b251 49bd d47f 053d 7186 49bd
00000160: 4183 d63d 8755 a93d 8476 8abc 0642 71b9
00000170: c6cd b4bc 6433 abbd 5327 0a3e 3737 373d
00000180: f75f 2e3e 2fd0 89bc 7d31 f6bc b112 503e
00000190: 8b8c 2e3d e661 a1bd 103b 1a3f 2b88 16bd
000001a0: b903 f83d e248 21bd ff5b 8ebd d79a 273e
000001b0: 4702 003e 4cdf ee3d cec9 9abd f83f 9bbd
000001c0: f497 26be 6b95 c73c 287d ddbd 8a0a e7bc
000001d0: b508 b0bc d012 923a c7ae 1cbe 843e 28be
000001e0: a927 b03d 2472 a13c 499e b9bd bc48 6abe
000001f0: c1be 02be 1713 523e 2a80 8fbd ec6f 633d
00000200: 98c4 d73d a022 973c cc17 debd fd6d 313c
00000210: 7f1b f73c 6307 3b3d b3b5 543d f943 023e
00000220: c9b6 85bc 745a 59bb 66b5 37bd 03ab 103e
00000230: 6fe9 63be 9862 f7bd 540e 163e 4427 0ebe
00000240: bab6 e1bd ef2e 023d bcf7 a73d 2e8a 9bbd
00000250: ef67 ee3d e4a4 3c3d 62f0 ebbd b03a 9dbc
00000260: 6e88 a3bd e0a4 9fbc 2569 febb 71e8 983c
00000270: 91cc fabc c115 dbbd 894b b83b b922 de3d
00000280: dd47 963d fdbd f83b b561 1cbe eeb6 6fbc
00000290: 1977 a7bd 6d7c 74bc c4fb 093d 1f75 e0bb
000002a0: 93f9 23bb c951 0e3e 723b a23d df24 183d
000002b0: e575 8cbd 67d5 803d 7aa9 4bbd 2e79 eebd
000002c0: 7d96 e0bc 949a 233a 9531 e1bd d70c 4abd
000002d0: cff0 fabc 50e8 28bd d1d8 b13c 3460 a3bc
000002e0: 7c78 20be bb7b 9fbc 37c7 20bd 32ad 04be
000002f0: c403 6d3b 3a56 143d 99c4 e6bc 85aa bc3c
00000300: ed4c f03d b4bb 433d 20e2 2fbd e727 413c
00000310: da0b 813c e732 8a3d f444 4fbd 1d24 56bd
00000320: e1b3 863d ade2 b33d c3a9 e33d ef8f dcbd
00000330: 847c fbbd 9f72 f73d b4b4 8ebd 1041 e43d
00000340: b64e 92bd a911 d73b 69e7 1a3d a7d4 e53c
00000350: 9ad5 ae3d 53c5 853d 10b2 a1bd cbc1 253d
00000360: dc9f 7d3d 27a5 86bc cba4 b6bd a7b5 863c
00000370: 9eeb dbbd 5789 a8bd bab0 12be 37fc fabc
00000380: ae82 573b e385 4bbc 94c7 9a3d c559 07be
00000390: e4ef 063d 1482 44bd e129 d13c 25c1 cc3d
000003a0: 6e8b f6bd 70a8 75bc 4148 c8bd 7d4b 08bd
000003b0: ac5e 9dbd 8c92 02be ecc8 1d3d 9975 b6bd
000003c0: 212d ddbd 1511 bcbd 805d c3bd 0f2e 293e
000003d0: 1600 00bd 168e fd3d 9ba8 56bd 6a63 b03d
000003e0: 2e19 f93c 06b8 e5bc 38cc c73d 1ca4 ccba
000003f0: e18c c2bd 2b55 0bbe c2d5 b8bd 5b8a 5abd
0.14678721 0.051195037 0.11330616 -0.11477465 -0.003758714 -0.3807273 -0.0039747567 0.097208984
-0.13903974 0.09851721 -0.032624494 0.10341124 0.18812734 0.0977322 -0.08600339 -0.12383949
0.10054699 -0.029935194 0.068225324 -0.045749206 -0.10467365 -0.0062143314 0.030699559 -0.08908576
0.107861914 -0.11806011 0.02192231 0.13948683 -0.10550099 -0.08041877 0.061842743 -0.07200753
0.017915057 0.12795193 0.19708979 0.073137686 0.07040163 -0.061873134 -0.017512294 0.23701628
-0.08330338 -0.06776299 0.07166933 -0.07773859 0.09555262 0.1384709 0.06836536 -0.14805444
-0.040904455 0.15485148 0.12915634 -0.041924205 0.12109397 0.029895913 -0.046455074 -0.012992102
-0.06835962 -0.107520305 0.03445646 0.035977926 0.049190506 -0.13172643 0.13537104 -0.07261393
0.15376902 -0.121361814 0.11067015 -0.1759148 0.029799264 0.059727 -0.15196687 -0.062063854
-0.05337719 -0.10029155 0.021402739 -0.1043249 -0.13103533 -0.07781782 0.00916443 0.056246646
0.060148336 -0.029306864 0.15464464 0.029919207 0.08542026 -0.049150176 0.03259261 -0.04920048
0.104742534 0.08268266 -0.016902216 -0.00023008147 -0.022070777 -0.08359411 0.13491563 0.04473039
0.17028795 -0.016822902 -0.030052895 0.2031963 0.0426145 -0.07880001 0.6024637 -0.036750954
0.12110085 -0.039376147 -0.069511406 0.1636766 0.12500869 0.11663684 -0.075580224 -0.075805604
-0.16268903 0.02436324 -0.10814887 -0.028203268 -0.021488527 0.0011144523 -0.15301047 -0.16430098
0.086013146 0.019707747 -0.090633936 -0.22879308 -0.1276808 0.20515095 -0.07006867 0.05552666
0.10535544 0.018449128 -0.10844383 0.010829446 0.030164478 0.04566134 0.051931094 0.12721242
-0.01632251 -0.0033165487 -0.04485073 0.14127736 -0.22257017 -0.12079352 0.14653903 -0.13882166
-0.110211805 0.03178304 0.082015485 -0.07594715 0.116409175 0.04605569 -0.11520459 -0.019193023
-0.07985006 -0.019487798 -0.007763999 0.018665524 -0.030615123 -0.106975086 0.005624239 0.108464666
0.073379256 0.0075910077 -0.15271647 -0.014631016 -0.08177013 -0.014922244 0.033687368 -0.0068498994
-0.0025020584 0.13898386 0.079214945 0.037144538 -0.06858424 0.06290703 -0.049722172 -0.11644207
-0.027415508 0.00062409905 -0.10995785 -0.04932865 -0.030632405 -0.041237175 0.021709831 -0.019943334
-0.15670961 -0.019468179 -0.039252486 -0.12956694 0.0036165575 0.036215045 -0.028169917 0.023030529
0.117334224 0.04778643 -0.04294026 0.011789299 0.015752722 0.0674799 -0.05060287 -0.052280534
0.06577278 0.08783469 0.11116364 -0.10769641 -0.12279609 0.12082409 -0.0696806 0.11145222
-0.07143919 0.0065633846 0.037818346 0.028055502 0.08536835 0.06531777 -0.07895291 0.04046802
0.061920032 -0.016436173 -0.089181505 0.01644404 -0.107383 -0.082293205 -0.14325228 -0.030637844
0.0032884288 -0.012422058 0.07557598 -0.13217838 0.03294362 -0.047975615 0.025532665 0.09997777
-0.12038313 -0.014993772 -0.09779406 -0.033275116 -0.07684073 -0.12751216 0.038521692 -0.08909149
-0.10799623 -0.09182946 -0.09539318 0.16521476 -0.031250082 0.12380616 -0.05240689 0.08612712
0.030407514 -0.02804185 0.097557485 -0.0015612873 -0.09499527 -0.13606708 -0.09025146 -0.053354602

bias_ih_l1 f4 [50]
00000000: 2e8b 7cbd 0e72 fcbd 7fd1 843d f970 283c
00000010: 0485 de3d 1b75 66bd 32a4 053e 096c c73d
00000020: c04d 623d 639b ed3c 65c2 0ebe 8ed9 883d
00000030: d1cb 8b3c 58b0 b63d ac3c b1bc 0f8f 19be
00000040: 7501 913d 15fa ce3d 2fe1 133c 2836 773c
00000050: f6cf 8cbd 1ed9 e43d 302f 78bc 43df 07be
00000060: d76a 3abd 0ac1 c63d 03f8 603d 0c22 36bc
00000070: c8f6 943d b847 01be 66fe 903c 6dd4 52bd
00000080: b089 973d e199 353c e34f cabc eb73 20be
00000090: 0ca4 f33d 7930 fa3d 2d89 32be f98b d23d
000000a0: 7cb3 c63d 2034 fc3d c658 183e 38e6 f9bd
000000b0: c5d5 23be e986 f4bc 2baf f5bd c59e 26be
000000c0: c4d0 093e 8111 bbba
-0.06165617 -0.12326442 0.06485271 0.010280841 0.108652145 -0.056264024 0.13050917 0.09737403
0.05524993 0.029004758 -0.13941343 0.0668212 0.01706496 0.08920354 -0.021635376 -0.14995979
0.07080356 0.10106293 0.009025856 0.015088595 -0.06875603 0.11174224 -0.015147969 -0.13268761
-0.045512047 0.09704788 0.054924022 -0.011116516 0.07273632 -0.12625015 0.017699432 -0.051472116
0.07399309 0.011084051 -0.024696296 -0.15669219 0.11896524 0.12216277 -0.17435141 0.10280604
0.09702203 0.123146296 0.14877614 -0.12202114 -0.15999515 -0.029849486 -0.11996301 -0.16271503
0.13458544 -0.0014272184

bias_hh_l1 f4 [50]
00000000: b8c2 8bbd dc28 32ba c1c4 96bb 8e80 273e
00000010: acec 6cbd 4e8f ce3d d9ec bebd 17d6 073e
00000020: 08de 76bd cf3f 15bd 45ff 8cbd da97 c8bd
00000030: c495 b0bb 3f7e 723d ab5c f7bd 1aa1 bb3d
00000040: 291c a4bd 551d 15bd 9409 293e c800 afbd
00000050: 1387 b03d bbc6 a23d be58 0ebd ac52 683d
00000060: 0378 80bd 6f2f b5bc 4700 253e 23f7 513c
00000070: e11c 4abd bb47 41bd 5cca a33d f8e1 dcbc
00000080: 939e 22bd c8c0 083e ef6a 0fbe 32e8 dabd
00000090: 797c 363d 2cd5 a7bd d154 f63c d9a2 9abd
000000a0: 3d50 b03d 0beb 45bd 1785 8b3c 4fb9 a4bd
000000b0: 8eea b6bc 3726 fdbd 7278 d0bc 18e2 8938
000000c0: 61c7 e03d 2da1 5abd
-0.06824249 -0.00067962497 -0.0046010916 0.16357633 -0.057842895 0.10085927 -0.09322519 0.13265263
-0.06027034 -0.036437806 -0.06884626 -0.097945884 -0.005388947 0.05920243 -0.12078222 0.09161587
-0.080131836 -0.036404926 0.1650756 -0.08545071 0.08619513 0.07948061 -0.0347526 0.056719467
-0.062728904 -0.022117345 0.16113387 0.01281527 -0.049343947 -0.047187548 0.07997581 -0.026963219
-0.03970201 0.1335479 -0.14005636 -0.10688819 0.0445523 -0.08194956 0.03006974 -0.07550592
0.08609054 -0.048319858 0.017031236 -0.08043157 -0.022328641 -0.123608045 -0.025448058 6.574782e-05
0.109755285 -0.053376365

weight f4 [1, 50]
00000000: 797f c7bc 6a03 c4bd fc69 93bd 4b02 4f3d
00000010: 2a14 aabd 2e7d 13be e4d1 013e d459 bf3d
00000020: c4f6 ffbd e32d d93d 8e11 da3b dc5d 86bd
00000030: 22b3 a63d 11fb 443d 6b09 58bd 6b47 42be
00000040: 2e86 0bbe 98f7 24be 9741 683c 3ac2 b2bd
00000050: ccbb 1e3e 60a0 9abd 99aa d73d 6ae6 4abd
00000060: bd3d 29be 1b29 13bd 7c16 a13d 01bd 0f3e
00000070: e454 5ebd d75c d2bd 1762 68bc 6ffc 9bbd
00000080: 3691 d1bd 4038 ecbb 2983 a43d 1482 94bd
00000090: f771 1e3e 1765 0e3e 31ad d3bd b027 233d
000000a0: faff 28bd d82d 6fbd 7def 073d 3169 febc
000000b0: f7f7 1abe 1b2b 26be 9de3 1a3e 1aaf 71bd
000000c0: 1194 7fbc acaf db3d
-0.024352776 -0.09570964 -0.07197949 0.050539296 -0.08304627 -0.14403221 0.12677723 0.09343305
-0.12498239 0.10604455 0.0066549247 -0.06560871 0.081396356 0.048090998 -0.052743357 -0.18972556
-0.13625404 -0.16110075 0.014175794 -0.08728452 0.15501326 -0.0755012 0.10530586 -0.049536146
-0.16527458 -0.035927873 0.07865617 0.14036943 -0.054280177 -0.10271614 -0.014183543 -0.07616507
-0.10232775 -0.007208854 0.08032829 -0.07251373 0.15473162 0.1390575 -0.10335768 0.03983277
-0.041259743 -0.05839333 0.03318738 -0.031056019 -0.15133654 -0.16227381 0.1512589 -0.05900488
-0.015599267 0.10726866
