Backend/SavedModels/rnn_model.pth (torch, 37780 bytes, 9 tensors)

weight_ih_l0 f4 [50, 9]
000000 21 c0 fc bd 7f aa fe 3d 7e da 51 bd 72 c4 ac 3d
       -0.12341333 0.12434863 -0.05123376 0.084359065
000010 f7 5f cd 3e 67 3f 34 be c4 20 08 3e 06 0a 23 be
       0.40112278 -0.17602311 0.13293749 -0.15921792
000020 5c c4 a2 3d 71 8a 8a 3d 62 e2 98 3d 80 db 1e bd
       0.07947609 0.06764687 0.07465054 -0.03878355
000030 4d 32 12 3e 15 99 7a 3e 76 7a 46 3d d9 06 f1 bb
       0.14277 0.24472459 0.04845663 -0.0073555526
000040 15 e3 a0 3d 00 37 62 3d 20 34 53 bd c4 5d 41 be
       0.078558125 0.055228233 -0.051563382 -0.18883425
000050 b9 55 d6 bd ad 88 0d be 35 6d d6 bd c2 00 19 bd
       -0.10465569 -0.13821669 -0.10470048 -0.03735424
000060 27 5a 5a 3d 4e 6a 35 be ba 58 91 3a 14 d9 5d bc
       0.053308632 -0.17716333 0.0011089065 -0.013540525
000070 cd 36 1b 3d 15 dd 70 bd 27 ca 4a bd 92 81 e2 3d
       0.03789406 -0.05880459 -0.049509194 0.1105987
000080 6f 91 03 be 77 4f e7 3d e7 a4 99 3d 76 f1 eb bd
       -0.12848447 0.112944536 0.07502156 -0.115206644
000090 2c 22 09 3e c2 e8 37 bd c4 6f 12 3c 91 9b 90 3c
       0.13391942 -0.04489971 0.00893778 0.017652305
0000a0 2c 10 81 3c 85 0f 0f 3c 4a 4b 09 3e 09 23 40 bd
       0.015754782 0.0087317275 0.13407627 -0.046908412
0000b0 8a 2e e3 bb 13 54 1f bd bd fd 70 3e ef 29 86 3d
       -0.006933038 -0.03889854 0.23534293 0.06550967
0000c0 e5 72 52 3e 27 fb 99 bd 23 da e0 bd 5b e1 fa 3d
       0.20551641 -0.07518607 -0.10979106 0.122500144
0000d0 91 e2 e9 3c 28 74 c8 3d 15 63 52 3c 3a 72 23 3e
       0.028550418 0.0978778 0.012841006 0.15961543
0000e0 98 c7 22 be 74 8d f6 3c 8c bf 52 3d 3b 59 34 3d
       -0.15896451 0.030096747 0.051452205 0.04403041
0000f0 96 f6 62 3d f2 13 5a bd 86 a3 1f 3d 1d 15 08 3e
       0.055410944 -0.053241678 0.038974307 0.13289304
000100 82 f2 6f bc df 14 1b 3e 53 a1 0e be 0e b2 77 3d
       -0.014645221 0.1514468 -0.13928728 0.06047254
000110 93 dc 9a bd d8 0d d3 bd 79 b7 12 be b1 bf bb 3d
       -0.075616024 -0.10305375 -0.14327802 0.091674216
000120 82 05 03 be 5b d4 70 3e 74 42 df bd 4c 02 13 3e
       -0.1279507 0.23518507 -0.10901347 0.14356345
000130 e5 00 6a 3c 1f 68 d7 bc b7 7b e5 bc 1c ec 39 be
       0.01428244 -0.026294766 -0.028013093 -0.18156475
000140 73 58 98 3d 79 e8 37 bc 78 f1 13 be a5 13 ff 3d
       0.07438745 -0.011224859 -0.14447582 0.12454919
000150 99 31 cf 3d 7b 9c ad be 15 93 91 3c 05 90 dc bd
       0.10116882 -0.33908448 0.01777033 -0.10769657
000160 0a 6f f2 bd 5d f2 ed 3c a0 73 2e bd b1 6b a0 bd
       -0.11837585 0.029046232 -0.042590737 -0.078330405
000170 f1 a1 9c bd 95 b5 71 3d 5b 50 92 be 82 ec f5 bc
       -0.07648075 0.05901106 -0.2857693 -0.030020002
000180 c2 4e 2d be 2b 93 1f 3e 14 55 a6 bc f2 64 98 3d
       -0.16924575 0.15583484 -0.02030424 0.07441129
000190 36 f8 90 be b3 9a 38 3d 88 bd 15 be 27 8f 22 3e
       -0.2831437 0.045069408 -0.14623082 0.15874921
0001a0 21 f3 d5 bc e1 c1 11 3e 97 a5 e1 bd 93 c0 26 3e
       -0.02611691 0.14234115 -0.11017912 0.16284399
0001b0 1e 28 2d 3e ac e1 b8 bc d1 50 ae bd 46 bd 95 3c
       0.16909835 -0.022568546 -0.08511508 0.01827873
0001c0 f7 85 5c be 9b 0e f9 3d e2 62 72 3d 8b 02 9a 3e
       -0.21535479 0.12160989 0.059176333 0.30080065
0001d0 26 82 73 3d f8 f3 02 be d8 50 1d 3e ab d6 59 3c
       0.05945029 -0.12788379 0.1536287 0.01329581
0001e0 1b d8 71 3c 74 b4 4d 3e d1 aa c2 bd cd 53 80 3d
       0.014760996 0.20088369 -0.09505237 0.06265984
0001f0 be df 3a be aa 60 b3 bd 94 e0 bd 3b 6d f0 2c bc
       -0.18249413 -0.087586716 0.005794594 -0.010555369
000200 4f 1e 23 bd a5 55 a6 3d 9a bb 23 be db 5c 0e 3e
       -0.039823826 0.08121804 -0.15989533 0.13902609
000210 f5 cf af bd 98 b4 e4 bc 56 9c ed bc 40 9f c4 3d
       -0.085845865 -0.027918145 -0.02900521 0.09600687
000220 12 c2 1b be 7a c2 4c bc df 84 35 3e 12 9c f9 bb
       -0.1521075 -0.012497539 0.17726468 -0.007617482
000230 0d 15 03 3d d9 95 80 3d 2c 77 46 bd 4f a9 e1 bc
       0.032002497 0.06278581 -0.048453495 -0.027546553
000240 4b 43 e0 bd f5 e1 03 3e 2e 14 ec bd 9f 49 1d 3e
       -0.10950335 0.12879165 -0.115272865 0.15360115
000250 34 b3 dc be 74 d4 7b bc fd 4d 8b bd 6f 61 e6 3b
       -0.4310547 -0.015370477 -0.068019845 0.007030658
000260 e4 7c 97 3e d0 48 b0 bd 02 04 9f bd cf 3c 1c 3e
       0.2958747 -0.08607638 -0.07764436 0.15257572
000270 ce 0f f4 bc b0 6a 56 bd 1b 16 ea bd 8a 00 83 bd
       -0.029792693 -0.05234784 -0.114299975 -0.06396587
000280 b0 60 83 3b 78 4a 3f 3d ae 66 bc bd 4f 93 54 3c
       0.004009329 0.04670188 -0.09199272 0.012974574
000290 85 e7 28 bd 4d 1a 37 be 97 5d 32 3d f4 6e 1c be
       -0.04123642 -0.17881127 0.043546285 -0.152767
0002a0 17 91 7a 3d b8 c8 84 3d 36 b5 3e bd 3b b5 e5 3d
       0.061173525 0.064835966 -0.046559535 0.112162076
0002b0 7d f9 92 bd 0c 96 3f 3b 27 a4 13 be 2d d2 d1 bd
       -0.07176492 0.0029233722 -0.14418088 -0.10245166
0002c0 31 08 cc 3c 61 60 69 3c fa 95 c3 3c 51 4f ba bd
       0.02490625 0.01424417 0.023875225 -0.0909716
0002d0 ed 40 92 3c 07 99 04 be 0e e6 a7 3d e8 dd 00 be
       0.017853225 -0.12949 0.08198176 -0.1258465
0002e0 18 ae 61 3e 4f 60 e1 3d ab 62 10 be f2 04 7f bd
       0.22039068 0.110046975 -0.14100139 -0.062260576
0002f0 d2 bd 7c 3c 70 00 8f 3d 1c 1e a6 3c 68 77 77 bd
       0.015426116 0.06982505 0.02027803 -0.06041661
000300 6b 27 26 be 5c de 7e bd d3 88 cb 3d 83 9b 0d be
       -0.16225974 -0.062223777 0.099382065 -0.13828854
000310 a0 09 64 3c eb ed d2 bd 32 bb 77 3d 37 2d 4c 3e
       0.01391831 -0.102992855 0.060481258 0.19939123
000320 05 d7 63 3e 0e a6 be bd 8f c5 30 be 24 b8 f6 bc
       0.22249992 -0.09309016 -0.17262863 -0.030117102
000330 fe 81 a0 3d 25 df 83 be 15 98 68 3d 57 98 8e 3d
       0.07837294 -0.25756183 0.05678566 0.0696265
000340 d9 0a f8 bc ee 67 35 bc 5f 8a cc bd 99 53 36 be
       -0.03027861 -0.011072142 -0.0998733 -0.17805327
000350 bf bc 97 bd c5 f2 75 3d 30 79 33 3e 9c 6d fb bc
       -0.07409047 0.060045976 0.17526698 -0.030691914
000360 cc 53 25 bc a6 3a a1 be 1a 13 63 3e 55 92 21 be
       -0.0100907795 -0.31490058 0.22175255 -0.15778477
000370 1d b7 98 3d 8f e2 ae bd eb 83 32 3e 36 7a ad 3c
       0.07456801 -0.08539306 0.17433135 0.021176439
000380 08 b8 94 3e e5 02 1e 3d b8 fb 16 3c a4 56 e8 bd
       0.29046655 0.03857698 0.009215288 -0.113446504
000390 04 81 79 3e 64 0b ba 3e 95 38 f2 bc e4 94 14 be
       0.24365622 0.36336815 -0.029567996 -0.14509922
0003a0 78 a0 a6 be be 98 76 3e 63 38 b2 3d 36 22 95 bd
       -0.32544303 0.24081704 0.08702161 -0.07281916
0003b0 d6 8f a6 3d 27 fb 48 bd bf de d5 3c 13 d9 e7 3d
       0.08132903 -0.049067643 0.02610719 0.113207005
0003c0 0c 09 4b ba 3f cf f1 3d 36 d4 a1 bd 51 12 c4 bd
       -0.00077451835 0.11807107 -0.07901804 -0.09573806
0003d0 6e 35 5c be ac 4a d0 bc 7d 1b 39 bd 01 45 13 be
       -0.21504757 -0.025426231 -0.04519223 -0.14381792
0003e0 0a 73 a0 3d e7 e8 bc 39 1a ff 11 3e 3e 7f bb 3d
       0.07834442 0.0003603168 0.1425747 0.09155129
0003f0 37 0e bb bd 9b 22 dc bd e6 f2 ef 3d c9 21 6b bd
       -0.09133571 -0.10748788 0.11716251 -0.057405267

weight_hh_l0 f4 [50, 50]
000000 5c 8a c1 3d 31 bd 40 3e d2 30 d1 bd 30 60 50 bd
       0.09450218 0.18822171 -0.1021439 -0.05087298
000010 37 da 18 3e c4 7c 3b 3e 0f 92 1b bd 5a 52 ad 3d
       0.14926992 0.18309313 -0.03798109 0.08462973
000020 de e0 e0 3d ab 90 0a be 3e 72 cf bd b3 df c2 3d
       0.1098039 -0.13531749 -0.10129212 0.095153235
000030 4c 71 b3 bd 11 46 da 3c 9b cf 93 3d 25 d3 12 3e
       -0.08761844 0.026644738 0.07217332 0.14338358
000040 99 a8 a1 bd 81 2b 99 3d 23 6c c2 bd a4 37 81 3d
       -0.078934856 0.07479001 -0.09493282 0.06309441
000050 46 1d ad bb c8 cd b7 3d 84 5c f1 bd 72 3e 3d bd
       -0.0052830307 0.089747965 -0.11785224 -0.04620213
000060 00 a5 1c be dc 86 51 3c a9 91 ce 3c 9d 78 70 bd
       -0.15297318 0.012788501 0.02521594 -0.058708776
000070 51 72 8b bc ad 55 bf bc 29 e0 2c 3d 74 e8 c3 bd
       -0.017022284 -0.023356283 0.042205963 -0.09565821
000080 3a e8 c0 bc 89 48 9a bd f9 fd 0c 3d d4 20 e9 3d
       -0.023548234 -0.07533366 0.034421895 0.113832146
000090 15 a1 1c be e0 a1 e2 3d 9d 20 99 bd f4 aa 9a 3d
       -0.15295823 0.110660315 -0.074769236 0.07552138
0000a0 21 30 43 3d 8e 24 5a 3d cd 08 ff 3d 81 85 f1 bc
       0.04765332 0.053257518 0.124528505 -0.029482605
0000b0 97 12 33 bc 06 41 2a bd 1a c3 a1 bd bd 14 8d bc
       -0.010929725 -0.041565917 -0.07898541 -0.017221803
0000c0 5f 7f 02 bd 7f 12 5b 3d 52 2f da 3d 15 8e 0c 3e
       -0.03185975 0.053484436 0.10653557 0.13726075
0000d0 84 4c 2a 3e 91 a1 27 3d 63 36 9d 3d 87 6a 2f 3d
       0.16630751 0.040925566 0.07676389 0.0428262
0000e0 9e fc 17 be 22 fc ac 38 83 f9 18 3e e2 66 ac 3c
       -0.1484246 8.2485625e-05 0.14938931 0.021045152
0000f0 4d d4 eb bc 86 79 c6 bd 80 a0 a9 3d d0 2d 3d ba
       -0.028787756 -0.096911475 0.08282566 -0.00072166044
000100 6e 5b 11 bd d8 88 bc bc f1 7c 92 3d 14 a1 1e 3e
       -0.035487585 -0.023014471 0.07152737 0.15491134
000110 da ff ac 3d 6e 66 6a be 86 c2 5f 3d 14 2f 0c 3e
       0.08447237 -0.22890636 0.05462887 0.13689834
000120 e5 4c 20 3e 56 31 f3 bd 1f a4 7f bd 8f d9 8b 3e
       0.15654333 -0.118746445 -0.062412377 0.27314422
000130 dc 3a ae bc cf fb 2d 3e 3d 69 06 3e 0b 9f 8a 3d
       -0.0212683 0.16990589 0.13126083 0.06768616
000140 2f 45 2f be 57 a3 be 3d 0d d1 59 3d df b0 bd 3d
       -0.17116235 0.09308498 0.053177882 0.09262251
000150 de 8c 22 3e 07 d2 5d 3e 2e 27 a1 bb 4b 98 94 bd
       0.15874049 0.2166215 -0.0049180007 -0.0725561
000160 89 d5 31 be 86 79 12 be 2f 88 dd 3c 8c 9d cf bd
       -0.17366613 -0.1430417 0.027042476 -0.101374716
000170 5e a9 d8 3c fd f7 94 3d d9 2e ba bd 24 84 d0 3d
       0.026447948 0.072738625 -0.09090967 0.10181454
000180 11 98 e7 bd 47 1f 30 3d a7 40 c1 3d 97 87 0c 3d
       -0.11308301 0.04299858 0.094361596 0.034308996
000190 ba 0c 1a be d6 fb 39 be cc b5 79 3e 89 bc 33 be
       -0.15043917 -0.18162474 0.24385756 -0.17552389
0001a0 e0 c4 9f bc b9 b2 d4 bd 32 ba 09 be 24 8c d1 bd
       -0.019503057 -0.10385651 -0.13449934 -0.10231808
0001b0 53 a4 5c bd 4c 2c 97 3e 89 0b 28 3d e4 42 70 3c
       -0.05386765 0.29525983 0.041026626 0.0146643855
0001c0 fa 5f 3a 3d 04 f2 9c bc d5 76 c4 bb c8 56 d4 3d
       0.045501687 -0.01915837 -0.005995611 0.10368115
0001d0 82 8f 22 bd ea 73 11 bd 2d 07 e8 bd 58 10 7e 3d
       -0.03968764 -0.035510935 -0.11329494 0.062027305
0001e0 fb 79 ca bd 1d aa 76 3c a9 48 d1 bd d6 f7 a8 bd
       -0.09886547 0.015055207 -0.10218937 -0.08250396
0001f0 0a 1b f2 bd 51 8d 91 3d 7e 24 b2 bd 05 d1 7a 3d
       -0.118215635 0.07107032 -0.086983666 0.061234493
000200 0a e0 fd 3d 6e 13 8b 3c f9 35 86 bd de 71 4a bc
       0.12396248 0.016977038 -0.06553263 -0.01235625
000210 22 6e d3 bc 68 ea 91 be 26 73 93 3c d2 80 fe bd
       -0.025809351 -0.2849915 0.017999243 -0.12426914
000220 7c 76 51 3e 01 66 50 3c c6 15 f3 bd a0 5d 93 3c
       0.20455354 0.012719632 -0.11869387 0.01798898
000230 ac 74 d4 bd 66 c7 34 3d ae ad bf 3d 79 94 2c 3d
       -0.10373816 0.044135474 0.09359299 0.042133782
000240 bb aa 18 3d 12 36 cd 3d ff 32 3d 3e 8e c8 e5 bd
       0.037272196 0.10020079 0.18476485 -0.112198934
000250 b5 05 4e 3e d7 5f 92 3d 1e 58 ea 3c 26 b9 64 bd
       0.20119365 0.07147186 0.02860647 -0.055840634
000260 f1 3a 07 be f2 87 6f 3d 93 52 47 be 07 6d 3f 3d
       -0.13206078 0.058479257 -0.19465093 0.046734836
000270 51 25 c2 bb 9f ed 98 3d 0d e8 18 3d 67 11 a5 bd
       -0.0059248586 0.074671976 0.037330676 -0.0805996
000280 a4 7b fc bd 9c ea 9c bd f1 33 82 3d 00 24 0c be
       -0.1232827 -0.07661936 0.06357563 -0.13685608
000290 82 81 0f 3e 0a c7 86 bc 43 95 8b bd 8a 34 84 bd
       0.14014247 -0.016452331 -0.06815579 -0.064553335
0002a0 1e 46 9e bc 53 2c cd bd b7 f0 00 be 49 49 64 3d
       -0.019320544 -0.1001822 -0.12591825 0.055733953
0002b0 30 6e e9 3d a6 fe 58 3c a7 ce af 3d 90 23 1f bd
       0.1139797 0.013244307 0.08584338 -0.038852274
0002c0 2e 86 f9 3c 10 ed 6a bd 7f 1e 18 be 04 b5 e8 3c
       0.03045949 -0.057354987 -0.14855383 0.028406627
0002d0 42 ef 07 3e 69 05 a7 3b 0c 81 13 be 72 c0 90 3d
       0.13274863 0.0050970805 -0.14404696 0.07067956
0002e0 5d 5c 35 3d fb 33 32 3d 08 a0 68 bd 72 d5 a4 3d
       0.044277538 0.043506604 -0.056793243 0.08048524
0002f0 5a 9a 34 3e 95 ff 54 bd ae 4d 66 bd 3d 31 91 bd
       0.17637005 -0.052001555 -0.056226425 -0.070894696
000300 94 8f 02 bd ef b8 05 bd 35 c5 d4 bd b9 02 02 be
       -0.031875208 -0.03264707 -0.10389177 -0.12696351
000310 1f 9d fb 3c db 06 8b 3d 17 f8 02 be f1 11 38 be
       0.03071457 0.06788417 -0.12789951 -0.17975594
000320 72 fe b6 bd 99 ee dd 3c 5d 94 a5 bd 91 08 cb bc
       -0.0893525 0.027091311 -0.08084939 -0.024784358
000330 48 03 15 3e 2d c0 16 3e 29 44 96 bc 6f 36 ee 3d
       0.14552033 0.14721747 -0.018343048 0.11631476
000340 b0 c8 91 bd 55 2c 3b 3e 04 50 f6 bc 99 d4 ae 3d
       -0.07118356 0.1827863 -0.030067451 0.085366435
000350 22 a2 c4 3d 22 17 e1 3d 23 c0 65 bd ae a9 12 3e
       0.09601237 0.1099074 -0.05609144 0.1432254
000360 a5 6f 6e 3d 90 a5 bb 3d 67 90 1b be 64 db 8c bd
       0.05821194 0.09162438 -0.15191804 -0.06877783
000370 c8 39 75 3d cd 50 58 3c d0 be 82 bd b9 36 c6 bc
       0.059869558 0.013202858 -0.06384051 -0.024196016
000380 26 34 c8 3d ca df 17 3d a2 17 90 bc ab ea 96 3d
       0.097755715 0.037078656 -0.017589394 0.07368978
000390 b9 55 0f 3e 1d 4f b0 3b bb b5 15 be 5d 11 26 be
       0.13997544 0.005380525 -0.14620106 -0.16217561
0003a0 4a 0e ca 3d c2 de ba 3c db 53 f7 3d 20 a3 1e be
       0.09866007 0.022811297 0.12076541 -0.15491915
0003b0 5e e4 25 bd c1 13 1e bd 9c 50 1e 3d 21 0e c3 3d
       -0.04050099 -0.038593058 0.038651094 0.09524179
0003c0 b8 2e 6b 3d 65 51 b4 3d 87 da e9 bc 57 ad 47 3d
       0.0574176 0.08804587 -0.028546585 0.048749294
0003d0 e1 15 39 be 46 af b9 bd e2 7f e1 bd 9a b5 24 3e
       -0.18074752 -0.09066634 -0.1101072 0.160849
0003e0 e5 03 2b 3c 0f bb df bd 39 55 64 bb 77 54 ef 3d
       0.01043794 -0.109243505 -0.0034840836 0.11686032
0003f0 99 6d 04 be 99 49 63 bb 1a c8 cc 3d 29 ab 50 3e
       -0.12932433 -0.0034681319 0.09999104 0.20377792

bias_ih_l0 f4 [50]
000000 12 dc 25 bc e7 60 8d bc 39 77 aa 3d fc b4 b5 bd
       -0.01012327 -0.01725812 0.08323521 -0.08872411
000010 b2 dc 9d 3d c7 0d b0 3d 98 14 3f bd fe b8 5c 3c
       0.0770811 0.08596378 -0.0466505 0.01347184
000020 55 89 dd bc ce 43 d6 bc 44 f5 f0 bd c8 eb 4e bd
       -0.027043024 -0.026155379 -0.11765531 -0.050517827
000030 cf 3f 95 3a e3 47 05 3e b0 4b 19 be 39 55 d3 3d
       0.0011386814 0.13015704 -0.14970279 0.10318989
000040 c3 fd 0d 3e b7 08 7a bd a4 53 b9 bd 6d d0 3b 3e
       0.13866334 -0.061043467 -0.09049156 0.18341227
000050 0c b0 cc bd e3 2e a9 bd 0d 37 a7 bd f7 20 eb 3d
       -0.09994516 -0.08260896 -0.08164797 0.11480897
000060 bc 7f a2 bd 38 3b 0c be 15 25 43 bd 69 76 65 bc
       -0.0793452 -0.13694465 -0.047642786 -0.014005282
000070 34 4f 3c 3d 54 9c 8d 3d 85 51 79 3d a2 c6 30 3d
       0.04597397 0.06914583 0.06086876 0.04315818
000080 6a a8 7f 3b 46 d4 05 3d 56 e0 17 3e 83 20 02 be
       0.0039010295 0.032673143 0.14831671 -0.12707715
000090 90 1c a4 bd 4d 98 fe bd 86 a0 37 3d cd 62 12 be
       -0.0801326 -0.12431393 0.04483082 -0.14295502
0000a0 2c de dd bd a8 d7 3c 3d b1 b1 1f 3d c0 3a 23 3e
       -0.108333915 0.046104103 0.03898782 0.1594038
0000b0 87 d1 27 3c a4 00 df bc 7a 9e a6 3d 6c 06 e6 3d
       0.010242826 -0.027221985 0.08135696 0.112316936
0000c0 21 0e 13 bc 23 30 f7 3c
       -0.008975537 0.03017432

bias_hh_l0 f4 [50]
000000 4d ea 3c 3d c0 53 30 be fe 4d 7d bd ca c8 53 bd
       0.046121884 -0.17219448 -0.061841957 -0.05170516
000010 cb 37 80 3d 72 79 7a 3d a2 7d 04 3e 7f 23 fa bc
       0.06260642 0.061150976 0.1293855 -0.030534504
000020 2e 3c c0 bd a3 c0 a9 bd 46 6b e8 bd b5 81 0f bd
       -0.09386478 -0.08288696 -0.11348586 -0.035035808
000030 bb 7b cf 3d 43 65 c3 3c 24 5e ce bd 9a 36 14 3e
       0.101310216 0.023851996 -0.1007655 0.14473954
000040 b6 7a 08 3e 89 6d 3f be 06 a7 29 be 4b b5 23 3e
       0.1332806 -0.18694128 -0.1656762 0.15987127
000050 f3 17 b6 3d fd 13 29 bd 1d d3 11 be 7b f1 d6 3d
       0.08891287 -0.041278828 -0.1424069 0.104952775
000060 e3 19 62 bd a4 ee 83 3d 49 0d e6 bd 7b ac 1e bd
       -0.05520047 0.064420015 -0.11233003 -0.03873871
000070 7d b8 0c 3e ec bb 52 3d 8a 7c 01 be d3 55 b0 bd
       0.13742252 0.051448748 -0.12645164 -0.0861012
000080 a7 b3 96 3d 5b a0 35 be 91 58 ed 3c ea 8f 0d be
       0.07358485 -0.17736952 0.028972896 -0.1382443
000090 1a f3 31 3d c0 72 c7 3d ec d8 97 bd b4 45 d3 bc
       0.04344473 0.09738684 -0.074144214 -0.025790073
0000a0 04 44 99 bd bf a3 d9 3d 44 af b1 bc 1b 8c d1 bd
       -0.07483676 0.10626935 -0.021690018 -0.10231801
0000b0 f2 ec 8f bd 40 4c 03 be 76 1f 13 3e 04 ec 2f 3c
       -0.070276156 -0.12822056 0.1436747 0.010737423
0000c0 61 65 20 3e 4d 46 40 bc
       0.15663673 -0.011735511

weight_ih_l1 f4 [50, 50]
000000 2b 68 d4 3d ca 7d 05 3e 2c f8 12 3c a3 c8 fb 3d
       0.10371431 0.13036266 0.008970302 0.12294128
000010 ce e9 87 3d 14 0d 80 bd 27 46 e1 bd b7 49 ef bd
       0.066363916 -0.062524945 -0.109997086 -0.11683982
000020 87 4a ae bd 88 61 13 bd fe 8c b2 3d 91 e8 79 3d
       -0.08510309 -0.035981685 0.087182984 0.06101281
000030 c7 dd 24 bd a7 e0 83 bd 72 4a 76 3d 73 d0 f5 bd
       -0.040250566 -0.064393334 0.06012959 -0.12002649
000040 e3 a7 19 be 40 e9 a6 bc f9 0b 25 bd b8 80 96 3b
       -0.1500545 -0.020374894 -0.04029462 0.004592981
000050 c1 be d5 bd b4 c1 d9 3c df 37 65 bd 60 18 02 be
       -0.10436774 0.026581623 -0.055961486 -0.12704611
000060 3f 46 d4 3d 56 52 1b 3c 09 8e 5b bc 5b 60 b1 3d
       0.10364961 0.00948008 -0.013400563 0.086609565
000070 61 06 f5 bd ee ae b6 bc fa a4 ce 3d 52 d5 d8 bc
       -0.11964107 -0.02230021 0.100900605 -0.026468907
000080 b1 b1 17 be 5e cc ae bd ac 24 2e bd c3 ab c4 b9
       -0.14813878 -0.08535074 -0.04251544 -0.00037512006
000090 82 33 0a 3e 2a 6c 89 b9 1c d2 15 3e c8 5f de 3d
       0.13496211 -0.00026211265 0.14630932 0.108581126
0000a0 13 15 71 bc 2c ca 1d be cc 1e 2a 3d 2d fd c6 3d
       -0.014714497 -0.15409154 0.041533276 0.09716258
0000b0 27 3c c3 3d ca c1 f0 bd 7e 18 e6 3d 84 3c 4e 3d
       0.095329575 -0.11755712 0.1123514 0.05035068
0000c0 88 3a dc bd 2e 62 96 3b e1 90 36 3e 00 41 83 3c
       -0.107533514 0.0045893406 0.17828704 0.016022205
0000d0 0f 64 78 3c fd ee a5 bc 16 06 65 3b ac 6d 25 be
       0.015160575 -0.02025556 0.0034946254 -0.16155118
0000e0 34 d7 82 bd 45 d0 f7 3d 35 16 ef bd e7 f7 9d 3d
       -0.06388703 0.12100271 -0.116741575 0.07713299
0000f0 98 5e 1b bd c7 4c 3b 3e 3c 73 2a 3d 42 84 93 3d
       -0.03793201 0.18291007 0.041613802 0.072029606
000100 86 72 0a 3e 93 f2 54 bc f0 9e 10 bd 80 53 ad bd
       0.1352025 -0.012997287 -0.035307825 -0.08463192
000110 fe 5e 04 bb c7 29 85 3d 3c 69 01 3e 0b 59 e4 3a
       -0.0020198221 0.06502109 0.126378 0.0017421556
000120 dc 5a 7a 3d c8 ef bf bd 01 85 35 bd 39 90 27 3e
       0.061121807 -0.093719065 -0.044316296 0.1636361
000130 87 b5 1b 3e 09 20 9d 3d d9 32 0e bd ec 7b 2f 3e
       0.15205966 0.07672126 -0.03471646 0.17137116
000140 a0 6b dd bd c9 31 29 bd 15 ab 2c bd 96 28 03 be
       -0.108115435 -0.041307244 -0.042155344 -0.12808451
000150 08 64 89 3c e5 c1 8f bd e0 0f 2f bc d4 c3 c8 bc
       0.016771331 -0.07019404 -0.010684937 -0.02450744
000160 95 6d c1 3d 98 e7 ce 3d e3 f7 c1 3d e7 68 09 be
       0.09444729 0.10102767 0.09471109 -0.13418923
000170 b8 a6 89 3d 4b a4 5b 3d 6c a0 02 be 3a ab 93 bd
       0.06721252 0.05362348 -0.12756509 -0.07210393
000180 4f 91 aa bd 7e 7f dd 3c 8c 8d 4c 3e e6 6e 46 bd
       -0.08328497 0.027038332 0.19975871 -0.048445605
000190 51 ba 6d 3d f7 52 c5 bc 7c 7f ba bd 54 0d c5 bd
       0.058039013 -0.024087412 -0.09106347 -0.09621683
0001a0 aa 76 88 bd 5e d3 a9 bd fb 29 d7 bd 79 f8 bf 3d
       -0.066632584 -0.08292268 -0.10506054 0.09373564
0001b0 3a bb 22 be 35 76 66 be 83 3d a9 bd 16 79 26 bd
       -0.15891734 -0.2250603 -0.082636856 -0.04064282
0001c0 e4 99 54 3d d1 d7 05 be 4b 3a b1 bd cf 56 58 3d
       0.051904574 -0.13070609 -0.086536966 0.052817162
0001d0 d0 37 29 3c f2 53 9a bc 92 52 77 3c 60 e8 53 3e
       0.010328248 -0.018838856 0.01509537 0.20694113
0001e0 4b 9b 66 3c 88 61 b5 bc 1b 24 e4 bd 30 70 54 bd
       0.014075111 -0.022141233 -0.11139699 -0.051864803
0001f0 c7 75 10 3c c0 7a 29 be 31 d5 27 bd 62 68 57 be
       0.008817143 -0.16550732 -0.0409748 -0.21035913
000200 22 c8 67 3d 2c 89 02 bc a2 bb 2e bc 1a 15 66 be
       0.056587346 -0.007967275 -0.010664852 -0.22468987
000210 a7 58 08 bd 7f f2 fe 3d f2 cf e3 3d 89 ce 0b 3e
       -0.03328767 0.12448596 0.11123647 0.13653006
000220 e3 a2 1e be 7f 17 86 3b d2 92 08 3e 1a 89 58 be
       -0.15491824 0.0040921564 0.13337258 -0.2114605
000230 b5 fd 62 bd 48 98 51 3e 27 e6 98 bc 12 35 bf bd
       -0.055417735 0.20468247 -0.018664433 -0.09336294
000240 a4 ac a0 3d 98 59 ff bc 60 93 e5 bd c1 84 34 3e
       0.078454286 -0.031170651 -0.1120975 0.17628767
000250 77 57 c4 bd 7e 8b 3c bd d5 2f 90 be 15 c2 cc bd
       -0.09586995 -0.046031468 -0.28161493 -0.09997956
000260 71 67 0b bc c1 cc ef bd f1 8c b1 bd 38 dc 59 3d
       -0.008508549 -0.117089756 -0.086694606 0.053188533
000270 d7 82 32 3d 04 99 48 be bc f8 d3 3c c3 9b bc 3e
       0.04358181 -0.19589621 0.025875442 0.36837587
000280 29 c7 e0 3d 1b 55 b1 bd 80 9f 0d bd 87 70 91 be
       0.10975487 -0.08658811 -0.03457594 -0.28406164
000290 88 1a 0c bd d3 82 0a be fd 6e 8d 3e bd 33 92 3d
       -0.03420499 -0.13526468 0.2762374 0.071387745
0002a0 d8 8f a0 bc dc b9 4c 3c a8 e4 70 be d4 64 66 bd
       -0.01959984 0.012495484 -0.23524725 -0.0562485
0002b0 5e 44 54 3e 1e f1 90 3e d8 c8 a7 bd 48 df bf be
       0.20729205 0.28308958 -0.08192605 -0.37475038
0002c0 38 a1 c8 3d 6e b0 a9 bc da 7f 98 bd 91 3c 1c be
       0.09796375 -0.020714011 -0.07446261 -0.15257479
0002d0 92 ac fa bd 1c b7 0b 3e ec a3 fa 3d 0a 4a 4c 3d
       -0.122399464 0.1364407 0.12238297 0.049875297
0002e0 3e ec 00 3e e1 15 93 bd 74 ca ba 3d 57 db 1a be
       0.12590119 -0.071819074 0.09120646 -0.15122734
0002f0 e0 00 27 3d 62 eb 52 bd 60 1d 83 bc c7 be 80 bd
       0.04077232 -0.05149401 -0.016005218 -0.06286388
000300 4e 6e 22 3e 56 6b f2 3c e8 ef fe 3a 8b f9 53 be
       0.1586239 0.029592197 0.001945016 -0.20700662
000310 64 6b 30 3d 7d 88 45 3d b6 48 48 bc 09 20 45 be
       0.043071166 0.04822587 -0.012224367 -0.19250502
000320 9a 7b d7 3a ec 8a f3 bd b3 b9 56 be ea c4 ba bd
       0.0016440034 -0.118917316 -0.20969276 -0.091195896
000330 20 ea 3b 3d 8a 21 30 3e e7 33 08 bd a3 c9 92 3d
       0.045877576 0.17200294 -0.033252623 0.071673654
000340 1e 09 74 3d d7 16 86 bc 6a b5 73 3d 35 be 76 be
       0.059579007 -0.016368313 0.05949918 -0.24095996
000350 93 1e 9d 3d 02 16 24 3e b8 b9 85 3c 74 82 1a bd
       0.07671847 0.1602402 0.01632391 -0.037722066
000360 a7 2b d0 bd 32 5d c6 3c 25 3c ae bd cb 8a 2a bd
       -0.10164576 0.02421436 -0.085075654 -0.04163627
000370 31 85 1e be b4 92 d6 3d cc b8 49 bd 59 94 2b 3e
       -0.15480496 0.104772 -0.0492485 0.16755809
000380 94 47 34 bd 2e b9 59 be 14 55 42 be 54 b5 58 be
       -0.044013575 -0.21262047 -0.18977767 -0.21162921
000390 4a 6a f0 3d 4a 30 ca bd 33 70 98 bd 99 8e df bc
       0.11739023 -0.09872492 -0.07443275 -0.027289676
0003a0 73 97 00 bd d5 87 d2 bb 17 5f ae 3d 1e 66 8c 3d
       -0.031394433 -0.006424884 0.08514231 0.06855415
0003b0 57 df ea bd fc ef 66 bc 61 bc 23 bd ba c1 eb bc
       -0.1146838 -0.014095303 -0.039974574 -0.0287789
0003c0 17 79 f8 bd 35 3b c3 3d a8 10 12 3e e6 79 02 3d
       -0.12132471 0.09532777 0.14264166 0.031854533
0003d0 68 35 5b 3c aa 8f 3a bd 8f 87 14 3e c8 d2 6e 3e
       0.013379432 -0.045547165 0.14504836 0.23322594
0003e0 ac 1a e2 bd d5 59 1a bd d8 4a b0 3d a1 c9 16 be
       -0.110402435 -0.037683327 0.08608025 -0.14725353
0003f0 1d fe 0f be 58 d7 1e bd 35 c4 46 bd 80 f9 18 3e
       -0.1406178 -0.038779587 -0.04852696 0.14938927

weight_hh_l1 f4 [50, 50]
000000 19 a9 1c bc d4 29 97 3d 99 47 0d 3e af 06 d5 3d
       -0.0095618 0.07381025 0.13796844 0.104016654
000010 0a 5b 9c bc cd f3 31 be 56 f6 43 3d 97 2d 12 3e
       -0.01908638 -0.17378159 0.047842346 0.14275204
000020 86 50 c0 3d 75 7d 0b 3d 57 05 2a 3e 19 dc 7c bd
       0.093903586 0.034055192 0.166036 -0.06173334
000030 65 89 94 bc c6 53 fb 3a 7c 42 c0 3d be 1c 24 3d
       -0.018131921 0.0019174747 0.09387681 0.040066473
000040 30 f0 d8 3d 08 18 e3 bb c9 7f 81 bd 86 98 3d 3c
       0.10592687 -0.006930355 -0.06323201 0.011572009
000050 87 1a 00 3d a6 3c 5b 3d 52 db 65 3c fc 33 8b 3c
       0.0312753 0.053524636 0.014029341 0.016992562
000060 e9 4d 03 be 68 94 03 be 4e f7 10 be bb fc 54 be
       -0.12822689 -0.12849581 -0.14156839 -0.20799534
000070 99 7f 02 be 4d 25 2b 3e 9d f7 a7 3c 99 3c ae bd
       -0.12743987 0.16713448 0.020503813 -0.08507652
000080 1d 0a 8b bd e8 35 e1 3d 12 ec 25 be f6 26 9c bc
       -0.06789038 0.1099661 -0.16203335 -0.019061547
000090 cb 1f 92 bd 77 21 a0 3c 64 af 3a 3e 82 4b ae bc
       -0.0713497 0.019547207 0.18230969 -0.02127624
0000a0 22 94 f5 3c 88 61 1c bd 99 eb b1 bd bd 2d 8e 3c
       0.029977862 -0.03817895 -0.08687515 0.017355794
0000b0 f9 0b 05 bb 97 85 84 bc a4 5b 29 be a1 92 91 3d
       -0.0020301326 -0.016176982 -0.16538864 0.07108045
0000c0 85 94 08 3e 7e 0b 2c 3e 79 eb 5a bd 67 8f ac 3d
       0.13337906 0.16801259 -0.05344722 0.08425789
0000d0 29 e8 21 be ef fb 32 be 2a 08 fe bd db d2 80 3d
       -0.15811218 -0.17478918 -0.12403901 0.062902175
0000e0 eb 93 c8 3d af 04 95 3c bd 57 ca bd 21 fb bd bd
       0.09793838 0.01819071 -0.09880016 -0.09276415
0000f0 d4 2a 0a 3d 53 99 90 bc 70 f6 9f bd a9 f4 92 bd
       0.03373225 -0.017651236 -0.07810676 -0.071755715
000100 35 44 f2 3b 97 02 a3 3c a4 51 44 3d ff 84 18 3d
       0.007393385 0.019898696 0.04792942 0.03723621
000110 b0 fb bb bd 54 9e e8 3d ac c5 b0 bd 35 fd 2d bc
       -0.09178865 0.11358324 -0.08631453 -0.010619451
000120 ce 3b d5 bc e0 5d 1f bd a8 d2 fa bd 63 83 18 3d
       -0.026029494 -0.038907886 -0.12247211 0.037234675
000130 1d 33 14 3e 70 36 e2 bc 7b 5a a8 3d c8 d7 c5 3b
       0.14472623 -0.027613848 0.08220383 0.006037686
000140 0f 25 63 3d 53 e0 98 3d bd 7d 0c bd 7d b1 e9 bc
       0.055455264 0.074646614 -0.0342996 -0.028527016
000150 e1 ea 15 be 95 2f 3e 3d f3 87 42 bb dd 34 10 3e
       -0.1464038 0.046432097 -0.0029683083 0.14082666
000160 04 36 03 bd 65 53 46 3d 22 b6 ab bb 24 2f 09 3e
       -0.032033935 0.048419375 -0.005240218 0.13396889
000170 16 1a 22 bc 5d 99 82 3c 29 41 36 bd b7 4f ff 3d
       -0.009893915 0.01594227 -0.044495735 0.12466376
000180 bc a1 dc bd 9a 59 d3 3d e3 a8 fb 3d 34 72 cd 3d
       -0.10773036 0.103198245 0.12288072 0.10031548
000190 21 f1 bd 3d e1 6f fc 3c 7e 41 32 3e 09 5a cf 3d
       0.09274507 0.030815067 0.17407796 0.10124595
0001a0 6c e3 d0 bd 97 17 16 3e 44 53 fd bd 36 86 7e 3d
       -0.10199627 0.14657436 -0.12369397 0.062139712
0001b0 a0 25 c7 3a a9 71 14 bd 17 c5 32 bc 4a 47 00 be
       0.0015193708 -0.036241207 -0.010911248 -0.12527195
0001c0 4c ec 79 bd 84 46 21 3d 91 bc b7 bc 9a 60 9b 3d
       -0.061016366 0.03937389 -0.022428783 0.07586785
0001d0 aa 81 67 bc 92 0e 5c bd f3 31 36 bc 3d 23 00 3c
       -0.014130035 -0.053724833 -0.011120307 0.007820901
0001e0 7a 9e 6a bd 1a 57 13 be be 25 d0 3d 67 bc fe bd
       -0.05728004 -0.14388695 0.10163449 -0.12438279
0001f0 17 e3 21 bd a9 1e 1a bb f4 da c0 be 62 35 d6 3b
       -0.03952321 -0.002351681 -0.37667048 0.0065371254
000200 aa 21 11 be a5 1e 7d 3d 94 b5 49 3d 0b f3 0b 3e
       -0.14172998 0.061796803 0.049245432 0.13666932
000210 43 14 c4 3d b2 f0 1f be 1f c1 e5 3d d7 1f e3 bd
       0.09574177 -0.15619162 0.112184756 -0.11090057
000220 c3 d6 02 3e 1c 76 4f 3d 5f aa cb 3d 5c 78 05 be
       0.12777238 0.050649747 0.09944605 -0.13034195
000230 04 ff 2a 3d 34 5f e1 3d 81 f4 98 3c fd 5d 48 bd
       0.041747108 0.11004487 0.018671276 -0.04891776
000240 07 65 65 3d b4 38 a4 bd fa 49 9c bc 0d 2d da 3d
       0.05600455 -0.08018628 -0.019078244 0.10653124
000250 9d d1 61 bd aa 7f 83 bd 82 49 e9 bc c7 06 13 3e
       -0.055131543 -0.06420834 -0.028477434 0.14358054
000260 01 ac 99 be de 47 88 3e 3e d8 40 be bf 2c e9 3d
       -0.3001404 0.2661733 -0.1883249 0.11385488
000270 eb 67 b8 bd 5c 70 57 3d 41 eb 25 be 37 b4 02 be
       -0.09004196 0.05259739 -0.16203023 -0.12764059
000280 90 00 3f be 9e e8 0d 3e a1 3a 0d 3e 11 e8 ab 3d
       -0.18652558 0.13858268 0.13791896 0.083938725
000290 6b ef 9c 3d 76 13 a3 39 97 39 ad bd f3 6f 8b bd
       0.07662853 0.00031104282 -0.0845825 -0.06808462
0002a0 cf 1d 8d 3d 96 b2 33 bd 55 cd a9 3d 22 47 26 3e
       0.06890451 -0.043871485 0.08291117 0.16238073
0002b0 79 b5 cc 3d df 74 83 bd ac b6 e4 3d b8 ad 06 bd
       0.09995551 -0.06418776 0.111676544 -0.032880515
0002c0 d0 a0 e2 bd c2 f6 29 3e da f9 f1 3c 37 e1 1e bd
       -0.11065829 0.16598037 0.029538084 -0.038789
0002d0 a0 b9 de bd 7f 30 ed 3e b3 92 75 be 49 e9 ea 3b
       -0.10875249 0.46326062 -0.23981743 0.007168923
0002e0 25 2d 26 be bc 68 4f bd 3b b8 85 3d 12 e8 03 be
       -0.16228159 -0.05063699 0.0652928 -0.12881497
0002f0 db 0b d6 bd 5a a3 9b bd 7d 83 bb bd 06 b1 9d 3b
       -0.1045148 -0.07599516 -0.09155939 0.0048123626
000300 ef bb fd 3d 49 7f 87 bc ed 43 71 3b 86 02 4a 3e
       0.12389361 -0.016540186 0.0036814169 0.19727525
000310 48 96 a9 3d c7 7f 79 3d 28 c5 6d 3d 13 d4 d4 3d
       0.08280617 0.060912874 0.05804935 0.103920124
000320 66 60 fa 3d a7 9d cb bd 14 cd 55 3e 57 ff d2 3d
       0.12225418 -0.09942179 0.20879012 0.103026085
000330 80 a1 82 bd f6 fc 63 bd 6c 2a 6e bd 3d f3 59 3d
       -0.0637846 -0.055661164 -0.058145925 0.053210486
000340 1f 0f 2b ba 61 e0 9d bd 81 26 c1 3c e7 2b 09 3d
       -0.00065253855 -0.077088125 0.02357793 0.033489134
000350 3f 78 8f bc af 30 14 3e e1 fe 1b be 46 78 3c 3c
       -0.017513392 0.14471696 -0.15233947 0.011503285
000360 63 98 5e 3c d6 6f b7 ba 51 68 e4 3c 13 7b c3 bc
       0.0135861365 -0.0013995122 0.027881773 -0.023862397
000370 9e df 15 be ad c8 46 3d 5c ce d2 3d d4 4d d2 3d
       -0.14636084 0.048531223 0.10293266 0.10268751
000380 24 eb c5 3d 08 af ce 3d 65 5e f6 bd e5 03 65 3d
       0.0966399 0.10091978 -0.12029723 0.055911917
000390 3f 87 1f bd e7 82 43 3d af f4 68 ba 97 e8 2d 3e
       -0.03894734 0.04773226 -0.00088865584 0.16983257
0003a0 6e 54 76 3e 63 f5 e2 3d 9f 82 e7 bd d1 c0 2d 3d
       0.24055645 0.1108196 -0.11304211 0.042420212
0003b0 83 f2 a6 3d c2 c3 a5 bc 6b 3a 67 bc 4a 9b 9c 3d
       0.08151724 -0.020234946 -0.014113049 0.076468065
0003c0 66 9a 51 bc f2 72 04 be 8b 68 8e bd 4a 27 43 3d
       -0.012793159 -0.12934473 -0.06953534 0.04764489
0003d0 24 8d 54 bd 2d a4 f1 bc 63 87 97 3d 99 79 8c bd
       -0.051892415 -0.02949723 0.0739887 -0.068591304
0003e0 d6 86 b6 bd 5f c9 e2 3d 05 88 22 3c ce a6 b5 3b
       -0.08912437 0.11073565 0.009920125 0.0055435663
0003f0 38 45 22 be f0 7f da 3d e0 51 05 bd e6 5c a9 3d
       -0.15846717 0.106689334 -0.032548785 0.08269672

bias_ih_l1 f4 [50]
000000 16 3c 1c bd 35 21 5f 3d 48 c6 c0 3d eb 02 05 3e
       -0.03814324 0.054475028 0.09412819 0.12989394
000010 f4 c8 0a 3e a0 90 03 3e 02 2b bd 3c e6 93 ea bd
       0.1355322 0.12848139 0.023091797 -0.11453991
000020 eb c4 f0 bc 5d d9 be bd a6 8d d0 bd ba fc cc 3d
       -0.029390773 -0.093188025 -0.10183267 0.10009141
000030 74 37 35 3e de 66 26 3c d9 61 0d be 1b 22 0d be
       0.17696935 0.010156361 -0.13806857 -0.13782541
000040 09 e0 33 3e 45 eb 24 3d ab e9 65 bc 0e 71 e0 3d
       0.17565931 0.040263433 -0.014032762 0.109590635
000050 0c ad ec 3c ad 1d d6 3d 30 e1 e3 bd 92 b3 fc 3d
       0.028891109 0.10454879 -0.111269355 0.12338938
000060 a5 a9 08 bc f5 65 0c 3d ee f6 3e 3d 38 cd d0 bd
       -0.008341228 0.03427692 0.04662221 -0.10195392
000070 98 cf 56 bd 5b 25 d5 3d a8 41 cc 3d 09 da 1a 3e
       -0.05244407 0.104075156 0.099734604 0.15122236
000080 af 8c 0b be b0 d8 2d be 49 94 4d 3d 92 f6 c2 bd
       -0.13627885 -0.16977191 0.050190244 -0.09519686
000090 ba 25 88 bd 99 e5 e6 3c a2 ce 63 bc f1 7d 12 bd
       -0.06647821 0.028185653 -0.013904246 -0.03576464
0000a0 c7 c4 b8 bc 3c 4c 30 bd d5 61 18 3e 16 02 43 3d
       -0.022554768 -0.043041453 0.1488107 0.04760941
0000b0 f0 01 3c bd 67 5c 1f 3e 6c 3d 08 3e d5 ce ab bd
       -0.045900285 0.15562592 0.1330468 -0.083890595
0000c0 8a 7e 1d 3d ab 08 af bd
       0.038450755 -0.08546575

bias_hh_l1 f4 [50]
000000 ab 52 b1 ba a7 09 bb bd b8 9a 54 bd 14 7f 98 3d
       -0.0013528665 -0.091327004 -0.051905364 0.07446113
000010 51 a9 03 be 79 89 c8 bc 8e b2 28 3e ea 73 df bd
       -0.12857558 -0.024479615 0.16474363 -0.10910781
000020 b9 f3 e8 3d 67 f0 15 3e 29 3a d6 bd 55 4c df 3d
       0.113746114 0.14642487 -0.10460312 0.10903231
000030 37 ca 32 3e 25 14 a2 3c 17 88 8d 3d e3 7c c0 3c
       0.17459951 0.019784996 0.06910723 0.02349705
000040 74 3d 4e bb 9d 7f 1d 3e 90 8b 9c bd 52 7c 07 bc
       -0.0031469734 0.15380712 -0.07643807 -0.008269386
000050 5b a3 a3 3d f5 fb c3 bd f3 52 e4 bd 4c 62 d9 3c
       0.07990142 -0.09569541 -0.11148634 0.02653613
000060 a0 33 a3 3d af 2c 9a 3d eb e9 51 3c 6f c5 1a 3e
       0.07968831 0.07528054 0.012812118 0.15114377
000070 86 8c 06 3e 74 af 14 bc e8 c7 f3 3b 71 c7 b5 bd
       0.13139543 -0.009075034 0.007439602 -0.08875931
000080 b0 41 9d bd 97 bd 1b be 90 14 87 3c 3f 0d 46 bd
       -0.076785445 -0.15209042 0.016489297 -0.048352476
000090 4f 72 c6 3d 9a f3 b3 bd 9d 02 9e bb 33 49 05 3e
       0.096897714 -0.08786698 -0.004822089 0.13016205
0000a0 ff 1b 61 3d 86 bf 3c bc 33 19 a1 3c 61 62 0f 3e
       0.05495834 -0.011520272 0.019665336 0.14002372
0000b0 bc a9 1c be ac 74 6b 3d 1e a8 64 3d 35 c3 da bc
       -0.15299124 0.057484314 0.05582439 -0.02670441
0000c0 4e a2 00 3e bc d4 2c be
       0.12561914 -0.16878027

weight f4 [1, 50]
000000 0c 03 37 bc 75 e0 36 be dd 34 b9 3d d1 70 1c 3e
       -0.01117016 -0.17859061 0.09043286 0.15277411
000010 44 fc 11 3e 97 2c 14 3e 4a a0 f3 3d 30 f3 09 be
       0.14256388 0.14470135 0.11895807 -0.13471675
000020 e2 3b 3a 3d 9f 59 0e be 18 52 f4 bd bb 44 93 3d
       0.045467265 -0.13901375 -0.11929721 0.07190844
000030 08 70 44 3d 6f 6b b1 bd 37 b2 20 be 90 c8 a7 bd
       0.047958404 -0.086630695 -0.15692984 -0.08192551
000040 f5 e1 81 3d 62 45 a2 3d b1 71 96 3d 80 88 16 3e
       0.06341926 0.0792339 0.07345904 0.14700508
000050 f2 91 05 be 7f b1 22 3e a8 2b ef bd a4 bf ec 3d
       -0.13043955 0.15888022 -0.11678249 0.1155999
000060 d2 97 19 3e b2 e1 c4 3b fd e7 7c 3c cc 83 93 bd
       0.14999321 0.0060083503 0.01543617 -0.07202873
000070 1a 57 14 bd 28 98 19 be c2 9f 12 be fa bc fc 3d
       -0.03621588 -0.14999449 -0.14318755 0.12340732
000080 ba 29 5b 3d 0a 2c 6f bd 6e 83 1b 3e 74 56 23 bd
       0.05350659 -0.05839161 0.15186855 -0.03987737
000090 a6 70 08 3e 9a 45 83 3c d6 25 01 3d 5a e6 1f 3d
       0.13324222 0.0160244 0.031530224 0.03903804
0000a0 09 6d 2d bd 6d f6 a7 bc 51 e3 2a 3e ef d8 fb 3d
       -0.042340312 -0.020503247 0.16688277 0.12297236
0000b0 22 02 b8 bd 13 78 32 3d 3e f3 1b 3e 11 06 85 bd
       -0.08984782 0.043571543 0.15229508 -0.06495298
0000c0 bb e1 8b 3d 31 17 a1 3c
       0.06830164 0.019664379
