Backend/SavedModels/rnnmodel.pth (torch, 37780 bytes, 9 tensors)

weight_ih_l0 f4 [50, 9]
0	0x3dd2f64a	0.10300882
1	0x3e742e58	0.23845804
2	0xbd32e103	-0.04367162
3	0x3e1df2c1	0.15424635
4	0xbdb0cd49	-0.08632905
5	0xbdcaed89	-0.099085875
6	0x3d86bf51	0.065794595
7	0x3e758bed	0.23979159
8	0xbe04e375	-0.12977393
9	0x3db02fa6	0.08602838
10	0xb9f42932	-0.0004657
11	0xbc41a2a5	-0.011818563
12	0xbd418bd5	-0.047252495
13	0x3e649d9b	0.22325747
14	0xbe407963	-0.18796305
15	0x3d88c148	0.066774905
16	0xbd73c483	-0.05951358
17	0x3e421ab5	0.189555
18	0x3dbb0a40	0.091328144
19	0x3dd479e9	0.10374815
20	0xba3c4241	-0.00071815035
21	0x3ded7d33	0.115961455
22	0xbeabe08d	-0.33569756
23	0xbceb3c0a	-0.028715152
24	0xbd9b6e9c	-0.075894564
25	0xbdab4761	-0.08363224
26	0xbe3ffcd7	-0.18748794
27	0x3e315239	0.17316522
28	0xbd8b13c4	-0.06790879
29	0xbd6a7907	-0.057244327
30	0xbce2e27f	-0.027695892
31	0xbe249a26	-0.16074428
32	0xbdace78d	-0.08442602
33	0x3e3990fe	0.18121716
34	0x3bea7a93	0.0071557253
35	0x3d244da4	0.040113106
36	0xbdac9696	-0.084271595
37	0x3d6d4db6	0.05793544
38	0x3bad9bf5	0.0052981325
39	0x3ed7f43f	0.42178532
40	0x3eef9f05	0.4680101
41	0x3d4dd964	0.050256148
42	0xbe107603	-0.14107518
43	0xbeaae48c	-0.33377492
44	0xbd4a4056	-0.04937776
45	0xbc3bf2dd	-0.011471477
46	0x3e6b915b	0.23004667
47	0x3dc596eb	0.09647926
48	0x3e695af3	0.227886
49	0x3df18ae7	0.11794072
50	0x3d13adb9	0.036054347
51	0x3d9bea16	0.07613008
52	0x3c951432	0.018198106
53	0xbe0a2921	-0.13492252
54	0x3ca7869f	0.020449935
55	0xbe24e804	-0.16104132
56	0x3cbbfce0	0.022947729
57	0xbddde79d	-0.10835192
58	0x3d86ace2	0.065759435
59	0x3d81aa36	0.06331293
60	0x3cfb4cdb	0.030676296
61	0x3cb82fd9	0.022483753
62	0xbc8741bc	-0.016510837
63	0x3d772abe	0.060343497
64	0x3e0d5360	0.13801336
65	0x3c83a05a	0.016067673
66	0x3db2b332	0.08725585
67	0xbde585d6	-0.11207168
68	0xbd958a36	-0.07301752
69	0xbe15136a	-0.14558187
70	0x3d59ca59	0.05317149
71	0xbe5aaeee	-0.21355793
72	0x3dce680b	0.10078438
73	0xbdb23d7a	-0.08703132
74	0x3dbcefdb	0.09225436
75	0x3d9a4714	0.07533088
76	0x3e481a97	0.19541393
77	0x3d5af5ae	0.053456955
78	0x3e071af3	0.13193874
79	0x3dd4d2b3	0.1039175
80	0x3dadf27e	0.08493517
81	0xbd90042f	-0.07032048
82	0xbe09fb9c	-0.13474888
83	0xbd2068e6	-0.03916254
84	0xbdf17b3b	-0.117910825
85	0xbe0c5ea6	-0.1370798
86	0x3d171851	0.036888424
87	0x3e16092c	0.14651936
88	0xbe4f3047	-0.2023326
89	0xbc8227a4	-0.015888043
90	0xbe3f7694	-0.18697578
91	0xbdc127bc	-0.09431407
92	0xbbbcd872	-0.005763107
93	0xbe291a2c	-0.1651389
94	0x3e23c6ec	0.15993851
95	0xbdb8699e	-0.0900452
96	0xbdf16ef1	-0.117887385
97	0xbe4e4323	-0.20142798
98	0x3e2f4c75	0.1711901
99	0x3d7cdfbc	0.061736807
100	0x3dd62e9e	0.1045811
101	0xbd784ccd	-0.060620118
102	0x3e35b45c	0.17744583
103	0x3d1b489c	0.037911043
104	0xbc83e655	-0.016101042
105	0xbc10c03b	-0.008834894
106	0x3d00f5fe	0.031484596
107	0xbdc56099	-0.09637565
108	0x3e0820fd	0.13293834
109	0xbe1c8e71	-0.15288712
110	0xbbdc1ddb	-0.0067174262
111	0xbdd8af2a	-0.10580285
112	0x3d6d1734	0.057883456
113	0x3de2be4b	0.11071452
114	0x3d1a28d2	0.037636586
115	0x3e47fd7e	0.19530293
116	0xba113f48	-0.00055407407
117	0x3cd1938d	0.025583053
118	0x3dd985b0	0.10621202
119	0xbe286583	-0.16444974
120	0xbdd81213	-0.105503224
121	0x3dcd1006	0.10012822
122	0x3d6562a0	0.05600226
123	0x3d87fbcd	0.06639824
124	0xbdb184ed	-0.08667932
125	0x3d0e5f2b	0.034758728
126	0x3d986bfb	0.07442471
127	0xbdc4d8c0	-0.09611654
128	0xbc0270a5	-0.007961427
129	0xbe4cde87	-0.20006762
130	0x3e8f6d6f	0.2801318
131	0xbe020f0c	-0.12701052
132	0xbdcbd872	-0.09953393
133	0xbe4f14f9	-0.20222844
134	0x3e70d4be	0.23518655
135	0x3d136d33	0.035992812
136	0xbbb17559	-0.0054156003
137	0x3e0921b2	0.1339176
138	0x3bdb5664	0.006693648
139	0x3e206a7f	0.15665625
140	0x3ddd48cc	0.108049005
141	0xbda735bb	-0.08164545
142	0x3e25e72b	0.16201465
143	0x3e1e40e8	0.15454447
144	0x3e2a5cc2	0.16636947
145	0x3ebc136b	0.36733565
146	0xbd92387c	-0.0713968
147	0x3db2d5b1	0.08732165
148	0x3e492930	0.19644618
149	0xbda7baac	-0.08189902
150	0x3dc87010	0.09786999
151	0xbe84031d	-0.25783625
152	0xbdab6a5f	-0.08369898
153	0xbe22d28f	-0.15900634
154	0x3c2a0a21	0.0103783915
155	0xbc929407	-0.01789285
156	0x3e390c1e	0.18071029
157	0x3dbd1a88	0.09233576
158	0xbdca59e9	-0.0988043
159	0xbe63d5e5	-0.22249563
160	0x3e31a548	0.17348206
161	0xbe0c9162	-0.13727334
162	0x3e008f95	0.12554772
163	0xbb354f71	-0.002766576
164	0xbdbf35c8	-0.0933643
165	0x3c82171d	0.015880162
166	0x3da7bcce	0.081903085
167	0xbd9abdc0	-0.07555723
168	0xbcf6fae4	-0.03014893
169	0xbcf60698	-0.030032441
170	0xbd5e0cea	-0.054211535
171	0x3d373e3c	0.044737086
172	0x3c8d3738	0.017238244
173	0x3d6afefd	0.057372082
174	0x3e848f24	0.25890458
175	0xbe15e6e7	-0.14638864
176	0x3ccbed18	0.024893329
177	0xbe16f304	-0.1474114
178	0x3e66c392	0.22535542
179	0xbde857fa	-0.11344905
180	0x3da477d6	0.080306694
181	0xbe1ce99b	-0.15323488
182	0x3e32c4a5	0.17457826
183	0xbe34bfb2	-0.17651251
184	0xbe818414	-0.2529608
185	0xbda7233d	-0.08161018
186	0x3e42ffad	0.19042845
187	0x3d1c52fa	0.03816507
188	0x3d5f5f97	0.05453452
189	0xbe057fad	-0.13036986
190	0xbe0013e0	-0.12507582
191	0x3d868332	0.06567992
192	0xbd7f6d1e	-0.06235992
193	0x3de9a825	0.11409024
194	0xbe10b82b	-0.14132755
195	0x3dc726c5	0.097241916
196	0xbdb6b18a	-0.08920582
197	0x3e2a6f4b	0.16644017
198	0xbd21b4f3	-0.039479207
199	0x3d503bb6	0.050838195
200	0x3cc3f941	0.023922564
201	0xbe143361	-0.14472724
202	0x3df2d4b4	0.11856976
203	0xbe10a698	-0.1412605
204	0x3d97c9cd	0.07411537
205	0xbddc7b8c	-0.10765752
206	0xbb3e35a8	-0.002902368
207	0x3e1fc2cc	0.15601653
208	0x3d82f128	0.06393653
209	0xbd36b67d	-0.044607628
210	0x3d6e043a	0.0581095
211	0x3f1a8aee	0.6036824
212	0x3cd58818	0.026065871
213	0x3df92d63	0.1216686
214	0x3ddbd22c	0.107334465
215	0xbcdbf526	-0.026850294
216	0xbe0f3302	-0.13984302
217	0x3e46198f	0.19345687
218	0xbe04bb80	-0.1296215
219	0xbe19fa3d	-0.15036865
220	0x3dfb80cf	0.12280428
221	0xbd99de13	-0.075130604
222	0x3dfeb665	0.12437133
223	0xbe83a9e9	-0.2571557
224	0x3caebc8b	0.021330139
225	0xbe0541d1	-0.13013388
226	0x3e4eb128	0.20184767
227	0x3d9fc712	0.078016415
228	0x3e2c830e	0.16846868
229	0xbd89c3a7	-0.06726771
230	0xbdaea238	-0.085270345
231	0x3c267927	0.010160721
232	0xbcc44f31	-0.023963543
233	0x3e6918d5	0.22763379
234	0x3c84b5c3	0.016199952
235	0x3bc041ae	0.0058672046
236	0x3e3875d8	0.18013704
237	0x3e21deeb	0.15807693
238	0xbe0d813a	-0.13818827
239	0x3e321a48	0.17392838
240	0xbdafe953	-0.08589425
241	0x3d8bb496	0.068215534
242	0xbe58ffd4	-0.2119134
243	0x3e21cd46	0.15800962
244	0x3dd89002	0.10574342
245	0x3dd71cc9	0.10503537
246	0x3e12fff9	0.14355458
247	0x3e6c797d	0.23093219
248	0xbde9a372	-0.11408128
249	0xbe0d2967	-0.13785325
250	0xbe2c4d73	-0.1682642
251	0x3db6e6de	0.08930753
252	0xbd285c93	-0.04110391
253	0xbe5bbdc2	-0.21459106
254	0x3e1e4c23	0.15458731
255	0xbd6d01a8	-0.057862908

weight_hh_l0 f4 [50, 50]
0	0xbd7e5c1a	-0.062099554
1	0x3d3d76ce	0.04625588
2	0x3e0cc403	0.13746648
3	0xbcaaf98f	-0.020870952
4	0x3cd5f326	0.026116919
5	0x3de6b463	0.11264875
6	0x3d74e801	0.05979157
7	0x3e28f2f2	0.16498926
8	0x3cd11181	0.025521042
9	0x3e04e6c9	0.12978663
10	0xbbf85b8b	-0.007579272
11	0x3d1d9e5d	0.038481105
12	0xba6ebab7	-0.0009106802
13	0xbce9d7e6	-0.028545331
14	0xbdb2b043	-0.087250255
15	0x3d36d83f	0.044639822
16	0xbdb998db	-0.09062358
17	0xbdeaef17	-0.11471384
18	0xbd2ba349	-0.041903768
19	0x3e184168	0.148687
20	0xbc12f77e	-0.00897014
21	0x3d4111fb	0.047136288
22	0x3c66efd6	0.014095267
23	0xbde60a14	-0.11232391
24	0xbdb00230	-0.08594167
25	0x3e6a0528	0.2285353
26	0xbe35fd4b	-0.17772405
27	0x3d71db50	0.059047043
28	0x3da9bfb4	0.082885176
29	0xbd04b2c2	-0.03239704
30	0xbdbbcf52	-0.091704026
31	0xbdedbffe	-0.11608885
32	0xbe481f7e	-0.19543263
33	0x3e07348e	0.13203642
34	0x3d506d11	0.050885264
35	0xbd804a3f	-0.06264161
36	0x3dace6e9	0.0844248
37	0x3dd4032f	0.1035217
38	0xbcd30bf5	-0.025762537
39	0xbdf3f08a	-0.119111136
40	0x3cdb4590	0.026766568
41	0xbd815173	-0.06314363
42	0xbd187e20	-0.037229657
43	0x3cf2ea0e	0.029652622
44	0xbdce3f68	-0.100706875
45	0x3ca390d5	0.019966522
46	0x3be376eb	0.0069416664
47	0x3cfc8098	0.030823037
48	0x3e20f514	0.1571849
49	0xbdd7043e	-0.10498856
50	0x3d63fbf5	0.055660207
51	0x3c52c6bd	0.012864766
52	0xbdacc751	-0.08436454
53	0xbe13650c	-0.14394015
54	0x3d3a7f4b	0.045531552
55	0xbd2b91eb	-0.041887205
56	0xbd1240fe	-0.035706513
57	0xbe1f266d	-0.15542002
58	0xbdcc7e9d	-0.09985087
59	0xbd8b81e3	-0.06811883
60	0xbd391359	-0.045184467
61	0xbd0e8ab0	-0.03480023
62	0x3e054e8d	0.13018246
63	0x3d3c8a4f	0.04603034
64	0x3d8b60fd	0.068056084
65	0xbdba86ec	-0.091077656
66	0xba31b0f5	-0.0006778383
67	0xbd836f28	-0.06417686
68	0x3ce8180b	0.028331777
69	0x3d855382	0.065100685
70	0xbcabbbac	-0.020963512
71	0x3c81a648	0.01582636
72	0x3dbab603	0.09116747
73	0x3d1a389e	0.03765165
74	0x3dfae593	0.12250819
75	0xbccfdde0	-0.025374353
76	0xbe0164df	-0.12636136
77	0x3d95d5f9	0.07316203
78	0xbd23c029	-0.03997818
79	0x3e188c89	0.1489736
80	0xbb6448a3	-0.0034833334
81	0x3e353f07	0.17699824
82	0xbdf45768	-0.11930734
83	0x3d73b833	0.059501838
84	0x3e18b106	0.14911279
85	0xbd29b9bb	-0.041436892
86	0x3bd6b3aa	0.0065521793
87	0x3d73a90f	0.0594874
88	0xbd66f018	-0.056381315
89	0x3d0d242f	0.034458335
90	0x3da99dea	0.08282073
91	0x3cc815f9	0.02442454
92	0x3c8094cc	0.015695952
93	0xbcae53d9	-0.021280216
94	0xbe24b97a	-0.16086379
95	0x3d3539fd	0.044244755
96	0x3e0ce671	0.13759781
97	0xbe3dd154	-0.18536884
98	0x3e207424	0.15669304
99	0xbe1eb9f3	-0.15500621
100	0xbdd9e0de	-0.10638593
101	0xbe31fc62	-0.17381433
102	0x3c14bd7e	0.009078382
103	0x3d180b31	0.037120048
104	0x3c492a81	0.0122782
105	0xbdf38159	-0.118899055
106	0xbc130e23	-0.008975538
107	0xbc985925	-0.018597195
108	0xbd91d047	-0.07119804
109	0xba128ad3	-0.00055901444
110	0xbd8dc0d7	-0.06921547
111	0x3d1ea0f6	0.038727723
112	0xbdd5af2b	-0.10433801
113	0x3dfbc223	0.12292888
114	0xbdb7bad6	-0.08971183
115	0xbdbf5619	-0.09342594
116	0x3d839ace	0.06426011
117	0x3d70c77f	0.058784004
118	0xbcc226d8	-0.023700163
119	0xbdfbdb94	-0.122977406
120	0x3d88fb22	0.06688525
121	0xbdef38b3	-0.116807364
122	0x3cf514f4	0.029917218
123	0xbe3b3c93	-0.18284826
124	0xbc3cf0f4	-0.011532057
125	0xbdc4a62a	-0.09602006
126	0x3d16584a	0.036705293
127	0xbd2668c0	-0.04062724
128	0x3e08154a	0.13289371
129	0xbd1f4664	-0.03888549
130	0xbd15f03f	-0.03660607
131	0xbe70ad07	-0.23503505
132	0x3bf25982	0.007395924
133	0xbdc1b3b7	-0.09458106
134	0xbde838f3	-0.11338987
135	0x3cea352d	0.02858981
136	0x3e0966d4	0.13418132
137	0x3de0d8ea	0.10978873
138	0x3e2a9da7	0.16661702
139	0x3dd074f9	0.10178561
140	0x3c9dee83	0.01927877
141	0x3daa118e	0.083041295
142	0xbe000579	-0.12502088
143	0xbe29c458	-0.16578805
144	0xbddd7285	-0.108128585
145	0xbd5ea87e	-0.054359905
146	0xbd690adc	-0.056895122
147	0xbc9feb44	-0.019521363
148	0xbdc4cba5	-0.096091546
149	0x3db10d91	0.08645166
150	0xbdba7e4c	-0.091061205
151	0xbd283ebb	-0.04107545
152	0x3dc87d95	0.09789578
153	0x3e8d210e	0.2756428
154	0xbd3a5b7e	-0.04549741
155	0xbd0e7b5f	-0.034785625
156	0x3d0836d1	0.033255402
157	0xbcbfbcd9	-0.02340548
158	0x3d569ec4	0.052397504
159	0x3dcd44c6	0.10022883
160	0xbcaa30c1	-0.0207752
161	0x3d2d9293	0.042376112
162	0xbc59169a	-0.013250018
163	0xbb5f7408	-0.003409626
164	0x3da86990	0.082232594
165	0x3dcd7f01	0.1003399
166	0xbe8710ae	-0.26379913
167	0xbca2fab9	-0.019894945
168	0x3e33db7f	0.175642
169	0xbd8d1965	-0.06889609
170	0x3e27544b	0.16340749
171	0xbd1a6c99	-0.037701223
172	0xbdf7d747	-0.12101608
173	0x3b656a3c	0.0035005948
174	0xbda3e0e5	-0.080018796
175	0xbe1bcb74	-0.1521433
176	0xbcd49311	-0.025949033
177	0xbd43bd99	-0.047788236
178	0x3e11e41b	0.14247172
179	0x3d76901f	0.06019604
180	0x3e0301a5	0.12793596
181	0x3daaa8d2	0.08332981
182	0xbe021e0e	-0.12706777
183	0xbe2732f2	-0.16328028
184	0x3e10e865	0.14151151
185	0x3d0ce00e	0.034393363
186	0x3e0e739a	0.13911286
187	0xbdfb2dc8	-0.122645915
188	0xbddd896b	-0.10817226
189	0x3e7b7f07	0.24560176
190	0xbcd57e08	-0.026061073
191	0xbe1b4ef9	-0.15166844
192	0x3da3ff33	0.0800766
193	0xbe589102	-0.21149066
194	0xbe27c570	-0.1638391
195	0x3e0329d4	0.12808925
196	0xbd4b5207	-0.049638774
197	0x3dded193	0.10879817
198	0x3c0809cf	0.00830312
199	0x3aa90cf1	0.0012897534
200	0x3db16e68	0.086636364
201	0x3e362756	0.17788443
202	0x3c0d712a	0.008632937
203	0x3cfbbc26	0.030729365
204	0x3ea35497	0.31900474
205	0x3ddc386d	0.1075295
206	0x3c62d89c	0.013845589
207	0xbc751407	-0.014958388
208	0x3cbe21fa	0.02320956
209	0xbe1422ec	-0.14466447
210	0x3e3474b8	0.1762265
211	0x3ddaf94f	0.10692083
212	0xbdece187	-0.115664534
213	0x3df5114b	0.11966189
214	0xbc59c173	-0.013290751
215	0x3de35fca	0.11102255
216	0xbceee304	-0.029160984
217	0xbd5ff1c6	-0.054673932
218	0x3da13eb0	0.07873285
219	0xbe209db2	-0.15685156
220	0xbe7d436b	-0.24732749
221	0x3de530ee	0.11190973
222	0x3ac5eff7	0.0015101422
223	0x3e41669b	0.18886797
224	0x3e3715c1	0.17879392
225	0x3d9374c6	0.07200007
226	0xbe545949	-0.20737185
227	0x3ed1dc61	0.40988448
228	0xba8928b7	-0.0010464404
229	0xbdeca274	-0.11554423
230	0x3dfff390	0.12497628
231	0xbd55c289	-0.052187476
232	0xbddc0ad2	-0.10744251
233	0x3d324938	0.043526858
234	0x3e0bbc5d	0.13646074
235	0xbc8fb466	-0.017542075
236	0x3c6f7c78	0.014617078
237	0xbb08457a	-0.0020793364
238	0xbea8aba3	-0.32943448
239	0x3c92c866	0.017917823
240	0x3dac1a6c	0.08403477
241	0xbdda27d9	-0.106521316
242	0xbe85b4aa	-0.26114398
243	0x3e9da983	0.3079339
244	0xbd66d0b0	-0.056351364
245	0xbe1f5de3	-0.15563159
246	0x3e3da4b3	0.18519859
247	0x3e0b1a6b	0.13584296
248	0xbd2631d9	-0.040574882
249	0x3e1710a9	0.14752449
250	0x3da1fa21	0.079090364
251	0x3d628d54	0.055310562
252	0xbe253ef0	-0.1613729
253	0x3df704d9	0.120614715
254	0x3d96a643	0.07355931
255	0x3db30d5a	0.08742781

bias_ih_l0 f4 [50]
0	0xbc2574e4	-0.01009867
1	0x3e19a7fd	0.15005489
2	0xbdd75e6e	-0.10516058
3	0xbe274f28	-0.1633879
4	0xbdb1f29f	-0.086888544
5	0x3ce01d24	0.027357645
6	0xbe02e857	-0.12783943
7	0x3dc7d0cf	0.09756624
8	0xbd466c01	-0.048442844
9	0xbcf8937d	-0.030343765
10	0x3c957307	0.018243326
11	0xbe0bae7c	-0.1364078
12	0x3d029bf0	0.031886995
13	0x3de79949	0.11308534
14	0xbd580816	-0.052742086
15	0x3c25f020	0.010128051
16	0x3da5ab83	0.08089354
17	0xbcdbe252	-0.026841316
18	0xbe21ceb2	-0.15801504
19	0x3e25036e	0.1611459
20	0x3bfbc0f1	0.0076829125
21	0x3e2103d5	0.15724118
22	0x3d0e40e2	0.034729846
23	0x3e31721b	0.17328684
24	0xbce936ed	-0.028468573
25	0x3daea3c0	0.085273266
26	0xbd0ad881	-0.03389788
27	0x3cf01e1c	0.029311232
28	0xbe0309b9	-0.12796678
29	0x3dc53104	0.096284896
30	0x3dbe4123	0.092897676
31	0x3bdb3b44	0.0066904146
32	0x3dfbd7ba	0.12297006
33	0xb9db1b88	-0.00041791447
34	0xbe27d43d	-0.16389556
35	0xbbea2bab	-0.007146319
36	0xbe352359	-0.17689265
37	0x3e24b51c	0.16084713
38	0x3d967a07	0.073474936
39	0x3d9924a6	0.07477693
40	0xbe127dcf	-0.14305805
41	0xbddfccc4	-0.10927728
42	0x3e166c18	0.14689672
43	0xbbeba01e	-0.0071907183
44	0xbd6fd2cb	-0.058550637
45	0xbe2183fd	-0.15773006
46	0x3dbf74e4	0.09348467
47	0xbdf21e33	-0.11822166
48	0x3e3a6c17	0.18205296
49	0xbe14ca45	-0.14530285

bias_hh_l0 f4 [50]
0	0xbd870c94	-0.06594196
1	0x3d8a6d59	0.06759138
2	0xbdd2110e	-0.10257159
3	0xbcc9e55b	-0.024645498
4	0xbcefa644	-0.029254086
5	0xbe01447e	-0.12623784
6	0x3de44b46	0.1114717
7	0xbe077409	-0.13227858
8	0xbdcd2d53	-0.100184105
9	0xbd98e002	-0.07464601
10	0x3e0cd67f	0.13753699
11	0xbd908cfa	-0.07058139
12	0xbd867dfa	-0.06566997
13	0x3db646af	0.089002006
14	0xbd2a675c	-0.041602477
15	0xbd8c3895	-0.0684673
16	0x3dcb8601	0.099376686
17	0x3e0a0233	0.13477401
18	0xbe36c893	-0.1784995
19	0x3d1a1ab3	0.03762312
20	0xbd1f84d6	-0.03894504
21	0x3e40fbd9	0.18846072
22	0x3dce1f3a	0.1006455
23	0xbbb92817	-0.005650531
24	0xbde792c5	-0.11307291
25	0x3c2d9bf2	0.010596262
26	0xbdff0e14	-0.12453857
27	0xbd997b03	-0.07494166
28	0xbe03333b	-0.12812512
29	0x3cfe7e03	0.031065946
30	0xbd338c6f	-0.0438351
31	0x3e1c7306	0.15278253
32	0x3cf7866f	0.03021547
33	0x3e0cd9d3	0.13754968
34	0xbd78a3d5	-0.060703117
35	0xbdc9abc2	-0.09847213
36	0xbe2db429	-0.16963257
37	0x3e0afdd6	0.13573393
38	0xbc80afe4	-0.015708871
39	0xbe00c8e0	-0.12576628
40	0xbde953fd	-0.113929726
41	0x3cb44e94	0.022010125
42	0x3dd0bea0	0.10192609
43	0x3dbac2b4	0.09119168
44	0x3c921d49	0.01783623
45	0xbda036c8	-0.07822949
46	0x3e3b1976	0.18271431
47	0xbdc94569	-0.09827692
48	0x3dce628b	0.10077389
49	0xbda5c946	-0.080950305

weight_ih_l1 f4 [50, 50]
0	0xbd9ecd5e	-0.077540144
1	0xbe0fd558	-0.14046228
2	0x3dda6f17	0.1066572
3	0x3e2fb656	0.171594
4	0x3da63199	0.08114929
5	0xbde521bd	-0.11188076
6	0xba559c8d	-0.0008148633
7	0x3dcb8e74	0.0993928
8	0x3e182201	0.14856721
9	0x3da75b9e	0.081717715
10	0xbe353bf9	-0.17698659
11	0x3bac6957	0.005261581
12	0xbd06d1ad	-0.032914806
13	0x3d4dc10f	0.050232943
14	0x3e0fa76c	0.1402871
15	0x3dd295c0	0.10282469
16	0x3cdc33a4	0.026880093
17	0x3ddca3a4	0.107733995
18	0xbdd9104d	-0.10598812
19	0xbdbb7271	-0.09152687
20	0xbc98d600	-0.01865673
21	0xbdc79dca	-0.09746893
22	0xbb710bfe	-0.003678083
23	0xbc7fb01b	-0.015605952
24	0x3d6bcd1a	0.057568647
25	0x3dfd72a8	0.123753846
26	0x3d842852	0.06453003
27	0x3dae7eff	0.08520316
28	0xbd581d2d	-0.0527622
29	0x3d703c30	0.05865115
30	0x3ca0284d	0.019550467
31	0xbc0f691c	-0.008753087
32	0x3b99da73	0.0046952306
33	0xbe0eafb5	-0.13934214
34	0x3e0a9f9b	0.13537447
35	0x3e1360cc	0.14392394
36	0x3dc574a6	0.096413895
37	0xbe204711	-0.1565211
38	0xbde3e65b	-0.11127921
39	0x3c9d94d2	0.019236002
40	0x3d63c287	0.055605438
41	0x3d460c8a	0.048351802
42	0x3d2d08d1	0.042244736
43	0xbe0e161d	-0.13875623
44	0xbcdb1359	-0.026742624
45	0xbb74d32a	-0.003735731
46	0xbdb2340d	-0.08701334
47	0x3d9a10fb	0.0752277
48	0x3d13b4ca	0.036061086
49	0xbca77e78	-0.020446047
50	0x3dbcf181	0.09225751
51	0xbe1e6ff9	-0.15472402
52	0x3dd2ac25	0.1028674
53	0xbd962c20	-0.07332635
54	0xbe23060f	-0.1592028
55	0x3dcf0af5	0.10109512
56	0xbd5c26c2	-0.0537479
57	0x3e2026be	0.15639779
58	0x3e2ba616	0.16762576
59	0x3daa99c6	0.08330111
60	0xbe378d73	-0.17925052
61	0x3d5dd19d	0.05415498
62	0x3d744b4d	0.059642125
63	0xbe143327	-0.14472638
64	0xbc258fa1	-0.010105045
65	0x3aceb864	0.0015771505
66	0xbd268553	-0.04065449
67	0x3d31a90e	0.043374114
68	0x3ce3bafa	0.027799118
69	0x3d25ce89	0.04048017
70	0x3d6a9ec1	0.057280306
71	0x3dad0dcb	0.084498964
72	0xbd571dde	-0.052518718
73	0xbe28f5ca	-0.16500011
74	0xbd317b63	-0.04333056
75	0xbdf62f1b	-0.120207034
76	0x3e1d5b1c	0.15366787
77	0xbe12f7b0	-0.14352298
78	0x3dbbe214	0.0917398
79	0xbd973be3	-0.07384469
80	0xbe2cf736	-0.16891178
81	0xbd6f672f	-0.058448013
82	0x3c5c1c0a	0.013434419
83	0xbe0d8f8c	-0.1382429
84	0x3e249743	0.16073327
85	0x3e240398	0.16016996
86	0x3d5828f1	0.05277342
87	0x3dfbd75f	0.12296938
88	0xbd695601	-0.056966785
89	0x3dc53ae0	0.0963037
90	0xbd14ad5c	-0.03629814
91	0xbc623aef	-0.013807996
92	0x3b84d94b	0.0040542237
93	0x3d10c6ee	0.035345964
94	0xbd530ae5	-0.05152406
95	0xbcefa859	-0.02925508
96	0xbde27dc9	-0.11059148
97	0xbdd4e17e	-0.10394572
98	0xbbe11b40	-0.0068697035
99	0xbc4ba969	-0.012430527
100	0x3d541293	0.051775526
101	0xbba254e8	-0.0049539693
102	0x3e16aea6	0.1471506
103	0xbc18432e	-0.009293361
104	0xbdd08874	-0.10182276
105	0x3e36bbfb	0.17845146
106	0xbdfed303	-0.12442591
107	0x3ddd56e7	0.10807591
108	0xbc7b1424	-0.015324626
109	0x3de2dcce	0.110772714
110	0x3dc4475d	0.09583924
111	0xbd95874c	-0.073011965
112	0xbdbacbce	-0.09120904
113	0x3ce8ef3e	0.028434392
114	0xbd85dcf9	-0.06536288
115	0x3d9bf171	0.07614411
116	0x3dae2165	0.08502463
117	0x3dab7635	0.083721556
118	0xba3d5ec3	-0.00072238984
119	0x3ddc17db	0.107467376
120	0xbdce0224	-0.10059002
121	0xbb23261f	-0.0024894548
122	0x3d0243d5	0.03180297
123	0xbdf35d51	-0.11883033
124	0x3cf787f0	0.030216187
125	0x3d9ec18a	0.077517584
126	0xbce237f6	-0.027614575
127	0xbdb67903	-0.089098
128	0x3d059252	0.032610245
129	0x3e48e423	0.19618277
130	0xbca8505c	-0.02054613
131	0x3d38c802	0.045112617
132	0x3e14a524	0.14516121
133	0x3e56247c	0.20912355
134	0x3dc1f03d	0.0946965
135	0xbbfee389	-0.007778589
136	0xbdcd9c13	-0.100395344
137	0x3e00b679	0.12569608
138	0x3da7b7c1	0.08189345
139	0xbbadb74d	-0.005301392
140	0xbd093938	-0.033501834
141	0xbd8e7e32	-0.069576636
142	0x3c0a374b	0.008436034
143	0xbe662752	-0.22475937
144	0x3d7920b1	0.060822193
145	0x3c33906b	0.010959725
146	0x3c735102	0.014850857
147	0x3c712542	0.014718356
148	0x3e0844ff	0.1330757
149	0xbe019128	-0.12653029
150	0x3d2594cf	0.040425118
151	0x3d78bad4	0.06072505
152	0xbd978aa2	-0.07399489
153	0xbe059b1f	-0.13047455
154	0xbd73ad75	-0.059491593
155	0x3e0e601b	0.13903849
156	0xbde2e0a2	-0.110780016
157	0x3e0da7c1	0.13833524
158	0xbd247eb8	-0.04015991
159	0xbdc02355	-0.09381739
160	0xbc3ff31a	-0.011715675
161	0x3ddd79b0	0.10814226
162	0xbdd6faa4	-0.10497025
163	0x3e0172cf	0.12641452
164	0x3d320a07	0.043466594
165	0x3db2bb90	0.08727181
166	0xbad2ba16	-0.0016077186
167	0xbda1f57c	-0.079081506
168	0x3d29d1b2	0.041459747
169	0xbd6eafa3	-0.05827297
170	0x3d600421	0.054691438
171	0x3c8aaf2e	0.016929235
172	0x3da0fc73	0.07860651
173	0xbdbf697f	-0.09346294
174	0x3cb662a1	0.022263827
175	0x3df4e1e8	0.11957151
176	0x3d2fbc02	0.042903908
177	0xbd49c3f2	-0.049259134
178	0xbd494b47	-0.049144056
179	0x3d507387	0.050891425
180	0x3e145ca1	0.1448846
181	0xbd9abe9e	-0.075558886
182	0x3de21b44	0.11040357
183	0x3cdf0d4c	0.02722802
184	0x3d518f83	0.051162254
185	0x3d2c5a29	0.04207817
186	0xbe21009f	-0.15722893
187	0x3db4b40b	0.08823403
188	0x3d826322	0.06366564
189	0xbceddafb	-0.029035082
190	0xbca919d5	-0.0206422
191	0xbba37934	-0.004988814
192	0xbd893764	-0.06700018
193	0xbd6421e3	-0.05569638
194	0x3c9b6449	0.018968718
195	0x3cc2df37	0.023788078
196	0x3ac13ce8	0.0014742883
197	0x3ac43905	0.0014970606
198	0x3d5733d7	0.052539673
199	0x3d3a9819	0.045555208
200	0x3dbbbbc4	0.09166673
201	0x3c4f2fee	0.012645705
202	0x3dc467d4	0.09590116
203	0xbe324e2f	-0.17412637
204	0xbddf2627	-0.10895949
205	0x3e0dfa85	0.13865097
206	0x3d9b2e81	0.07577229
207	0x3ccfdc77	0.02537368
208	0xbd4e1571	-0.050313417
209	0x3cec5f79	0.028854119
210	0x3ded4618	0.11585635
211	0xbd6119a1	-0.054956082
212	0x3ca66f0c	0.020316623
213	0x3e39fd4d	0.18163033
214	0xbd3892b7	-0.045061793
215	0x3ddee5db	0.10883685
216	0x3d9d3c37	0.07677501
217	0xbdbce63b	-0.092236005
218	0xbe3f33fd	-0.18672176
219	0x3bca1372	0.006166869
220	0xbc02a1ad	-0.007973117
221	0x3d28415c	0.041077957
222	0x3e2032ca	0.15644374
223	0x3d599124	0.053116933
224	0xbd8ae292	-0.06781496
225	0x3da7005f	0.08154368
226	0x3d84e997	0.06489866
227	0x3d399e1d	0.045316804
228	0x3d5aff76	0.053466283
229	0x3e1482b5	0.14502986
230	0xbd0bc1c7	-0.034120347
231	0xbc25953d	-0.010106382
232	0x3d38e89e	0.045143716
233	0x3d8aff5e	0.06786989
234	0xbd8ce151	-0.06878913
235	0xbcecd497	-0.028909964
236	0x3db85330	0.09000242
237	0x3dea6689	0.11445338
238	0x3d3b0535	0.045659263
239	0xbe0cb4bf	-0.13740824
240	0xbc846f01	-0.016166212
241	0xbdd1b28f	-0.102391355
242	0xbd9a60e7	-0.07538014
243	0x3ded58c0	0.11589193
244	0xbd92d06a	-0.07168658
245	0xbd6ac86a	-0.057320036
246	0x3da9a63b	0.08283659
247	0xbdc8bc40	-0.09801531
248	0x3e078737	0.13235174
249	0x3d377385	0.044787902
250	0x3d9e28b4	0.07722607
251	0x3d84e6a4	0.06489304
252	0x3d09e91c	0.033669576
253	0x3d12b8ef	0.035820898
254	0x3ddfcd07	0.10927778
255	0xbda9a256	-0.08282916

weight_hh_l1 f4 [50, 50]
0	0x3dc67668	0.09690553
1	0xbc8f3fe2	-0.017486516
2	0x3d0734cc	0.033009335
3	0x3d8b752c	0.06809458
4	0xbe2d95f7	-0.16951738
5	0x3d06badf	0.032893058
6	0x3dc22e5d	0.09481499
7	0x3e32907a	0.17437926
8	0x3d4ae466	0.049534224
9	0x3b1f8afc	0.0024344316
10	0x3c88de56	0.01670758
11	0x3df6de2e	0.12054096
12	0xbe0cdadd	-0.13755365
13	0xbc8944ad	-0.01675638
14	0xbe0e45aa	-0.13893762
15	0x3d73e55d	0.05954491
16	0x3d128c90	0.035778582
17	0xbe014531	-0.1262405
18	0x3da5ea94	0.08101383
19	0xbdb9e687	-0.09077173
20	0xbd984288	-0.07434565
21	0x3d2a403d	0.04156517
22	0x3cf19a3d	0.029492492
23	0xbde87047	-0.1134954
24	0xbcdf8f92	-0.02729014
25	0x3dc92229	0.09820969
26	0x3e29923e	0.16559693
27	0xbd9b4a45	-0.07582525
28	0x3cb0dad2	0.021588717
29	0xbc2b1ceb	-0.010443906
30	0xbd4735ba	-0.048635222
31	0x3d141c31	0.036159698
32	0xbcee3a39	-0.029080497
33	0x3d7483c4	0.059695974
34	0x3dda2911	0.10652364
35	0x3e096949	0.1341907
36	0x3b3815b9	0.002808912
37	0x3db00f60	0.085966825
38	0xbd3e2af3	-0.04642768
39	0x3d020086	0.03173878
40	0x3da8e801	0.08247376
41	0x3da36929	0.07979042
42	0x3dbe26fc	0.092847794
43	0xbdbcd235	-0.09219781
44	0x3d714006	0.058898948
45	0x3e1def13	0.15423231
46	0xbd149079	-0.036270592
47	0xbd4be417	-0.04977807
48	0x3dfb755f	0.12278246
49	0xbd0f5476	-0.034992658
50	0x3e2bfb2d	0.16795035
51	0x3e1f4c1c	0.15556377
52	0x3ab20d0a	0.0013584208
53	0xbcef5bad	-0.02921852
54	0xbd9447e2	-0.07240273
55	0xbd73a8d6	-0.059487186
56	0x3c087334	0.008328248
57	0x3e02d899	0.12777938
58	0xbdfc8398	-0.12329787
59	0x3bf5dedf	0.007503375
60	0x3df1b52a	0.118021324
61	0x3dc36176	0.095400736
62	0xbce0cf0f	-0.027442483
63	0xbd6cde6d	-0.05782931
64	0xbdce6aed	-0.10078988
65	0x3c5ce678	0.013482682
66	0xbc2cb136	-0.010540297
67	0xbcd15684	-0.02555395
68	0x3e043e73	0.12914447
69	0xbd5a522a	-0.053301014
70	0xbde46a63	-0.11153104
71	0x3b64185a	0.0034804554
72	0xbd847c28	-0.064689934
73	0x3d3c1f5c	0.045928344
74	0x3b8c44fe	0.0042806854
75	0x3de6dc69	0.11272509
76	0xbc384b61	-0.0112484405
77	0xbbbc2fa4	-0.005742984
78	0xbe0130c9	-0.12616266
79	0x3cf25313	0.029580628
80	0xbd37630f	-0.044772204
81	0x3dd3ed2c	0.10347971
82	0xbdcbed11	-0.09957326
83	0xbdf69899	-0.120408244
84	0xbd53246a	-0.0515484
85	0x3ddbf5c2	0.10740234
86	0xbdec560b	-0.11539849
87	0x3cf08998	0.029362485
88	0x3dd164e0	0.102243185
89	0x3c9882c4	0.018617041
90	0xbe1bba48	-0.1520778
91	0x3df4d4e8	0.11954671
92	0xbcbb6cf6	-0.022879105
93	0x3cbecb01	0.02329016
94	0xbdcaa5f4	-0.09894934
95	0xbd44ff6f	-0.048095163
96	0x3dd6c186	0.104861304
97	0x3e22386f	0.1584184
98	0x3d9e53e1	0.077308424
99	0xbdcac0b1	-0.09900034
100	0x3d6c1ede	0.057646625
101	0xbd4e5915	-0.050377924
102	0x3dc760ea	0.09735282
103	0x3d920681	0.07130147
104	0xbd24a90a	-0.04020027
105	0x3d157f29	0.036498223
106	0x3e0cd3fc	0.1375274
107	0xbe18cdca	-0.14922252
108	0xbd94f124	-0.072725564
109	0xbd76e011	-0.06027228
110	0xbe0b1fdb	-0.1358637
111	0xbe07bbad	-0.13255186
112	0x3e14f300	0.14545822
113	0x3e118a6d	0.14212961
114	0x3bbe3758	0.0058049373
115	0x3deed071	0.11660851
116	0xbe063578	-0.13106334
117	0xbdf575dc	-0.119853705
118	0xbdc6f80e	-0.097152814
119	0x3e11cc53	0.142381
120	0x3cb59820	0.022167265
121	0x3d84406c	0.064576
122	0xbd044c43	-0.03229929
123	0xbdddfec9	-0.10839612
124	0x3e3093d8	0.17243898
125	0xbda0f2f7	-0.07858842
126	0xbdf29a61	-0.11845852
127	0xbdf00a4e	-0.117207155
128	0xbb1212de	-0.0022289078
129	0x3da9efb8	0.08297676
130	0xbd5a3348	-0.05327156
131	0x3e0a34e5	0.1349674
132	0x3df8fa2c	0.121570915
133	0xbcc8aab2	-0.024495456
134	0xbdaf3f9a	-0.08557053
135	0x3c828e2d	0.015936935
136	0x3dc7dfa6	0.097594544
137	0x3e012bbb	0.12614338
138	0x3dd4ee90	0.10397065
139	0x3bd37dc7	0.006454203
140	0xbd2d5b45	-0.04232337
141	0xbe04d25b	-0.12970869
142	0xbe1bfc40	-0.15232944
143	0xbd4c30a8	-0.04985109
144	0x3d01d992	0.03170163
145	0x3db9ee38	0.0907864
146	0xbdd226b5	-0.10261289
147	0xbcc91e58	-0.024550602
148	0x3d820e3f	0.063503735
149	0xbe4c48df	-0.19949673
150	0xbe33e97e	-0.17569539
151	0x3d8546af	0.065076225
152	0xbe053c68	-0.13011324
153	0xbdce7144	-0.100801975
154	0x3b510988	0.003189655
155	0xbcc4f412	-0.024042163
156	0x3e048828	0.12942564
157	0xbddd443f	-0.108040325
158	0x3c8a9310	0.016915828
159	0xbc508fdc	-0.012729611
160	0xbe14913f	-0.14508532
161	0xbdfc240a	-0.123115614
162	0x3d654a2a	0.05597893
163	0xbdc99c93	-0.09844317
164	0x3e0f50ed	0.13995714
165	0x3dd2f5fd	0.10300825
166	0x3c916119	0.017746495
167	0xbdd0a337	-0.10187381
168	0xbdc76a85	-0.09737114
169	0x3d19bed2	0.037535496
170	0x3c791b95	0.01520433
171	0xbd089e57	-0.03335413
172	0x3dc145db	0.09437152
173	0x3e013116	0.12616381
174	0x3bff5b08	0.007792834
175	0x3da5bd24	0.08092716
176	0x3d612c6b	0.054974
177	0xbdd2e5d5	-0.10297743
178	0xbc5bc884	-0.013414506
179	0x3e1c6631	0.15273358
180	0xbde2e966	-0.110796735
181	0x3dd3a8ee	0.10334955
182	0xbd874a2e	-0.066059455
183	0x3de5e873	0.11225977
184	0x3e25cbe0	0.16191053
185	0x3e0b8bb8	0.13627517
186	0x3e1386e0	0.1440692
187	0xbe2d150d	-0.16902561
188	0xbd37987a	-0.044823147
189	0x3cb43896	0.021999639
190	0xbd9295ef	-0.07157504
191	0xbddb61e9	-0.10712034
192	0x3d588f85	0.052871246
193	0xbdd4e09a	-0.10394402
194	0x3d2def13	0.042464327
195	0x3d13eab5	0.036112506
196	0x3de5c903	0.112199806
197	0xbc0d0cc4	-0.008609001
198	0xbdd1ba18	-0.10240573
199	0xbda31e56	-0.079647705
200	0x3d711db6	0.058866225
201	0xbc3b2219	-0.011421704
202	0x3dad4d25	0.0846198
203	0x3e10f1fe	0.14154813
204	0x3d909789	0.07060153
205	0xbd69acd6	-0.057049595
206	0x3db41a66	0.087940976
207	0xbd2846e1	-0.04108322
208	0xbc84a365	-0.016191194
209	0x3e0fef9b	0.14056246
210	0x3cb0c84c	0.021579884
211	0xbe0922f4	-0.1339224
212	0x3db585a4	0.088633806
213	0x3d0ab9fe	0.033868782
214	0xbd0adba1	-0.03390086
215	0x3d0cdc8d	0.03439002
216	0xbe37ef50	-0.17962384
217	0x3dc30ebe	0.09524296
218	0xbc3233be	-0.010876594
219	0xbc8db8b7	-0.017299993
220	0x3d8ca53f	0.06867456
221	0xbc70d909	-0.014700183
222	0xbdf8e24d	-0.121525384
223	0x3e35a69a	0.17739335
224	0xbb17f7c5	-0.0023188454
225	0x3bd12df3	0.0063836514
226	0xbcc13b0f	-0.023587732
227	0xbdd32e53	-0.1031157
228	0x3d91005d	0.070801474
229	0xbd594e8a	-0.053053416
230	0x3e33e9ee	0.17569706
231	0x3dca7aef	0.09886729
232	0x3de75a03	0.11296465
233	0xbd55e797	-0.052222814
234	0x3dfcce4b	0.12344035
235	0x3d579e38	0.052641124
236	0x3a9196db	0.001110758
237	0xbdbec140	-0.09314203
238	0xbe35a765	-0.17739637
239	0x3e13b917	0.14426075
240	0x3df50114	0.11963096
241	0x3d5ec312	0.054385252
242	0x3e0c77f8	0.1371764
243	0x3da5d9a7	0.080981545
244	0xba033306	-0.00050048565
245	0x3d1cd284	0.0382867
246	0x3e2f3fab	0.17114131
247	0xbb2c9fd0	-0.0026340373
248	0x3d1467e9	0.03623191
249	0x3deef580	0.11667919
250	0x3d0a4260	0.033754706
251	0xbdf1421e	-0.11780189
252	0x3d77f2e3	0.06053437
253	0xbd9440fd	-0.07238958
254	0x3d55bf8b	0.052184623
255	0x3e613a06	0.2199479

bias_ih_l1 f4 [50]
0	0x3d8bb974	0.06822482
1	0x3dd14475	0.10218135
2	0xbdbe867c	-0.093029946
3	0xbdd91c20	-0.106010675
4	0x3e308511	0.17238261
5	0xbe18c2be	-0.14918038
6	0xbb7ff683	-0.0039056845
7	0x3da48081	0.08032323
8	0x3dfbd25b	0.122959815
9	0x3df6fed8	0.12060326
10	0x3cd0bb37	0.025479896
11	0xbd3359b0	-0.043786705
12	0x3e2b30dd	0.16717859
13	0xbde3bed1	-0.1112038
14	0x3c221104	0.009891752
15	0x3d17c4cd	0.03705292
16	0xbd90be97	-0.07067602
17	0x3e1da3a9	0.15394463
18	0x3dc68a6e	0.09694372
19	0xbca42179	-0.020035492
20	0x3e089a7c	0.13340181
21	0x3d8b033b	0.067877255
22	0xbdad3254	-0.08456865
23	0x3d06dca7	0.032925274
24	0xbdadd97e	-0.08488749
25	0x3d5bc9bc	0.053659186
26	0xbe2ac930	-0.1667831
27	0xbd5409c4	-0.051767126
28	0xbd638dd3	-0.055555176
29	0x3e17b677	0.14815699
30	0x3c1e385b	0.009656991
31	0xbe10e418	-0.14149511
32	0xbd883adf	-0.06651854
33	0xbd1979f8	-0.037469834
34	0xbd7c0234	-0.06152554
35	0x3db62d46	0.08895354
36	0xbbf5fbbf	-0.007506817
37	0x3db02242	0.08600284
38	0xbdda967c	-0.10673234
39	0x3e0c600b	0.13708512
40	0x3ddd431b	0.10803815
41	0xbe108a11	-0.14115168
42	0x3d12d8e2	0.035851367
43	0xbdd4af9d	-0.10385058
44	0xbd36941d	-0.044574846
45	0x3bca7127	0.0061780396
46	0xbda0c351	-0.07849754
47	0x3e079582	0.13240626
48	0xbca24d32	-0.0198122
49	0xbcafdb40	-0.021466851

bias_hh_l1 f4 [50]
0	0xbda15eff	-0.07879447
1	0xbd236122	-0.039887555
2	0x3d8788ac	0.06617865
3	0x3db76839	0.08955426
4	0x3d8e3462	0.06943585
5	0xbc83b58a	-0.016077776
6	0x3d75053c	0.059819445
7	0xbd0e4914	-0.03473766
8	0x3d713908	0.05889228
9	0x3d82b35d	0.06381867
10	0x3dbc071b	0.09181043
11	0xbcc08bce	-0.023504164
12	0x3cb853db	0.022500923
13	0xbc929058	-0.017891094
14	0x3d88a5b7	0.066722326
15	0x3d980748	0.07423264
16	0xbd4ace79	-0.049513314
17	0xbc868380	-0.016420126
18	0x3daffe4a	0.08593424
19	0x3db0204c	0.0859991
20	0xbd9b0761	-0.07569767
21	0xbdb84d92	-0.0899917
22	0xbd6ec62f	-0.05829447
23	0x3d913ccc	0.07091674
24	0x3ca8d213	0.020607984
25	0xbcf5e141	-0.030014636
26	0xbe30335e	-0.17207095
27	0x3d96bebe	0.073606
28	0x3da50c22	0.08058955
29	0xbd9cbb74	-0.07652941
30	0x3d739bab	0.05947463
31	0xbd225bd4	-0.039638355
32	0x3dba9241	0.09109927
33	0xbe1c511b	-0.15265314
34	0x3dc9574c	0.09831104
35	0xbd99d49a	-0.07511254
36	0xbd2c542b	-0.042072456
37	0xbe2584be	-0.16163918
38	0xbd9a7534	-0.07541886
39	0xbdd3c87c	-0.10340974
40	0x3df761b8	0.12079185
41	0xbe2b624d	-0.16736718
42	0xbdf98d97	-0.12185209
43	0xbde77600	-0.113018036
44	0x3d4871c1	0.04893661
45	0xbe2ef49a	-0.17085496
46	0xbd185ebc	-0.03719972
47	0x3d16abda	0.036784984
48	0x3dab0158	0.08349866
49	0xbd906487	-0.07050424

weight f4 [1, 50]
0	0xbdc404c3	-0.09571221
1	0xbe081518	-0.13289297
2	0x3e3a26e5	0.181789
3	0x3df477dc	0.11936924
4	0x3d77e12d	0.06051748
5	0x3d8a6a91	0.06758607
6	0xbd4061f8	-0.04696843
7	0x3dec262c	0.11530718
8	0xbdba2098	-0.09088248
9	0x3d1880b6	0.037232123
10	0x3c20ef89	0.009822735
11	0x38a6b5e3	7.949376e-05
12	0xbcdfe68a	-0.02733161
13	0xbe348d5c	-0.1763205
14	0x3dbb5da9	0.09148724
15	0x3d4cf94b	0.05004243
16	0xbde3cb22	-0.11122729
17	0x3e1f05fc	0.15529627
18	0xbcef2148	-0.029190674
19	0x3da3b2af	0.079930656
20	0x3dfa6c0f	0.12227642
21	0x3d61b18e	0.05510097
22	0xbcd94ea8	-0.026526764
23	0x3d45ade0	0.048261523
24	0x3d91ae99	0.0711338
25	0xbd6253b8	-0.05525562
26	0x3ccd6519	0.025072621
27	0x3e23013d	0.15918441
28	0xbe1f2de4	-0.1554485
29	0x3bd0761c	0.006361736
30	0x3e44baac	0.19211835
31	0xbde7e516	-0.113229915
32	0x3e0c8654	0.13723117
33	0xbe32a611	-0.17446162
34	0xbd4be10b	-0.049775165
35	0xbc25abbf	-0.010111748
36	0x3e12341b	0.14277689
37	0x3cefaf30	0.02925834
38	0xbdefd026	-0.11709623
39	0x3e32faf5	0.17478545
40	0xbdd6d205	-0.10489277
41	0x3d511d75	0.051053483
42	0x3da143f1	0.07874287
43	0x3b148ec7	0.002266811
44	0xbdfec92d	-0.12440715
45	0xbe02614c	-0.12732428
46	0x3dba4b37	0.09096377
47	0x3e3e5838	0.1858834
48	0xbe225c45	-0.1585551
49	0x3e3259cd	0.17417069
